planning_aware_eval/interactive/data_collection/interactive/10_t2-7_1_c_r_f_1_0/transform/player.npy (npy, 11160 bytes, 1 tensors)

array f8 [197, 7]
000000 00 00 00 20 ab 9d 52 c0 00 00 00 00 62 14 4d c0
       -74.46356964111328 -58.15924072265625
000010 00 00 00 60 8f 32 5d 3f 00 00 00 e0 0a 8b 2d 3f
       0.0017820739885792136 0.00022539623023476452
000020 00 00 00 40 6a 59 f2 3f 00 00 00 e0 ff ff 0f bf
       1.1468298435211182 -6.103515261202119e-05
000030 00 00 00 00 00 00 00 00 00 00 00 20 ab 9d 52 c0
       0.0 -74.46356964111328
000040 00 00 00 00 62 14 4d c0 00 00 00 e0 28 50 5d 3f
       -58.15924072265625 0.0017891310853883624
000050 00 00 00 e0 0a 8b 2d 3f 00 00 00 40 6a 59 f2 3f
       0.00022539623023476452 1.1468298435211182
000060 00 00 00 e0 ff ff 0f bf 00 00 00 00 00 00 00 00
       -6.103515261202119e-05 0.0
000070 00 00 00 20 ab 9d 52 c0 00 00 00 00 62 14 4d c0
       -74.46356964111328 -58.15924072265625
000080 00 00 00 c0 cc 3c 5d 3f 00 00 00 e0 0a 8b 2d 3f
       0.0017845153342932463 0.00022539623023476452
000090 00 00 00 40 6a 59 f2 3f 00 00 00 e0 ff ff 0f bf
       1.1468298435211182 -6.103515261202119e-05
0000a0 00 00 00 00 00 00 00 00 00 00 00 20 ab 9d 52 c0
       0.0 -74.46356964111328
0000b0 00 00 00 00 62 14 4d c0 00 00 00 a0 1e 45 5d 3f
       -58.15924072265625 0.0017864989349618554
0000c0 00 00 00 e0 0a 8b 2d 3f 00 00 00 40 6a 59 f2 3f
       0.00022539623023476452 1.1468298435211182
0000d0 00 00 00 e0 ff ff 0f bf 00 00 00 00 00 00 00 00
       -6.103515261202119e-05 0.0
0000e0 00 00 00 20 ab 9d 52 c0 00 00 00 00 62 14 4d c0
       -74.46356964111328 -58.15924072265625
0000f0 00 00 00 c0 cc 38 5d 3f 00 00 00 e0 0a 8b 2d 3f
       0.00178356165997684 0.00022539623023476452
000100 00 00 00 40 6a 59 f2 3f 00 00 00 e0 ff ff 0f bf
       1.1468298435211182 -6.103515261202119e-05
000110 00 00 00 00 00 00 00 00 00 00 00 20 ab 9d 52 c0
       0.0 -74.46356964111328
000120 00 00 00 00 62 14 4d c0 00 00 00 60 3d 3e 5d 3f
       -58.15924072265625 0.001784858643077314
000130 00 00 00 e0 0a 8b 2d 3f 00 00 00 40 6a 59 f2 3f
       0.00022539623023476452 1.1468298435211182
000140 00 00 00 e0 ff ff 0f bf 00 00 00 00 00 00 00 00
       -6.103515261202119e-05 0.0
000150 00 00 00 20 ab 9d 52 c0 00 00 00 00 62 14 4d c0
       -74.46356964111328 -58.15924072265625
000160 00 00 00 80 99 25 5d 3f 00 00 00 00 dc a5 1c 3f
       0.0017789839766919613 0.00010928302071988583
000170 00 00 00 40 6a 59 f2 3f 00 00 00 e0 ff ff 0f bf
       1.1468298435211182 -6.103515261202119e-05
000180 00 00 00 00 00 00 00 00 00 00 00 20 ab 9d 52 c0
       0.0 -74.46356964111328
000190 00 00 00 00 62 14 4d c0 00 00 00 20 5c 17 5d 3f
       -58.15924072265625 0.0017755889566615224
0001a0 00 00 00 00 dc a5 1c 3f 00 00 00 40 6a 59 f2 3f
       0.00010928302071988583 1.1468298435211182
0001b0 00 00 00 e0 ff ff 0f bf 00 00 00 00 00 00 00 00
       -6.103515261202119e-05 0.0
0001c0 00 00 00 20 ab 9d 52 c0 00 00 00 00 62 14 4d c0
       -74.46356964111328 -58.15924072265625
0001d0 00 00 00 a0 47 f9 5c 3f 00 00 00 00 dc a5 1c 3f
       0.001768417307175696 0.00010928302071988583
0001e0 00 00 00 40 6a 59 f2 3f 00 00 00 e0 ff ff 0f bf
       1.1468298435211182 -6.103515261202119e-05
0001f0 00 00 00 00 00 00 00 00 00 00 00 20 ab 9d 52 c0
       0.0 -74.46356964111328
000200 00 00 00 00 62 14 4d c0 00 00 00 60 66 f2 5c 3f
       -58.15924072265625 0.0017667770152911544
000210 00 00 00 00 dc a5 1c 3f 00 00 00 40 6a 59 f2 3f
       0.00010928302071988583 1.1468298435211182
000220 00 00 00 e0 ff ff 0f bf 00 00 00 00 00 00 00 00
       -6.103515261202119e-05 0.0
000230 00 00 00 20 ab 9d 52 c0 00 00 00 00 62 14 4d c0
       -74.46356964111328 -58.15924072265625
000240 00 00 00 60 66 f2 5c 3f 00 00 00 00 dc a5 1c 3f
       0.0017667770152911544 0.00010928302071988583
000250 00 00 00 40 6a 59 f2 3f 00 00 00 e0 ff ff 0f bf
       1.1468298435211182 -6.103515261202119e-05
000260 00 00 00 00 00 00 00 00 00 00 00 20 ab 9d 52 c0
       0.0 -74.46356964111328
000270 00 00 00 00 62 14 4d c0 00 00 00 80 c2 ed 5c 3f
       -58.15924072265625 0.001765670720487833
000280 00 00 00 00 dc a5 1c 3f 00 00 00 40 6a 59 f2 3f
       0.00010928302071988583 1.1468298435211182
000290 00 00 00 e0 ff ff 0f bf 00 00 00 00 00 00 00 00
       -6.103515261202119e-05 0.0
0002a0 00 00 00 20 a9 9d 52 c0 00 00 00 c0 60 14 4d c0
       -74.46344757080078 -58.159202575683594
0002b0 00 00 00 20 85 db 5c 3f 00 00 00 a0 68 55 2f 3f
       0.0017613220261409879 0.00023905660782475024
0002c0 00 00 00 40 1d 4f f2 3f 00 00 00 a0 ff ff 1f bf
       1.1443150043487549 -0.00012207029067212716
0002d0 00 00 00 00 00 00 00 00 00 00 00 a0 a8 9d 52 c0
       0.0 -74.46341705322266
0002e0 00 00 00 60 61 14 4d c0 00 00 00 00 d7 c3 5c 3f
       -58.15922164916992 0.001755676232278347
0002f0 00 00 00 a0 68 55 2f 3f 00 00 00 40 48 53 f2 3f
       0.00023905660782475024 1.1453325748443604
000300 00 00 00 a0 ff ff ff be 00 00 00 00 00 00 00 00
       -3.051757266803179e-05 0.0
000310 00 00 00 a0 a7 9d 52 c0 00 00 00 e0 61 14 4d c0
       -74.4633560180664 -58.159236907958984
000320 00 00 00 20 33 b3 5c 3f 00 00 00 a0 7a 02 31 3f
       0.001751708914525807 0.00025954717420972884
000330 00 00 00 c0 57 57 f2 3f 00 00 00 00 a1 6f fb 3e
       1.1463239192962646 2.616505662444979e-05
000340 00 00 00 00 00 00 00 00 00 00 00 00 a4 9d 52 c0
       0.0 -74.463134765625
000350 00 00 00 20 63 14 4d c0 00 00 00 80 99 89 5c 3f
       -58.15927505493164 0.0017417906783521175
000360 00 00 00 40 d1 e2 3e 3f 00 00 00 80 63 61 f2 3f
       0.00047128304140642285 1.1487765312194824
000370 00 00 00 20 03 37 1c 3f 00 00 00 00 00 00 00 00
       0.00010763126920210198 0.0
000380 00 00 00 80 8d 9d 52 c0 00 00 00 a0 62 14 4d c0
       -74.46176147460938 -58.15925979614258
000390 00 00 00 a0 70 59 5c 3f 00 00 00 00 ee 36 5e 3f
       0.0017303085187450051 0.0018441509455442429
0003a0 00 00 00 60 bd 55 f2 3f 00 00 00 80 5b 7d 19 3f
       1.1459325551986694 9.723540279082954e-05
0003b0 00 00 00 00 00 00 00 00 00 00 00 c0 54 9d 52 c0
       0.0 -74.45829772949219
0003c0 00 00 00 80 61 14 4d c0 00 00 00 60 3d 2e 5c 3f
       -58.15922546386719 0.001720008789561689
0003d0 00 00 00 80 c4 44 72 3f 00 00 00 c0 26 6c f2 3f
       0.004460113123059273 1.1514041423797607
0003e0 00 00 00 e0 ff ff ff be 00 00 00 00 00 00 00 00
       -3.0517576306010596e-05 0.0
0003f0 00 00 00 c0 e8 9c 52 c0 00 00 00 40 5e 14 4d c0
       -74.45170593261719 -58.15912628173828
000400 00 00 00 00 00 d8 5b 3f 00 00 00 e0 25 fd 81 3f
       0.0016994476318359375 0.008783622644841671
000410 00 00 00 c0 3b 57 f2 3f 00 00 00 80 8d 6a 23 3f
       1.1462972164154053 0.00014813401503488421
000420 00 00 00 00 00 00 00 00 00 00 00 a0 3d 9c 52 c0
       0.0 -74.4412612915039
000430 00 00 00 80 57 14 4d c0 00 00 00 c0 a3 54 5b 3f
       -58.15892028808594 0.0016681288834661245
000440 00 00 00 60 c6 26 8d 3f 00 00 00 20 a2 20 f2 3f
       0.01423411350697279 1.1329671144485474
000450 00 00 00 80 db db 35 3f 00 00 00 00 00 00 00 00
       0.00033353909384459257 0.0
000460 00 00 00 e0 48 9b 52 c0 00 00 00 20 4f 14 4d c0
       -74.42632293701172 -58.15866470336914
000470 00 00 00 40 e1 ae 5a 3f 00 00 00 20 31 75 94 3f
       0.001628608675673604 0.019978301599621773
000480 00 00 00 40 7a f5 f1 3f 00 00 00 80 ef d1 3c 3f
       1.1224310398101807 0.00043975922744721174
000490 00 00 00 00 00 00 00 00 00 00 00 80 17 9a 52 c0
       0.0 -74.40768432617188
0004a0 00 00 00 00 4a 14 4d c0 00 00 00 e0 7a 30 5a 3f
       -58.15850830078125 0.0015984725905582309
0004b0 00 00 00 c0 42 43 99 3f 00 00 00 a0 ca 11 f2 3f
       0.024670641869306564 1.1293436288833618
0004c0 00 00 00 20 ec 21 45 3f 00 00 00 00 00 00 00 00
       0.0006449130014516413 0.0
0004d0 00 00 00 a0 90 98 52 c0 00 00 00 80 41 14 4d c0
       -74.38382720947266 -58.15824890136719
0004e0 00 00 00 40 0a a7 59 3f 00 00 00 40 50 67 9f 3f
       0.0015657043550163507 0.03066754713654518
0004f0 00 00 00 c0 3c 18 f2 3f 00 00 00 20 4a ab 49 3f
       1.1309173107147217 0.0007833587587811053
000500 00 00 00 00 00 00 00 00 00 00 00 80 c6 96 52 c0
       0.0 -74.35586547851562
000510 00 00 00 20 39 14 4d c0 00 00 00 a0 70 41 59 3f
       -58.15799331665039 0.0015414810040965676
000520 00 00 00 c0 60 7b a2 3f 00 00 00 e0 ec 33 f2 3f
       0.03609754890203476 1.1376770734786987
000530 00 00 00 20 06 10 50 3f 00 00 00 00 00 00 00 00
       0.0009803829016163945 0.0
000540 00 00 00 60 8f 94 52 c0 00 00 00 40 2d 14 4d c0
       -74.32125091552734 -58.157630920410156
000550 00 00 00 c0 cc ac 58 3f 00 00 00 80 d7 4d a5 3f
       0.0015060424339026213 0.0416095107793808
000560 00 00 00 60 89 30 f2 3f 00 00 00 a0 db 15 53 3f
       1.1368497610092163 0.0011648793006315827
000570 00 00 00 00 00 00 00 00 00 00 00 00 fa 91 52 c0
       0.0 -74.2808837890625
000580 00 00 00 00 1e 14 4d c0 00 00 00 a0 1e 25 58 3f
       -58.15716552734375 0.0014736937591806054
000590 00 00 00 00 69 1f a8 3f 00 00 00 c0 53 07 f2 3f
       0.04711464047431946 1.126788854598999
0005a0 00 00 00 c0 87 a9 56 3f 00 00 00 00 00 00 00 00
       0.0013831926044076681 0.0
0005b0 00 00 00 a0 00 8f 52 c0 00 00 00 00 0b 14 4d c0
       -74.23441314697266 -58.156585693359375
0005c0 00 00 00 80 14 a6 57 3f 00 00 00 a0 1c c5 aa 3f
       0.001443405169993639 0.0522850938141346
0005d0 00 00 00 00 10 bd f1 3f 00 00 00 a0 44 62 59 3f
       1.1086578369140625 0.0015493078390136361
0005e0 00 00 00 00 00 00 00 00 00 00 00 a0 8a 8b 52 c0
       0.0 -74.18033599853516
0005f0 00 00 00 60 f5 13 4d c0 00 00 00 40 b8 1e 57 3f
       -58.15592575073242 0.0014111327473074198
000600 00 00 00 20 82 20 ad 3f 00 00 00 00 ad 6a f1 3f
       0.0568886436522007 1.0885438919067383
000610 00 00 00 e0 10 e8 5b 3f 00 00 00 00 00 00 00 00
       0.0017032780451700091 0.0
000620 00 00 00 40 c8 87 52 c0 00 00 00 80 de 13 4d c0
       -74.12159729003906 -58.15522766113281
000630 00 00 00 c0 a3 cc 56 3f 00 00 00 40 5c 00 af 3f
       0.001391563331708312 0.060549624264240265
000640 00 00 00 20 61 1a f1 3f 00 00 00 80 a2 fc 5d 3f
       1.068940281867981 0.0018302523531019688
000650 00 00 00 00 00 00 00 00 00 00 00 20 bd 82 52 c0
       0.0 -74.04279327392578
000660 00 00 00 a0 c0 13 4d c0 00 00 00 40 e1 a2 55 3f
       -58.15431594848633 0.0013205718714743853
000670 00 00 00 20 de 3e b0 3f 00 00 00 a0 52 b8 f0 3f
       0.06345928460359573 1.045000672340393
000680 00 00 00 20 66 21 5f 3f 00 00 00 00 00 00 00 00
       0.0019000527681782842 0.0
000690 00 00 00 a0 24 7e 52 c0 00 00 00 40 a5 13 4d c0
       -73.97098541259766 -58.153480529785156
0006a0 00 00 00 c0 f5 c4 55 3f 00 00 00 60 d2 03 b1 3f
       0.001328697195276618 0.06646456569433212
0006b0 00 00 00 40 ce 61 f0 3f 00 00 00 c0 94 7c 5f 3f
       1.0238783359527588 0.0019217922817915678
0006c0 00 00 00 00 00 00 00 00 00 00 00 a0 0b 79 52 c0
       0.0 -73.8913345336914
0006d0 00 00 00 a0 86 13 4d c0 00 00 00 60 8f b2 55 3f
       -58.15254592895508 0.0013243103167042136
0006e0 00 00 00 e0 e8 cb b1 3f 00 00 00 20 02 0c f0 3f
       0.06951766461133957 1.0029317140579224
0006f0 00 00 00 c0 0b d6 5e 3f 00 00 00 00 00 00 00 00
       0.001882087206467986 0.0
000700 00 00 00 20 9c 73 52 c0 00 00 00 e0 65 13 4d c0
       -73.80640411376953 -58.151546478271484
000710 00 00 00 a0 70 a1 55 3f 00 00 00 20 ee 7a b2 3f
       0.0013202285626903176 0.07218826562166214
000720 00 00 00 40 59 6e ef 3f 00 00 00 00 c8 34 5d 3f
       0.9822202920913696 0.0017826035618782043
000730 00 00 00 00 00 00 00 00 00 00 00 80 0a 6e 52 c0
       0.0 -73.71939086914062
000740 00 00 00 a0 43 13 4d c0 00 00 00 e0 51 90 54 3f
       -58.1505012512207 0.0012551116524264216
000750 00 00 00 40 30 fd b2 3f 00 00 00 a0 44 c6 ee 3f
       0.07417584955692291 0.9617026448249817
000760 00 00 00 40 36 e9 5a 3f 00 00 00 00 00 00 00 00
       0.001642516115680337 0.0
000770 00 00 00 c0 f0 67 52 c0 00 00 00 e0 1d 13 4d c0
       -73.62406921386719 -58.149349212646484
000780 00 00 00 80 c2 f5 54 3f 00 00 00 e0 37 5f b3 3f
       0.0012792968191206455 0.07567166537046432
000790 00 00 00 60 1b 2e ee 3f 00 00 00 80 31 42 58 3f
       0.9431282877922058 0.0014806254766881466
0007a0 00 00 00 00 00 00 00 00 00 00 00 60 91 61 52 c0
       0.0 -73.52449798583984
0007b0 00 00 00 60 f6 12 4d c0 00 00 00 c0 cc 3c 55 3f
       -58.14814376831055 0.0012962340842932463
0007c0 00 00 00 c0 41 a3 b3 3f 00 00 00 80 cc 97 ed 3f
       0.07670985162258148 0.9247801303863525
0007d0 00 00 00 e0 ad 93 56 3f 00 00 00 00 00 00 00 00
       0.001377982902340591 0.0
0007e0 00 00 00 80 7e 5a 52 c0 00 00 00 00 cb 12 4d c0
       -73.41397094726562 -58.146820068359375
0007f0 00 00 00 00 d7 3f 55 3f 00 00 00 60 55 cd b3 3f
       0.0012969588860869408 0.0773518905043602
