planning_aware_eval/interactive/data_collection/interactive/10_s-6_0_p_j_f_1_j/velocity/player.npy (npy, 5408 bytes, 1 tensors)

array f8 [220, 3]
00000000: 0000 0000 0000 0000 0000 0000 0000 0000
00000010: 0000 0000 0000 0000 0000 0000 0000 0000
00000020: 0000 0000 0000 0000 0000 0000 0000 0000
00000030: 0000 0000 0000 0000 0000 0000 0000 0000
00000040: 0000 0000 0000 0000 0000 0000 0000 0000
00000050: 0000 0000 0000 0000 0000 0000 0000 0000
00000060: 0000 0000 0000 0000 0000 0000 0000 0000
00000070: 0000 0000 0000 0000 0000 00a0 0ce9 653f
00000080: 0000 00a0 b80f afbf 0000 0060 3d4c 5dbf
00000090: 0000 0000 b88f 643f 0000 0080 d70a adbf
000000a0: 0000 0080 99f9 2a3f 0000 0000 d6c8 633f
000000b0: 0000 00a0 4bfc abbf 0000 0080 eb7b 453f
000000c0: 0000 00e0 1c0d 633f 0000 00c0 5006 abbf
000000d0: 0000 0080 ebd5 4a3f 0000 00c0 53a0 623f
000000e0: 0000 00e0 8574 aabf 0000 0080 c29b 473f
000000f0: 0000 0000 2ca8 623f 0000 0040 6a92 aabf
00000100: 0000 0060 3d0a 383f 0000 00a0 b8b6 623f
00000110: 0000 0020 05b0 aabf 0000 0080 c2c1 313f
00000120: 0000 0040 dc4b 623f 0000 0040 981f aabf
00000130: 0000 0020 3399 443f 0000 00a0 a4c9 773f
00000140: 0000 0020 fcdc aabf 0000 0060 8fc2 173f
00000150: 0000 00c0 23e4 783f 0000 0020 858f abbf
00000160: 0000 0060 8fc2 113f 0000 00e0 acb6 793f
00000170: 0000 0080 7276 acbf 0000 0080 9959 1b3f
00000180: 0000 0020 c1fa 7a3f 0000 00c0 e3d6 adbf
00000190: 0000 0040 0ac7 123f 0000 0040 d5c5 853f
000001a0: 0000 0000 fff0 aebf 0000 0020 5c27 2e3f
000001b0: 0000 0020 e803 6a3f 0000 0000 6a98 b1bf
000001c0: 0000 0020 5cdb 3fbf 0000 00c0 0f67 6e3f
000001d0: 0000 0020 1590 b5bf 0000 00a0 9901 393f
000001e0: 0000 0040 64fb 743f 0000 00a0 f6d4 bdbf
000001f0: 0000 0060 3d1a 123f 0000 00a0 3b9f 803f
00000200: 0000 00e0 9a4f c7bf 0000 0080 140e 2abf
00000210: 0000 00c0 f5c7 763f 0000 0060 f353 c0bf
00000220: 0000 0060 6672 303f 0000 00a0 7da2 843f
00000230: 0000 0080 f0f4 cabf 0000 0060 8f02 353f
00000240: 0000 0020 51ca 843f 0000 0060 2c81 d0bf
00000250: 0000 0060 3d8a e4be 0000 00a0 d7ed 8a3f
00000260: 0000 0020 597c d3bf 0000 00e0 7a24 273f
00000270: 0000 0000 3f9a 903f 0000 00e0 222d d8bf
00000280: 0000 0080 c275 fcbe 0000 00c0 00e1 953f
00000290: 0000 00c0 0097 debf 0000 00c0 a3c8 22bf
000002a0: 0000 0040 9d40 973f 0000 0040 5119 e1bf
000002b0: 0000 00e0 28ac 20bf 0000 0060 c79e 993f
000002c0: 0000 00c0 d171 e2bf 0000 0060 8f1a 2f3f
000002d0: 0000 00a0 68b4 9b3f 0000 00a0 ac65 e4bf
000002e0: 0000 0000 00fc 3abf 0000 0080 efd5 9e3f
000002f0: 0000 00a0 8f35 e6bf 0000 0080 eb5d 443f
00000300: 0000 00e0 c106 a13f 0000 0060 7e6e e8bf
00000310: 0000 00c0 1e51 353f 0000 00a0 5cd1 a23f
00000320: 0000 0060 4747 ebbf 0000 00a0 9919 e3be
00000330: 0000 0040 982f a43f 0000 0080 0e62 edbf
00000340: 0000 0020 5c1f 133f 0000 0040 589d a53f
00000350: 0000 0020 0093 efbf 0000 0020 3333 25bf
00000360: 0000 00c0 d080 a73f 0000 00e0 a120 f1bf
00000370: 0000 00a0 70fd f7be 0000 0060 5a6e aa3f
00000380: 0000 0060 acdb f2bf 0000 00c0 1e85 35bf
00000390: 0000 0000 684a ac3f 0000 0060 adb5 f3bf
000003a0: 0000 0040 e10e 30bf 0000 0040 2a87 ae3f
000003b0: 0000 00a0 6342 f5bf 0000 0040 0a57 233f
000003c0: 0000 0080 a452 b03f 0000 00c0 a5f6 f6bf
000003d0: 0000 00e0 511c 343f 0000 0020 3248 b13f
000003e0: 0000 0020 0494 f8bf 0000 00e0 28c8 393f
000003f0: 0000 00e0 015e b23f 0000 0040 7c4a fabf
00000400: 0000 00c0 ccdc 16bf 0000 00c0 7556 b33f
00000410: 0000 00c0 58e6 fbbf 0000 0080 1446 21bf
00000420: 0000 0000 1add b43f 0000 00e0 2d56 febf
00000430: 0000 0000 0000 a03e 0000 0020 9fee b53f
00000440: 0000 00e0 ae0e 00c0 0000 0020 33f3 04bf
00000450: 0000 0060 670b b73f 0000 00e0 9bfa 00c0
00000460: 0000 00a0 1ed5 183f 0000 00c0 612f b83f
00000470: 0000 0020 68e9 01c0 0000 0040 0a47 173f
00000480: 0000 0020 ac5a b93f 0000 0000 62db 02c0
00000490: 0000 00e0 51e8 14bf 0000 00a0 f68f ba3f
000004a0: 0000 0040 70d4 03c0 0000 00c0 1ee9 31bf
000004b0: 0000 00c0 34cf bb3f 0000 00c0 64d8 04c0
000004c0: 0000 0060 66a6 1ebf 0000 00a0 3c1c bd3f
000004d0: 0000 0000 04e6 05c0 0000 00e0 289c 01bf
000004e0: 0000 0060 7374 be3f 0000 0080 47fa 06c0
000004f0: 0000 00a0 9999 203f 0000 0000 4fdf bf3f
00000500: 0000 0080 2019 08c0 0000 00a0 70b5 2abf
00000510: 0000 0080 44a1 c03f 0000 0000 ac33 09c0
00000520: 0000 0040 b8b2 3d3f 0000 00e0 3155 c13f
00000530: 0000 00e0 654d 0ac0 0000 0000 d723 f8be
00000540: 0000 0000 d015 c23f 0000 0040 5873 0bc0
00000550: 0000 00a0 703d ccbe 0000 00e0 39da c23f
00000560: 0000 0040 fc9c 0cc0 0000 00e0 7a6c 213f
00000570: 0000 00c0 32ca c33f 0000 0060 fd08 0ec0
00000580: 0000 0080 9999 29bf 0000 0040 1d8e c43f
00000590: 0000 00a0 fc32 0fc0 0000 0020 3323 2e3f
000005a0: 0000 00a0 a193 c53f 0000 00c0 0060 10c0
000005b0: 0000 00c0 a304 3bbf 0000 00e0 4069 c63f
000005c0: 0000 0080 0402 11c0 0000 00e0 7a6c 2c3f
000005d0: 0000 0020 6c34 c73f 0000 00e0 339c 11c0
000005e0: 0000 0000 001c 3b3f 0000 0000 dc06 c83f
000005f0: 0000 00c0 dc3b 12c0 0000 0000 d763 023f
00000600: 0000 0060 91dc c83f 0000 00c0 18de 12c0
00000610: 0000 00a0 703d 9abe 0000 0000 2aab c93f
00000620: 0000 0040 ed7a 13c0 0000 0060 8fa2 2a3f
00000630: 0000 0000 fc88 ca3f 0000 0080 3a23 14c0
00000640: 0000 00e0 689a 753f 0000 00c0 255e cb3f
00000650: 0000 0060 0bc5 14c0 0000 0080 14ba 5b3f
00000660: 0000 0000 ca5c cb3f 0000 0000 fac3 14c0
00000670: 0000 00e0 28e4 2c3f 0000 00e0 998a cb3f
00000680: 0000 00c0 c1e6 14c0 0000 00e0 5114 35bf
00000690: 0000 00e0 e0ff cb3f 0000 00e0 b23f 15c0
000006a0: 0000 00a0 7059 3cbf 0000 0060 0293 cc3f
000006b0: 0000 0080 67af 15c0 0000 0020 5c57 3bbf
000006c0: 0000 0080 9624 af3f 0000 0060 8636 16c0
000006d0: 0000 00c0 cc24 2a3f 0000 0080 412b c13f
000006e0: 0000 0020 74b1 16c0 0000 0000 aed7 15bf
000006f0: 0000 00a0 bb46 c53f 0000 0040 69f7 16c0
00000700: 0000 0020 3317 3fbf 0000 0040 6997 c63f
00000710: 0000 00a0 26fa 16c0 0000 0080 ebf5 39bf
00000720: 0000 00c0 a7f0 c63f 0000 00c0 a3d6 16c0
00000730: 0000 00c0 ccf4 2ebf 0000 0080 6139 9b3f
00000740: 0000 0060 df7a 16c0 0000 00e0 51b0 383f
00000750: 0000 0080 5602 b43f 0000 0020 b11f 16c0
00000760: 0000 00c0 a360 243f 0000 0080 422f bb3f
00000770: 0000 0080 eeba 15c0 0000 0080 14ca 32bf
00000780: 0000 00c0 f85e bd3f 0000 0020 ef44 15c0
00000790: 0000 00e0 5120 32bf 0000 00c0 88b9 bd3f
000007a0: 0000 00a0 e8c4 14c0 0000 00e0 285c 1ebf
000007b0: 0000 0080 196a bd3f 0000 0060 c145 14c0
000007c0: 0000 00a0 9959 f8be 0000 00c0 0d15 bd3f
000007d0: 0000 0060 edeb 13c0 0000 0020 85a5 483f
000007e0: 0000 0000 3bd5 bc3f 0000 00c0 5db3 13c0
000007f0: 0000 0060 8f0a 5dbf 0000 0020 2360 bc3f
0.0 0.0 0.0 0.0 0.0 0.0 0.0 0.0
0.0 0.0 0.0 0.0 0.0 0.0 0.0 0.002674603136256337
-0.06066681817173958 -0.0017881965031847358 0.0025099366903305054 -0.05672334134578705 0.00020580290583893657 0.0024151019752025604 -0.05465923622250557 0.0006556415464729071
0.0023255886044353247 -0.052782557904720306 0.0008189582731574774 0.002273715566843748 -0.05167024955153465 0.0007204723078757524 0.002277456223964691 -0.05189830809831619
0.00036682127392850816 0.0022843938786536455 -0.05212417617440224 0.00027094839606434107 0.0022334386594593525 -0.05102229863405228 0.0006286143907345831 0.0058075361885130405
-0.052467230707407 9.063720790436491e-05 0.006076945923268795 -0.05382934585213661 6.774902431061491e-05 0.006277728360146284 -0.05559118092060089 0.00010433196439407766
0.006586794275790453 -0.0582801029086113 7.163047848735005e-05 0.010631242766976357 -0.06043240427970886 0.00023005485127214342 0.0031756910029798746 -0.06873190402984619
-0.00048609732766635716 0.0037112529389560223 -0.08422977477312088 0.0003815650998149067 0.0051225582137703896 -0.11653081327676773 6.90555534674786e-05 0.008116212673485279
-0.18211685121059418 -0.0001987838768400252 0.005561790429055691 -0.12756197154521942 0.0002509593905415386 0.010075551457703114 -0.21059995889663696 0.00032058716169558465
0.01015151385217905 -0.25788411498069763 -9.794234756554943e-06 0.013148960657417774 -0.3044646084308624 0.00017656326235737652 0.016213402152061462 -0.37775489687919617
-2.714157017180696e-05 0.02136613056063652 -0.4779664874076843 -0.00014330862904898822 0.022707421332597733 -0.534340500831604 -0.00012720107042696327 0.025019755586981773
-0.5763939619064331 0.00023730278189759701 0.027055392041802406 -0.6374114155769348 -0.00041174888610839844 0.03011297434568405 -0.6940382122993469 0.0006215476896613836
0.033254679292440414 -0.7634879946708679 0.000325269706081599 0.03675355389714241 -0.8524510264396667 -9.107589903578628e-06 0.03942561894655228 -0.918219804763794
7.294654642464593e-05 0.042216069996356964 -0.9866943955421448 -0.00016174315533135086 0.04590465873479843 -1.0704668760299683 -2.287864663230721e-05 0.05162317678332329
-1.1786311864852905 -0.0003283691476099193 0.05525517463684082 -1.231854796409607 -0.0002450275351293385 0.05962497740983963 -1.328708291053772 0.00014755249139852822
0.06376102566719055 -1.4352166652679443 0.0003068637743126601 0.06750787049531937 -1.5361367464065552 0.0003934001724701375 0.07174693793058395 -1.6431849002838135
-8.721351332496852e-05 0.0755380243062973 -1.743736982345581 -0.00013178825611248612 0.08149874210357666 -1.8960398435592651 4.76837158203125e-07 0.08567232638597488
-2.007169485092163 -3.995895167463459e-05 0.09001775830984116 -2.1223676204681396 9.472846431890503e-05 0.0944729894399643 -2.2389681339263916 8.879661618266255e-05
0.09903980046510696 -2.3571205139160156 -7.975578046170995e-05 0.10375920683145523 -2.478729724884033 -0.00027329445583745837 0.1086304634809494 -2.605660915374756
-0.00011692046973621473 0.11371210962533951 -2.7373123168945312 -3.3588406950002536e-05 0.11896439641714096 -2.872206687927246 0.00012664795212913305 0.12450116872787476
-3.0122690200805664 -0.0002037715894402936 0.12992149591445923 -3.1502304077148438 0.00045315740862861276 0.13541243970394135 -3.2877919673919678 -2.3021697415970266e-05
0.14129066467285156 -3.4313206672668457 -3.3664703096292214e-06 0.14728473126888275 -3.576653003692627 0.00013293266238179058 0.1546081006526947 -3.754389524459839
-0.00019531248835846782 0.16058698296546936 -3.8998959064483643 0.00022993086895439774 0.16856785118579865 -4.093752861022949 -0.0004122638492844999 0.1750870794057846
-4.251970291137695 0.00021685600222554058 0.18128730356693268 -4.402541637420654 0.00041365623474121094 0.18770933151245117 -4.558459281921387 3.507614019326866e-05
0.19423119723796844 -4.716891288757324 -3.9100646631595737e-07 0.20053601264953613 -4.8700456619262695 0.00020320892508607358 0.2073054313659668 -5.034402847290039
0.005274209659546614 0.21381065249443054 -5.1924262046813965 0.0016923141665756702 0.21376919746398926 -5.191383361816406 0.0002204227348556742 0.21516726911067963
-5.225348472595215 -0.000321645726216957 0.21874628961086273 -5.312205791473389 -0.0004325771296862513 0.22323636710643768 -5.421293258666992 -0.0004171943583060056
0.06082601845264435 -5.553246974945068 0.0001994609774556011 0.13413256406784058 -5.673294544219971 -8.332252036780119e-05 0.16622109711170197 -5.741612434387207
-0.0004744052712339908 0.17649570107460022 -5.744287967681885 -0.0003961276961490512 0.17921921610832214 -5.709609031677246 -0.00023617743863724172 0.026586078107357025
-5.619992733001709 0.0003767204179894179 0.07816067337989807 -5.530949115753174 0.0001554679765831679 0.10618987679481506 -5.432550430297852 -0.0002867031143978238
0.11473040282726288 -5.317318439483643 -0.00027658461476676166 0.11611227691173553 -5.192293643951416 -0.00011581420403672382 0.11490020155906677 -5.06812047958374
-2.3221969968290068e-05 0.11360250413417816 -4.980397701263428 0.0007521533989347517 0.11262863874435425 -4.925162315368652 -0.0017725372454151511 0.11084193736314774
