planning_aware_eval/obstacle/data_collection/obstacle/10_i-1_1_f_sr/velocity/player.npy (npy, 8888 bytes, 1 tensors)

array f8 [365, 3]
0.0 0.0 0.0 0.0 0.0 0.0 0.0 0.0
0.0 0.0 0.0 0.0 0.0 0.0 0.0 -0.001491747796535492
-0.022683538496494293 -0.003144168760627508 0.0037219549994915724 0.05660347640514374 -0.001740369712933898 -0.0012266255216673017 -0.018650062382221222 -0.00026243686443194747
0.0037158869672566652 0.05651598423719406 -0.0003245067491661757 -0.0011380346259102225 -0.017334196716547012 0.0005240869359113276 0.003539704717695713 0.05388190969824791
0.0004778051225002855 -0.0014495269861072302 -0.02202558144927025 0.0003276300267316401 0.003426953684538603 0.05208234488964081 0.0004836225416511297 -0.0013874078867956996
-0.021132204681634903 0.0006897210841998458 0.003439761698246002 0.052300307899713516 0.00046679971273988485 0.0032659333664923906 0.049674469977617264 0.0006076574209146202
-0.001655319705605507 -0.025172416120767593 0.000246343610342592 0.003944399766623974 0.05992414429783821 -0.0006249618600122631 -0.0015114635461941361 -0.022965244948863983
0.00015967368381097913 0.003982105292379856 0.06053084135055542 8.543967851437628e-05 -0.0010750471847131848 -0.01636427640914917 0.0006973313866183162 0.0037923131603747606
0.05771419405937195 0.0009252977324649692 -0.0007525031687691808 -0.011435989290475845 0.0005835199262946844 0.004251170437783003 0.06462770700454712 0.0003390312194824219
-0.00037811012589372694 -0.005769534036517143 -0.000105099672509823 0.006244007032364607 0.0954156443476677 2.2511481802212074e-05 0.005028322339057922 0.07659333944320679
-0.00014719009050168097 0.006744776386767626 0.11522281169891357 -0.00017504692368675023 0.00869669858366251 0.15008756518363953 1.5354156857938506e-05 0.011687100864946842
0.19563142955303192 -9.489059266343247e-06 0.013360616751015186 0.21793866157531738 4.886626993538812e-05 0.017094798386096954 0.2701621353626251 7.441520574502647e-05
0.015246030874550343 0.24695158004760742 -0.00010486602695891634 0.01878342777490616 0.29340556263923645 6.410598871298134e-05 0.02392701804637909 0.36103618144989014
-0.0003548431268427521 0.02648271434009075 0.40380632877349854 0.00043208120041526854 0.028158675879240036 0.42876747250556946 0.00038178442628122866 0.03153557702898979
0.47682103514671326 5.715370207326487e-05 0.03328416123986244 0.48864299058914185 0.0003466606140136719 0.03668671101331711 0.5533714294433594 0.00028963564545847476
0.04042818397283554 0.6081016659736633 0.0002744531666394323 0.04197155311703682 0.6306967735290527 9.850978676695377e-05 0.05061623454093933 0.7532240152359009
0.00027337073697708547 0.05130953714251518 0.7820243835449219 -5.65195077797398e-05 0.05548439919948578 0.8369882702827454 -6.80685043334961e-05 0.05843605846166611
0.8827904462814331 -0.00041099547524936497 0.06271445006132126 0.9442116618156433 9.065627818927169e-05 0.06411119550466537 0.9700475335121155 -5.609512299997732e-05
0.07042068988084793 1.072777271270752 6.803989526815712e-05 0.07178585231304169 1.0848275423049927 0.00019864558998961002 0.07938359677791595 1.1963894367218018
-0.000262622837908566 0.0806645005941391 1.2147122621536255 -3.193855081917718e-05 0.0881379172205925 1.3268824815750122 0.00010703086445573717 0.0897718295454979
1.3512380123138428 2.8433798433979973e-05 0.09727948904037476 1.4642260074615479 -0.00035701750312000513 0.09908852726221085 1.4914692640304565 -0.00010280608694301918
0.10894959419965744 1.6399128437042236 0.00043600081698969007 0.11619751900434494 1.7489843368530273 -0.00036374092451296747 0.11878471076488495 1.7878947257995605
-0.00011011123569915071 0.1262785792350769 1.9007230997085571 -0.00015597343735862523 0.12938350439071655 1.9474658966064453 7.153987826313823e-05 0.1367577463388443
2.0584661960601807 -0.00010127544373972341 0.14039252698421478 2.113178253173828 -0.00010455131268827245 0.14770261943340302 2.223221778869629 -8.983135194284841e-05
0.15159310400485992 2.2816667556762695 -0.00023815155145712197 0.15705986320972443 2.363999605178833 0.00023102283012121916 0.16219258308410645 2.4412477016448975
0.00040849208016879857 0.16797229647636414 2.5282351970672607 0.0001635408407310024 0.17345885932445526 2.610830068588257 -0.0001346111239399761 0.17974445223808289
2.7054131031036377 0.00030866623274050653 0.1857350617647171 2.7956085205078125 8.619784784968942e-05 0.1921185404062271 2.8917062282562256 0.00012987613445147872
0.20455259084701538 3.0788326263427734 0.00015049934154376388 0.2108556181192398 3.1737022399902344 -8.897780935512856e-05 0.21720817685127258 3.2693190574645996
-4.926681504002772e-05 0.22388267517089844 3.369614839553833 -0.00028696536901406944 0.23074211180210114 3.4729533195495605 -0.0003213310264982283 0.23736971616744995
3.5727651119232178 8.934974175645038e-05 0.24404281377792358 3.6732261180877686 9.976387082133442e-05 0.2507951557636261 3.7748305797576904 8.106231689453125e-05
0.2577659487724304 3.8797621726989746 -5.883216726942919e-05 0.26462313532829285 3.9829790592193604 0.00015160083421505988 0.27156689763069153 4.087524890899658
0.00011040210665669292 0.27870455384254456 4.194978713989258 -1.0161399586650077e-05 0.28571876883506775 4.300507068634033 0.00017473220941610634 0.293063759803772
00000000: 0000 0000 0000 0000 0000 0000 0000 0000
00000010: 0000 0000 0000 0000 0000 0000 0000 0000
00000020: 0000 0000 0000 0000 0000 0000 0000 0000
00000030: 0000 0000 0000 0000 0000 0000 0000 0000
00000040: 0000 0000 0000 0000 0000 0000 0000 0000
00000050: 0000 0000 0000 0000 0000 0000 0000 0000
00000060: 0000 0000 0000 0000 0000 0000 0000 0000
00000070: 0000 0000 0000 0000 0000 0000 d870 58bf
00000080: 0000 0080 5a3a 97bf 0000 00c0 ccc1 69bf
00000090: 0000 0060 817d 6e3f 0000 0080 21fb ac3f
000000a0: 0000 00c0 a383 5cbf 0000 0020 d718 54bf
000000b0: 0000 0080 0019 93bf 0000 00c0 f532 31bf
000000c0: 0000 00a0 c770 6e3f 0000 00c0 a9ef ac3f
000000d0: 0000 00e0 5144 35bf 0000 0060 43a5 52bf
000000e0: 0000 0040 0ec0 91bf 0000 0020 5c2c 413f
000000f0: 0000 0080 4cff 6c3f 0000 00e0 6896 ab3f
00000100: 0000 0060 3d50 3f3f 0000 00c0 c1bf 57bf
00000110: 0000 00c0 df8d 96bf 0000 0040 b878 353f
00000120: 0000 00c0 d712 6c3f 0000 0080 89aa aa3f
00000130: 0000 0000 d7b1 3f3f 0000 00e0 35bb 56bf
00000140: 0000 0040 aea3 95bf 0000 00c0 cc99 463f
00000150: 0000 0000 b42d 6c3f 0000 0020 1bc7 aa3f
00000160: 0000 0080 9997 3e3f 0000 00a0 28c1 6a3f
00000170: 0000 00a0 ee6e a93f 0000 0060 66e9 433f
00000180: 0000 0000 ea1e 5bbf 0000 0040 ccc6 99bf
00000190: 0000 00c0 f524 303f 0000 00c0 0028 703f
000001a0: 0000 00a0 60ae ae3f 0000 0060 8f7a 44bf
000001b0: 0000 00a0 89c3 58bf 0000 0080 3384 97bf
000001c0: 0000 0080 c2ed 243f 0000 0040 8a4f 703f
000001d0: 0000 0000 e6fd ae3f 0000 0080 c265 163f
000001e0: 0000 0020 139d 51bf 0000 0000 ccc1 90bf
000001f0: 0000 00c0 a3d9 463f 0000 00a0 0e11 6f3f
00000200: 0000 0000 b78c ad3f 0000 00c0 f551 4e3f
00000210: 0000 0040 74a8 48bf 0000 0080 c06b 87bf
00000220: 0000 0080 eb1e 433f 0000 00e0 ac69 713f
00000230: 0000 0000 718b b03f 0000 0000 0038 363f
00000240: 0000 00a0 a2c7 38bf 0000 0080 cba1 77bf
00000250: 0000 00a0 1e8d 1bbf 0000 00e0 5093 793f
00000260: 0000 00e0 286d b83f 0000 0040 e19a f73e
00000270: 0000 0000 9498 743f 0000 0000 9f9b b33f
00000280: 0000 0040 e14a 23bf 0000 0020 69a0 7b3f
00000290: 0000 0000 3e7f bd3f 0000 00a0 99f1 26bf
000002a0: 0000 0020 93cf 813f 0000 00c0 1136 c33f
000002b0: 0000 00a0 9919 f03e 0000 0020 68ef 873f
000002c0: 0000 0060 730a c93f 0000 0060 66e6 e3be
000002d0: 0000 00a0 cf5c 8b3f 0000 0000 6ae5 cb3f
000002e0: 0000 0040 b89e 093f 0000 0080 4c81 913f
000002f0: 0000 0020 564a d13f 0000 0080 eb81 133f
00000300: 0000 00a0 4f39 8f3f 0000 0000 1c9c cf3f
00000310: 0000 00a0 707d 1bbf 0000 0080 f63b 933f
00000320: 0000 0020 28c7 d23f 0000 0080 14ce 103f
00000330: 0000 0000 5380 983f 0000 0080 371b d73f
00000340: 0000 00a0 4741 37bf 0000 00e0 481e 9b3f
00000350: 0000 0080 f6d7 d93f 0000 00a0 1e51 3c3f
00000360: 0000 00c0 a0d5 9c3f 0000 0020 ed70 db3f
00000370: 0000 00a0 4705 393f 0000 0060 6e25 a03f
00000380: 0000 0060 3c84 de3f 0000 0040 0af7 0d3f
00000390: 0000 0020 9f0a a13f 0000 0040 ed45 df3f
000003a0: 0000 0000 00b8 363f 0000 00c0 99c8 a23f
000003b0: 0000 0000 38b5 e13f 0000 00a0 47fb 323f
000003c0: 0000 00c0 00b3 a43f 0000 00a0 9175 e33f
000003d0: 0000 0060 8ffc 313f 0000 00a0 4b7d a53f
000003e0: 0000 0000 ab2e e43f 0000 0040 e1d2 193f
000003f0: 0000 0000 5fea a93f 0000 0040 691a e83f
00000400: 0000 0060 66ea 313f 0000 0060 3e45 aa3f
00000410: 0000 0000 5806 e93f 0000 0080 eba1 0dbf
00000420: 0000 0080 7368 ac3f 0000 00a0 9bc8 ea3f
00000430: 0000 0000 00d8 11bf 0000 00c0 54eb ad3f
00000440: 0000 00c0 d13f ec3f 0000 0020 5cef 3abf
00000450: 0000 00e0 0d0e b03f 0000 0060 fb36 ee3f
00000460: 0000 0000 d7c3 173f 0000 0060 9769 b03f
00000470: 0000 0020 a10a ef3f 0000 00c0 f568 0dbf
00000480: 0000 0020 1707 b23f 0000 0080 182a f13f
00000490: 0000 0080 14d6 113f 0000 00c0 8e60 b23f
000004a0: 0000 0020 745b f13f 0000 00a0 7009 2a3f
000004b0: 0000 00c0 7b52 b43f 0000 0040 6924 f33f
000004c0: 0000 0080 1436 31bf 0000 00c0 6da6 b43f
000004d0: 0000 0020 766f f33f 0000 0040 b8be 00bf
000004e0: 0000 00e0 3490 b63f 0000 0020 e93a f53f
000004f0: 0000 0040 b80e 1c3f 0000 0060 49fb b63f
00000500: 0000 00c0 ab9e f53f 0000 00c0 a3d0 fd3e
00000510: 0000 0000 4fe7 b83f 0000 0040 786d f73f
00000520: 0000 0080 c265 37bf 0000 00a0 dd5d b93f
00000530: 0000 00e0 0edd f73f 0000 0020 33f3 1abf
00000540: 0000 00e0 1ee4 bb3f 0000 0040 153d fa3f
00000550: 0000 0040 e192 3c3f 0000 00e0 1ebf bd3f
00000560: 0000 0000 d7fb fb3f 0000 0060 8fd6 37bf
00000570: 0000 00c0 ac68 be3f 0000 0080 379b fc3f
00000580: 0000 00a0 70dd 1cbf 0000 0080 e529 c03f
00000590: 0000 00a0 5c69 fe3f 0000 00a0 9971 24bf
000005a0: 0000 0080 a38f c03f 0000 0000 d228 ff3f
000005b0: 0000 00c0 f5c0 123f 0000 0020 4781 c13f
000005c0: 0000 0020 bd77 0040 0000 00e0 7a8c 1abf
000005d0: 0000 00e0 61f8 c13f 0000 0000 cae7 0040
000005e0: 0000 00e0 5168 1bbf 0000 0060 ebe7 c23f
000005f0: 0000 0080 28c9 0140 0000 00e0 7a8c 17bf
00000600: 0000 0020 6767 c33f 0000 0080 da40 0240
00000610: 0000 0040 0a37 2fbf 0000 00a0 891a c43f
00000620: 0000 00a0 78e9 0240 0000 0000 d747 2e3f
00000630: 0000 0000 bac2 c43f 0000 00e0 ac87 0340
00000640: 0000 0020 5cc5 3a3f 0000 00c0 1d80 c53f
00000650: 0000 0060 d339 0440 0000 0020 856f 253f
00000660: 0000 0060 e633 c63f 0000 00e0 fae2 0440
00000670: 0000 00c0 cca4 21bf 0000 00c0 dd01 c73f
00000680: 0000 00a0 afa4 0540 0000 0060 8f3a 343f
00000690: 0000 00a0 2ac6 c73f 0000 0000 685d 0640
000006a0: 0000 00c0 a398 163f 0000 0020 5797 c83f
000006b0: 0000 00e0 3622 0740 0000 0080 eb05 213f
000006c0: 0000 0080 c72e ca3f 0000 0000 73a1 0840
000006d0: 0000 0080 ebb9 233f 0000 0020 51fd ca3f
000006e0: 0000 0000 be63 0940 0000 0020 3353 17bf
000006f0: 0000 0040 7acd cb3f 0000 00c0 9027 0a40
00000700: 0000 00e0 7ad4 09bf 0000 0000 30a8 cc3f
00000710: 0000 00a0 f8f4 0a40 0000 00e0 7ace 32bf
00000720: 0000 0020 f588 cd3f 0000 00c0 9bc8 0b40
00000730: 0000 0040 0a0f 35bf 0000 0080 2162 ce3f
00000740: 0000 00e0 0595 0c40 0000 00e0 286c 173f
00000750: 0000 0080 cb3c cf3f 0000 0060 c462 0d40
00000760: 0000 0040 0a27 1a3f 0000 0020 070d d03f
00000770: 0000 0060 da32 0e40 0000 0000 0040 153f
00000780: 0000 00c0 3c7f d03f 0000 00c0 c009 0f40
00000790: 0000 00e0 51d8 0ebf 0000 00e0 95ef d03f
000007a0: 0000 0020 24dd 0f40 0000 0040 e1de 233f
000007b0: 0000 0020 5a61 d13f 0000 0020 a059 1040
000007c0: 0000 00c0 f5f0 1c3f 0000 00a0 4bd6 d13f
000007d0: 0000 0080 a8c7 1040 0000 0020 5c4f e5be
000007e0: 0000 0060 3749 d23f 0000 0020 b833 1140
000007f0: 0000 0040 0ae7 263f 0000 0080 8ec1 d23f
