planning_aware_eval/obstacle/data_collection/obstacle/10_i-1_0_r_sl/velocity/player.npy (npy, 5960 bytes, 1 tensors)

array f8 [243, 3]
00000000: 0000 00c0 d529 29be 0000 00c0 e555 5c3e
00000010: 0000 00c0 f59a 4e3f 0000 0040 c2d4 633e
00000020: 0000 0000 9714 5ebe 0000 0020 33ef 3e3f
00000030: 0000 00c0 08b1 70be 0000 00e0 f75b 413e
00000040: 0000 00a0 47a1 f8be 0000 00a0 aea5 4c3e
00000050: 0000 0040 eeef 403e 0000 0060 6609 52bf
00000060: 0000 0020 4503 3abe 0000 00a0 a1df 40be
00000070: 0000 0060 3dc2 3c3f 0000 00c0 63d1 36be
00000080: 0000 0060 2596 54be 0000 00c0 a344 4dbf
00000090: 0000 0080 a200 343e 0000 0060 c594 35be
000000a0: 0000 0020 5c64 483f 0000 0020 74d7 743e
000000b0: 0000 00a0 fa00 4a3e 0000 00c0 f5b0 243f
000000c0: 0000 00a0 3949 373f 0000 0060 f255 743f
000000d0: 0000 0000 d753 2d3f 0000 00c0 5cda 38bf
000000e0: 0000 0020 4765 71bf 0000 0020 5cdf 123f
000000f0: 0000 00c0 6df2 393f 0000 0020 b4c0 683f
00000100: 0000 0080 9911 1abf 0000 0020 fd4d 3fbf
00000110: 0000 0000 c069 83bf 0000 00a0 9995 31bf
00000120: 0000 0000 5312 dd3e 0000 0000 975d 8cbf
00000130: 0000 0020 33f3 093f 0000 0060 b51a 25bf
00000140: 0000 0080 c08b a2bf 0000 00c0 a3d8 53bf
00000150: 0000 0040 15fd 65bf 0000 00e0 9504 c5bf
00000160: 0000 0080 142c 413f 0000 0040 4103 72bf
00000170: 0000 00a0 77a3 d0bf 0000 0020 3383 253f
00000180: 0000 0080 6356 7dbf 0000 0020 a44e dbbf
00000190: 0000 0040 b83e 323f 0000 0080 7c00 81bf
000001a0: 0000 00e0 311b e1bf 0000 0080 c2e5 173f
000001b0: 0000 00e0 1216 88bf 0000 00c0 bd53 e6bf
000001c0: 0000 0000 ae7b 50bf 0000 0040 3862 8dbf
000001d0: 0000 0080 427f eabf 0000 00c0 a3a8 3f3f
000001e0: 0000 0000 3a81 91bf 0000 0020 2900 f0bf
000001f0: 0000 00c0 a358 393f 0000 00c0 48df 92bf
00000200: 0000 0060 93c7 f1bf 0000 00a0 70f1 51bf
00000210: 0000 0020 5c70 96bf 0000 00c0 7539 f4bf
00000220: 0000 0080 c2d1 3ebf 0000 00a0 044a 9abf
00000230: 0000 0040 a622 f7bf 0000 00a0 c74b 523f
00000240: 0000 0000 6c31 9bbf 0000 00e0 08e0 f8bf
00000250: 0000 0080 eb5f 44bf 0000 0080 1740 9fbf
00000260: 0000 0040 caca fbbf 0000 0080 ebc9 423f
00000270: 0000 0040 1d29 a1bf 0000 00e0 e1ea fdbf
00000280: 0000 0080 ebb5 36bf 0000 0080 5233 a3bf
00000290: 0000 00e0 7a55 00c0 0000 00e0 2828 403f
000002a0: 0000 0080 1820 a5bf 0000 0020 4faf 01c0
000002b0: 0000 00c0 1e0c 403f 0000 0000 009a a6bf
000002c0: 0000 0020 a601 03c0 0000 0060 3d3a 10bf
000002d0: 0000 0000 2b8a a7bf 0000 0020 8956 04c0
000002e0: 0000 0000 d7b3 293f 0000 00a0 ad12 a8bf
000002f0: 0000 00c0 3da3 05c0 0000 00e0 288c 17bf
00000300: 0000 0000 1368 a8bf 0000 00e0 28f0 06c0
00000310: 0000 00c0 cccc 02bf 0000 0020 4167 a8bf
00000320: 0000 00e0 113a 08c0 0000 00e0 2818 32bf
00000330: 0000 0080 3623 a8bf 0000 0060 a57e 09c0
00000340: 0000 0000 d723 e6be 0000 0080 707a a7bf
00000350: 0000 00a0 67c1 0ac0 0000 0000 ae97 23bf
00000360: 0000 0020 ed37 a6bf 0000 0000 62f5 0bc0
00000370: 0000 0040 0af7 133f 0000 00c0 d5fd a3bf
00000380: 0000 00c0 fb13 0dc0 0000 0020 85b3 52bf
00000390: 0000 00c0 69b0 9fbf 0000 0060 593f 0ec0
000003a0: 0000 0020 5c5f 453f 0000 0020 33b0 91bf
000003b0: 0000 00a0 f357 0fc0 0000 0000 0058 47bf
000003c0: 0000 0000 f870 403f 0000 0000 393d 10c0
000003d0: 0000 0000 d7d7 4b3f 0000 0060 2f41 943f
000003e0: 0000 00e0 81c8 10c0 0000 0000 ae8d 443f
000003f0: 0000 0040 7be7 a33f 0000 00e0 e953 11c0
00000400: 0000 00e0 7a7c 303f 0000 00e0 a554 ad3f
00000410: 0000 0020 8dd7 11c0 0000 0060 6612 50bf
00000420: 0000 0020 653d b43f 0000 00a0 7663 12c0
00000430: 0000 0060 3de4 403f 0000 0020 2575 ba3f
00000440: 0000 00a0 96ee 12c0 0000 0040 b8be 2b3f
00000450: 0000 00c0 c04e c03f 0000 0040 f16e 13c0
00000460: 0000 00e0 511e 3e3f 0000 0000 9c56 c33f
00000470: 0000 0040 40f1 13c0 0000 0080 99e9 1d3f
00000480: 0000 00e0 09ee c63f 0000 0040 9e6c 14c0
00000490: 0000 0080 19e3 6c3f 0000 0060 1574 cb3f
000004a0: 0000 00e0 65e0 14c0 0000 00c0 cc37 553f
000004b0: 0000 0040 5c58 ce3f 0000 0000 32c7 14c0
000004c0: 0000 0000 0080 333f 0000 0000 0f16 d23f
000004d0: 0000 0000 12f9 14c0 0000 00e0 2844 21bf
000004e0: 0000 00c0 0f2a d43f 0000 00c0 fcfe 14c0
000004f0: 0000 00c0 cccc 33bf 0000 00e0 5df2 d53f
00000500: 0000 0060 4d39 15c0 0000 0080 1412 35bf
00000510: 0000 0000 eca6 d83f 0000 00c0 b392 15c0
00000520: 0000 0080 c2ad 36bf 0000 0080 6e0d da3f
00000530: 0000 0020 8dd0 15c0 0000 00a0 47a5 34bf
00000540: 0000 00a0 eb63 dc3f 0000 0080 c447 16c0
00000550: 0000 00c0 a3cc 32bf 0000 0040 291f de3f
00000560: 0000 0020 3f76 16c0 0000 00c0 1ee1 30bf
00000570: 0000 00c0 0c01 e03f 0000 00e0 c6d3 16c0
00000580: 0000 0040 b8fe 26bf 0000 0000 c465 e13f
00000590: 0000 0040 3a4e 17c0 0000 00c0 1e9d 21bf
000005a0: 0000 0080 7f1e e23f 0000 0080 2ca8 17c0
000005b0: 0000 00a0 47f1 1dbf 0000 0040 77d8 e23f
000005c0: 0000 0060 6312 18c0 0000 00a0 70dd 22bf
000005d0: 0000 0000 0fc3 e23f 0000 0020 4341 18c0
000005e0: 0000 0040 b832 2bbf 0000 0000 afae e23f
000005f0: 0000 0000 b372 18c0 0000 00a0 70eb 31bf
00000600: 0000 0000 7550 e23f 0000 0020 4863 18c0
00000610: 0000 0060 3d36 32bf 0000 0080 2a00 e23f
00000620: 0000 0060 866d 18c0 0000 00c0 a330 37bf
00000630: 0000 00e0 785d e13f 0000 0040 bc44 18c0
00000640: 0000 00e0 7ae4 2cbf 0000 00e0 178c e03f
00000650: 0000 0000 2b04 18c0 0000 00a0 47d1 26bf
00000660: 0000 0020 270c df3f 0000 0020 83f6 17c0
00000670: 0000 00c0 a3f0 e93e 0000 0080 5ffa dc3f
00000680: 0000 00e0 06c2 17c0 0000 00c0 cc4e 323f
00000690: 0000 0040 76f3 da3f 0000 0020 3cad 17c0
000006a0: 0000 00e0 a336 313f 0000 00c0 6f93 d93f
000006b0: 0000 0020 0f7b 17c0 0000 0080 eb61 2b3f
000006c0: 0000 0060 2e6e d83f 0000 00a0 0b3c 17c0
000006d0: 0000 0080 14fe 203f 0000 0080 0b38 d73f
000006e0: 0000 0060 a630 17c0 0000 00e0 5178 f4be
000006f0: 0000 0040 d880 d63f 0000 00a0 b7f9 16c0
00000700: 0000 00e0 7af4 07bf 0000 0080 b7c3 d53f
00000710: 0000 00a0 17e4 16c0 0000 0060 6606 12bf
00000720: 0000 0080 48a5 d43f 0000 00a0 2b9d 16c0
00000730: 0000 0040 e10a 0cbf 0000 00a0 663d d33f
00000740: 0000 0060 b16a 16c0 0000 00e0 51d8 03bf
00000750: 0000 0060 2b4d d23f 0000 00c0 d517 16c0
00000760: 0000 00a0 4721 f9be 0000 0040 1c05 d23f
00000770: 0000 0060 4bac 15c0 0000 00e0 280c 10bf
00000780: 0000 0060 2174 d23f 0000 00a0 9546 15c0
00000790: 0000 0060 8f02 20bf 0000 0020 7d09 d43f
000007a0: 0000 00a0 94f8 14c0 0000 0040 b83e 29bf
000007b0: 0000 0020 9397 d53f 0000 0080 2884 14c0
000007c0: 0000 00c0 1ee5 03bf 0000 00a0 382f d73f
000007d0: 0000 00c0 1519 14c0 0000 0040 b86e 223f
000007e0: 0000 00a0 a6a7 d93f 0000 0020 6cde 13c0
000007f0: 0000 0020 1ccc 6fbf 0000 0060 6da0 dc3f
-2.929407383334137e-09 2.6389525231707012e-08 0.0009340000106021762 3.6938281766651926e-08 -2.8014582653668185e-08 0.00047202108544297516 -6.218083115072659e-08 8.083531177760506e-09
-2.34889976127306e-05 1.3339890081454087e-08 7.887011932439236e-09 -0.0011008739238604903 -6.056570800438976e-09 -7.857363648611226e-09 0.00043882368481718004 -5.312712936245134e-09
-1.9172679444068308e-08 -0.0008931922493502498 4.657190189050198e-09 -5.024749949456009e-09 0.0007443857030011714 7.764106868535237e-08 1.210897426773272e-08 0.00015786170843057334
0.00035531670437194407 0.004964777734130621 0.0002237510634586215 -0.00037922634510323405 -0.004246976692229509 7.199287210823968e-05 0.00039591960376128554 0.0030215757433325052
-9.944438352249563e-05 -0.00047767095384187996 -0.009479045867919922 -0.00026831627474166453 6.93120455252938e-06 -0.013850383460521698 4.949569483869709e-05 -0.00016101326036732644
-0.03622247278690338 -0.0012113188859075308 -0.0026841559447348118 -0.16420243680477142 0.0005240535829216242 -0.004397635348141193 -0.259977251291275 0.0001641273411223665
-0.0071624647825956345 -0.42667487263679504 0.00027839659014716744 -0.008301708847284317 -0.5345696806907654 9.116172441281378e-05 -0.011760852299630642 -0.697722315788269
-0.0010060500353574753 -0.014347495511174202 -0.8280346393585205 0.00048307416727766395 -0.017094522714614868 -1.0000392198562622 0.0003867530613206327 -0.018429886549711227
-1.1112245321273804 -0.0010951614240184426 -0.021912993863224983 -1.2640283107757568 -0.0004702663281932473 -0.02567298151552677 -1.4459593296051025 0.0011167001212015748
-0.02655571699142456 -1.554695963859558 -0.0006217861082404852 -0.030517928302288055 -1.7370092868804932 0.000573387136682868 -0.03351680189371109 -1.8698443174362183
-0.0003465366316959262 -0.037500932812690735 -2.041738271713257 0.00049306865548715 -0.0412604957818985 -2.2106001377105713 0.0004897260805591941 -0.0441436767578125
-2.375805139541626 -6.190299609443173e-05 -0.04597601294517517 -2.5422537326812744 0.00019609450828284025 -0.047017503529787064 -2.704707622528076 -8.982657891465351e-05
-0.047669023275375366 -2.867265462875366 -3.585815284168348e-05 -0.04766276851296425 -3.0283544063568115 -0.0002760982315521687 -0.04714365303516388 -3.1868388652801514
-1.0557174391578883e-05 -0.045856013894081116 -3.344435930252075 -0.00014947890304028988 -0.04339543357491493 -3.4948158264160156 7.616043149027973e-05 -0.03904598206281662
-3.6347575187683105 -0.0011414337204769254 -0.03094640001654625 -3.7809321880340576 0.0006522369221784174 -0.017273711040616035 -3.917945146560669 -0.0007123947143554688
0.0005017481744289398 -4.059787750244141 0.0008497047238051891 0.019779911264777184 -4.195807933807373 0.0006272410973906517 0.03887543827295303 -4.331946849822998
0.0002515602100174874 0.05728643760085106 -4.460499286651611 -0.0009809493785724044 0.07906181365251541 -4.597132205963135 0.0005154895479790866 0.10334999114274979
-4.732996463775635 0.00021167754312045872 0.1274033486843109 -4.858342170715332 0.0004595708742272109 0.15108060836791992 -4.985596656799316 0.00011410712613724172
0.17913936078548431 -5.106072425842285 0.0035262582823634148 0.21448008716106415 -5.2191386222839355 0.0012950419913977385 0.23707154393196106 -5.194526672363281
0.00029754638671875 0.2825963497161865 -5.243232727050781 -0.00013173102342989296 0.31506723165512085 -5.249011039733887 -0.0003021240117959678 0.34291788935661316
-5.305959224700928 -0.00032151222694665194 0.38518810272216797 -5.393263816833496 -0.00034605024848133326 0.4070698022842407 -5.453663349151611 -0.00031502722413279116
0.4435986578464508 -5.570085525512695 -0.000286855676677078 0.47065192461013794 -5.615475177764893 -0.00025755882961675525 0.5001281499862671 -5.706813335418701
-0.00017543791909702122 0.5436725616455078 -5.826394081115723 -0.00013438225141726434 0.5662229061126709 -5.91423225402832 -0.00011422156967455521 0.5889240503311157
-6.0179572105407715 -0.00014392852608580142 0.586310863494873 -6.063732624053955 -0.00020750521798618138 0.5838236808776855 -6.112010955810547 -0.0002734327281359583
0.5723214149475098 -6.096954822540283 -0.00027789114392362535 0.5625202655792236 -6.106957912445068 -0.00035385129740461707 0.5426601767539978 -6.067124366760254
-0.00022043228091206402 0.5171012282371521 -6.004070281982422 -0.00017408370331395417 0.48511675000190735 -5.990734577178955 1.2369155228952877e-05 0.4527815580368042
-5.939479351043701 0.0002793550374917686 0.42110973596572876 -5.919174671173096 0.00026265622000209987 0.3996238112449646 -5.870174884796143 0.0002089118934236467
0.38172492384910583 -5.808638095855713 0.00012964248890057206 0.36279571056365967 -5.797509670257568 -1.9521712601999752e-05 0.3516140580177307 -5.7438645362854
-4.5690536353504285e-05 0.34007060527801514 -5.7227463722229 -6.87599167576991e-05 0.32258808612823486 -5.653486728668213 -5.348682316252962e-05 0.3006226122379303
-5.60419225692749 -3.785133230849169e-05 0.28596004843711853 -5.523276329040527 -2.3965834770933725e-05 0.2815619111061096 -5.4182562828063965 -6.121634942246601e-05
0.2883380353450775 -5.318930149078369 -0.00012214660819154233 0.3130791485309601 -5.2427544593811035 -0.00019260405679233372 0.3373763859272003 -5.129060745239258
-3.79467019229196e-05 0.3622571527957916 -5.024497032165527 0.0001406288065481931 0.4008575975894928 -4.967209339141846 -0.0038815068546682596 0.44729170203208923
