planning_aware_eval/obstacle/data_collection/obstacle/10_i-1_0_r_sr/velocity/player.npy (npy, 4448 bytes, 1 tensors)

array f8 [180, 3]
00000000: 0000 0020 4b2a c5be 0000 00e0 b806 db3e
00000010: 0000 00a0 1c85 cf3e 0000 00e0 5c44 38bf
00000020: 0000 00c0 4367 bdbe 0000 00e0 0827 1bbf
00000030: 0000 0060 c78d c7be 0000 0040 2981 d63e
00000040: 0000 0020 5ced 333f 0000 0080 2bd2 cc3e
00000050: 0000 0060 20ae dfbe 0000 0080 29dc edbe
00000060: 0000 0060 6b4d c5be 0000 0020 3d9c d93e
00000070: 0000 0060 c285 1c3f 0000 0080 2ccd 40bf
00000080: 0000 0080 3b00 c5be 0000 0020 3d6a 31bf
00000090: 0000 0000 64c4 353f 0000 00c0 632b b73e
000000a0: 0000 0040 ccc4 233f 0000 0020 a767 3cbf
000000b0: 0000 0080 d92d bfbe 0000 0080 112e ffbe
000000c0: 0000 0020 8f8c 353f 0000 0080 7488 b63e
000000d0: 0000 0080 f368 073f 0000 00e0 90d6 3cbf
000000e0: 0000 0000 0ec7 bebe 0000 00e0 e941 12bf
000000f0: 0000 0020 bf32 323f 0000 00a0 c799 af3e
00000100: 0000 0000 cc1c 273f 0000 0040 489f 3ebf
00000110: 0000 0000 8e39 c1be 0000 0040 c1b5 1cbf
00000120: 0000 0060 b729 403f 0000 00c0 256a c13e
00000130: 0000 00e0 6a0a d8be 0000 0080 6c1d 38bf
00000140: 0000 0020 6b54 bdbe 0000 00a0 1416 313f
00000150: 0000 0020 07aa 423f 0000 0080 54f3 c43e
00000160: 0000 0040 ede9 2abf 0000 00a0 c66b 3fbf
00000170: 0000 0060 0fa2 bebe 0000 0060 ed71 073f
00000180: 0000 0060 8f9a 84be 0000 0000 f7d6 d83e
00000190: 0000 0020 b81a 353f 0000 0000 dd37 40bf
000001a0: 0000 00e0 e8ce b2be 0000 0040 c64c febe
000001b0: 0000 0080 0fe4 403f 0000 0040 b879 bf3e
000001c0: 0000 0040 1e8f d43e 0000 0000 37c9 3ebf
000001d0: 0000 0060 66ab b9be 0000 0040 fa88 003f
000001e0: 0000 0020 b433 593f 0000 00e0 0afb 113f
000001f0: 0000 0040 b8ee 1a3f 0000 0040 e6de 473f
00000200: 0000 00a0 8d08 523f 0000 00e0 7ae4 113f
00000210: 0000 0000 1e94 4c3f 0000 00c0 ef47 673f
00000220: 0000 0020 5c6f 083f 0000 0040 58b6 3b3f
00000230: 0000 0040 ec44 763f 0000 00c0 ccbc 15bf
00000240: 0000 00e0 252f 413f 0000 00c0 d228 833f
00000250: 0000 0020 85a3 2fbf 0000 00e0 683b 57bf
00000260: 0000 0080 c54f ad3f 0000 00e0 7af4 0f3f
00000270: 0000 0080 f5f8 71bf 0000 0080 7b92 c43f
00000280: 0000 0080 c281 36bf 0000 0040 85a3 78bf
00000290: 0000 0080 63b0 d13f 0000 0000 d713 27bf
000002a0: 0000 0040 2343 82bf 0000 0000 58f1 da3f
000002b0: 0000 00c0 a36a 453f 0000 0040 49c7 89bf
000002c0: 0000 00a0 13a8 e13f 0000 0080 eb11 fabe
000002d0: 0000 0040 6088 90bf 0000 0040 e936 e53f
000002e0: 0000 0060 3d8a e1be 0000 00c0 e47f 94bf
000002f0: 0000 0060 ae73 e93f 0000 00e0 282c 2d3f
00000300: 0000 00e0 d91e 98bf 0000 0040 1cfb ec3f
00000310: 0000 0020 858b 23bf 0000 00c0 7882 9abf
00000320: 0000 00c0 c30f f13f 0000 00a0 99c1 283f
00000330: 0000 0000 6c4f a0bf 0000 00c0 02c5 f33f
00000340: 0000 0020 8567 31bf 0000 0020 ee3c a2bf
00000350: 0000 0040 91c0 f53f 0000 0020 3363 2c3f
00000360: 0000 0040 05ab a4bf 0000 00e0 5625 f83f
00000370: 0000 0080 c241 303f 0000 00a0 cb00 a7bf
00000380: 0000 0000 b06c fa3f 0000 0000 d7ef 3abf
00000390: 0000 00e0 7a8c a9bf 0000 0040 7cc4 fc3f
000003a0: 0000 0080 c2b5 1f3f 0000 0060 9357 acbf
000003b0: 0000 0060 a614 ff3f 0000 0080 9989 1ebf
000003c0: 0000 00a0 aa39 afbf 0000 00e0 57b3 0040
000003d0: 0000 00c0 f52c 323f 0000 00c0 e91f b1bf
000003e0: 0000 00c0 62c7 0140 0000 0060 3dfa 46bf
000003f0: 0000 0040 8bc8 b2bf 0000 00a0 23ef 0240
00000400: 0000 00c0 cc2c 233f 0000 00a0 847c b4bf
00000410: 0000 00c0 ca0e 0440 0000 0000 0028 3c3f
00000420: 0000 00e0 0639 b6bf 0000 0060 5622 0540
00000430: 0000 0060 662e 303f 0000 0020 7908 b8bf
00000440: 0000 0040 fc2b 0640 0000 00e0 28dc f43e
00000450: 0000 00c0 7fe7 b9bf 0000 00a0 3c30 0740
00000460: 0000 0040 0af7 1d3f 0000 00e0 15df bbbf
00000470: 0000 00e0 152d 0840 0000 0040 e14a 22bf
00000480: 0000 0000 dbef bdbf 0000 00a0 fc25 0940
00000490: 0000 00c0 f560 23bf 0000 0020 8d0c c0bf
000004a0: 0000 0000 231c 0a40 0000 0040 0a47 1c3f
000004b0: 0000 0020 2a75 c1bf 0000 00a0 940e 0b40
000004c0: 0000 0040 0aa7 1abf 0000 0020 4ed0 c3bf
000004d0: 0000 00c0 65f5 0b40 0000 00e0 7a14 f73e
000004e0: 0000 00e0 3c89 c6bf 0000 0000 44ce 0c40
000004f0: 0000 00e0 7a44 253f 0000 0080 a3f9 c8bf
00000500: 0000 0000 b8a5 0d40 0000 00a0 47b1 17bf
00000510: 0000 0060 0e08 cbbf 0000 00e0 016a 0e40
00000520: 0000 0060 3dca 313f 0000 0060 639a cdbf
00000530: 0000 0040 9430 0f40 0000 0080 9971 2abf
00000540: 0000 0080 be55 d0bf 0000 0060 11e5 0f40
00000550: 0000 00c0 ccc4 203f 0000 0020 3b1d d2bf
00000560: 0000 0040 df40 1040 0000 00c0 f540 373f
00000570: 0000 00c0 0772 d4bf 0000 0000 3089 1040
00000580: 0000 00e0 a3d0 11bf 0000 0060 d915 d7bf
00000590: 0000 0040 4ec7 1040 0000 0040 b82a 333f
000005a0: 0000 00c0 a0d4 d9bf 0000 00e0 a903 1140
000005b0: 0000 00a0 47c1 003f 0000 0040 b618 dcbf
000005c0: 0000 0060 e53b 1140 0000 0060 3d2a 323f
000005d0: 0000 00c0 6139 debf 0000 0060 6671 1140
000005e0: 0000 0080 c25d 2b3f 0000 0080 4e57 e0bf
000005f0: 0000 0060 c1a4 1140 0000 0000 0050 28bf
00000600: 0000 00c0 c0c7 e1bf 0000 00e0 00c7 1140
00000610: 0000 00a0 7075 343f 0000 0020 4762 e3bf
00000620: 0000 0080 12d2 1140 0000 00e0 7a84 1d3f
00000630: 0000 0000 87dd e4bf 0000 0000 afc7 1140
00000640: 0000 00c0 cccc db3e 0000 00c0 072c e6bf
00000650: 0000 0080 9eae 1140 0000 0080 eb51 e63e
00000660: 0000 0040 e671 e7bf 0000 0020 1989 1140
00000670: 0000 0080 c24d 34bf 0000 00c0 eb8e e8bf
00000680: 0000 0020 b35f 1140 0000 00c0 1e11 443f
00000690: 0000 00c0 0983 e9bf 0000 00e0 fd2f 1140
000006a0: 0000 00a0 47f9 2b3f 0000 0080 ca60 eabf
000006b0: 0000 0040 24fa 1040 0000 0040 0aa3 4fbf
000006c0: 0000 00e0 3d2c ebbf 0000 0040 56c2 1040
000006d0: 0000 00c0 f500 39bf 0000 00a0 28eb ebbf
000006e0: 0000 00a0 598a 1040 0000 0080 9999 a93e
000006f0: 0000 0060 a5a7 ecbf 0000 0000 894f 1040
00000700: 0000 0080 14be 22bf 0000 0040 8444 edbf
00000710: 0000 00a0 d51a 1040 0000 0040 e14b 473f
00000720: 0000 0060 fee3 edbf 0000 0060 e7c0 0f40
00000730: 0000 0080 c265 18bf 0000 00e0 346e eebf
00000740: 0000 0000 b654 0f40 0000 00a0 47ad 3a3f
00000750: 0000 0060 eef4 eebf 0000 0040 a6e5 0e40
00000760: 0000 00a0 703d dfbe 0000 00e0 4e77 efbf
00000770: 0000 0000 0c75 0e40 0000 0000 aeef 24bf
00000780: 0000 00e0 d900 f0bf 0000 0040 8803 0e40
00000790: 0000 00c0 a340 25bf 0000 0000 e15f f0bf
000007a0: 0000 00a0 0e8e 0d40 0000 0020 5cd7 283f
000007b0: 0000 0080 e5c0 f0bf 0000 0080 ad0d 0d40
000007c0: 0000 0000 d7a3 ff3e 0000 00a0 d70b f1bf
000007d0: 0000 0020 f488 0c40 0000 00c0 a370 fdbe
000007e0: 0000 0000 6252 f1bf 0000 0080 0ef7 0b40
000007f0: 0000 00a0 471d 42bf 0000 0060 9981 f1bf
-2.5230895062122727e-06 6.4435621425218415e-06 3.7574729958578246e-06 -0.0003702856774907559 -1.7525778730487218e-06 -0.00010357848805142567 -2.807834562190692e-06 5.365499418985564e-06
0.0003040647425223142 3.4357281037955545e-06 -7.55314385969541e-06 -1.4238361472962424e-05 -2.539446313676308e-06 6.105973170633661e-06 0.0001088046919903718 -0.0005127398762851954
-2.5035033104359172e-06 -0.00026573173818178475 0.00033214036375284195 1.3810092696076026e-06 0.00015082352911122143 -0.0004334242839831859 -1.8584191820991691e-06 -2.9735521820839494e-05
0.00032881254446692765 1.3430731087282766e-06 4.465096571948379e-05 -0.00044003521907143295 -1.8344853742746636e-06 -6.964673957554623e-05 0.0002776829351205379 9.417743171979964e-07
0.00017633428797125816 -0.0004672576324082911 -2.053358912235126e-06 -0.00010951988224405795 0.0004932542215101421 2.0759866856678855e-06 -5.731747933168663e-06 -0.0003679647343233228
-1.7481899021731806e-06 0.00026071551837958395 0.0005695853033103049 2.4974951884360053e-06 -0.00020533581846393645 -0.00047944640391506255 -1.8258718910146854e-06 4.471784268389456e-05
-1.535099016791719e-07 5.922247510170564e-06 0.0003220271610189229 -0.000494940672069788 -1.1210585171284038e-06 -2.889623647206463e-05 0.0005154681857675314 1.8760840703180293e-06
4.901660759060178e-06 -0.0004697570111602545 -1.5300232689696713e-06 3.153814031975344e-05 0.0015382060082629323 6.85906779835932e-05 0.00010273933003190905 0.000728475977666676
0.0011006720596924424 6.825447053415701e-05 0.0008721491321921349 0.00284191919490695 4.660606282413937e-05 0.00042285589734092355 0.005436823703348637 -8.292197890114039e-05
0.0005244193016551435 0.009355207905173302 -0.00024138450680766255 -0.001417972962372005 0.05724923312664032 6.0949325416004285e-05 -0.004387816414237022 0.16072028875350952
-0.00034342764411121607 -0.006015320308506489 0.2763909101486206 -0.000176067347638309 -0.008917117491364479 0.42098045349121094 0.0006535815773531795 -0.012587139382958412
0.5517671704292297 -2.4862289137672633e-05 -0.016145233064889908 0.6629530191421509 -8.363723281945568e-06 -0.020019125193357468 0.7953712344169617 0.00022256850206758827
-0.02355518750846386 0.9056531190872192 -0.00014911651669535786 -0.025888334959745407 1.0663487911224365 0.00018887520127464086 -0.03185594081878662 1.2355983257293701
-0.00026556968805380166 -0.03562111034989357 1.359513521194458 0.00021657942852471024 -0.040367282927036285 1.5091160535812378 0.00024806021247059107 -0.044927943497896194
1.6515350341796875 -0.00041102408431470394 -0.04989990219473839 1.7979700565338135 0.0001209640468005091 -0.05535564944148064 1.942541480064392 -0.00011649131192825735
-0.06098683550953865 2.0875699520111084 0.0002773380256257951 -0.06689320504665375 2.2223563194274902 -0.0007012176210992038 -0.07337255775928497 2.366767168045044
0.00014629363431595266 -0.08002499490976334 2.5072226524353027 0.0004296302795410156 -0.08680766075849533 2.641766309738159 0.00024690627469681203 -0.09387928992509842
2.771477222442627 1.989364500332158e-05 -0.10118864476680756 2.8985531330108643 0.00011430740414652973 -0.10887276381254196 3.0220143795013428 -0.00013956069597043097
-0.11694115400314331 3.1435482501983643 -0.00014784812810830772 -0.12538303434848785 3.2637386322021484 0.00010787010251078755 -0.13638807833194733 3.3821194171905518
-0.00010167121945414692 -0.15479446947574615 3.4948229789733887 2.2010803149896674e-05 -0.1760631650686264 3.6007156372070312 0.00016225814761128277 -0.19511836767196655
3.7059173583984375 -9.037971176439896e-05 -0.2111833542585373 3.8017613887786865 0.00027145384228788316 -0.2312740534543991 3.8987202644348145 -0.00020174978999421
-0.25523340702056885 3.986849546432495 0.00012793540372513235 -0.2830341160297394 4.063351631164551 0.00035482406383380294 -0.31945985555648804 4.13397216796875
-6.795883382437751e-05 -0.3607085645198822 4.194634437561035 0.00029246328631415963 -0.4036027789115906 4.253577709197998 3.195762474206276e-05 -0.43900829553604126
4.308492183685303 0.00027717588818632066 -0.4722523093223572 4.360742092132568 0.000208787911105901 -0.510657548904419 4.41089391708374 -0.00018548965454101562
-0.5556339025497437 4.444339275360107 0.0003121757472399622 -0.6057468056678772 4.455148696899414 0.00011260032624704763 -0.6520419120788574 4.445003509521484
6.628036317124497e-06 -0.6928747892379761 4.420526504516602 1.0643005225574598e-05 -0.7326537370681763 4.383884906768799 -0.00030981062445789576 -0.7674463987350464
4.343456745147705 0.000612392439506948 -0.7972458600997925 4.2968668937683105 0.000213422768865712 -0.8243153095245361 4.244278907775879 -0.0009654808090999722
-0.8491505980491638 4.18978214263916 -0.00038152694469317794 -0.872455894947052 4.135107517242432 7.629394076502649e-07 -0.8954645991325378 4.077671051025391
-0.00014299392933025956 -0.9146138429641724 4.026205539703369 0.0007109498837962747 -0.9340812563896179 3.969191312789917 -9.306907304562628e-05 -0.95095294713974
3.916362762451172 0.0004070567956659943 -0.9673988223075867 3.862133502960205 -7.44819635656313e-06 -0.9833139777183533 3.8071517944335938 -0.00015973090194165707
-1.000207781791687 3.7517247200012207 -0.00016214369679801166 -1.0234079360961914 3.694363832473755 0.0001895236928248778 -1.0470938682556152 3.631678581237793
3.017425478901714e-05 -1.065391182899475 3.5668718814849854 -2.807617056532763e-05 -1.0826129913330078 3.495633125305176 -0.0005528068286366761 -1.0941404104232788
