planning_aware_eval/interactive/data_collection/interactive/10_s-1_0_c_sl_f_1_0/velocity/player.npy (npy, 5936 bytes, 1 tensors)

array f8 [242, 3]
0	0x0000000000000000	0.0
1	0x0000000000000000	0.0
2	0x0000000000000000	0.0
3	0x0000000000000000	0.0
4	0x0000000000000000	0.0
5	0x0000000000000000	0.0
6	0x0000000000000000	0.0
7	0x0000000000000000	0.0
8	0x0000000000000000	0.0
9	0xbf9bb9aae0000000	-0.027075452730059624
10	0xbf4e0673c0000000	-0.0009162964997813106
11	0xbf63048000000000	-0.002321481704711914
12	0x3faf318e80000000	0.0609249621629715
13	0x3f60f45420000000	0.0020696299616247416
14	0xbf48ac6660000000	-0.0007529735448770225
15	0xbf9d5bd2e0000000	-0.028670592233538628
16	0xbf4ff880e0000000	-0.0009756688377819955
17	0x3f40440000000000	0.0004963874816894531
18	0x3fac104ba0000000	0.05481182411313057
19	0x3f5e844320000000	0.0018625884549692273
20	0x3f494e6660000000	0.0007722854497842491
21	0x3f9a590c80000000	0.025730319321155548
22	0x3f4cad6240000000	0.0008751611458137631
23	0x3f49d46660000000	0.0007882594945840538
24	0x3f9fe7c7a0000000	0.031157607212662697
25	0x3f51536fc0000000	0.001057490473613143
26	0x3f45795c20000000	0.0006553363637067378
27	0x3f8ae32e80000000	0.013128627091646194
28	0x3f3cc1b200000000	0.0004387912340462208
29	0x3f31626660000000	0.00026526450528763235
30	0x3f95cf2f00000000	0.021298155188560486
31	0x3f47d7c480000000	0.0007276257965713739
32	0x3f457599a0000000	0.0006548881647177041
33	0x3f873639c0000000	0.011333895847201347
34	0x3f39582780000000	0.0003867241321131587
35	0x3f3190ccc0000000	0.0002680301549844444
36	0x3f94fed420000000	0.020503344014286995
37	0x3f46d03f00000000	0.0006962115876376629
38	0x3f360c0000000000	0.0003364086151123047
39	0x3f86346380000000	0.010842110961675644
40	0x3f37cd2660000000	0.0003631800354924053
41	0xbf25c75c20000000	-0.00016615867207292467
42	0x3f95270d40000000	0.020656783133745193
43	0x3f470744c0000000	0.0007027707761153579
44	0x3f40bea3e0000000	0.000511007325258106
45	0x3f8947a940000000	0.012343714013695717
46	0x3f3b3db400000000	0.0004156650975346565
47	0x3f26a0f5c0000000	0.00017264366033487022
48	0x3f97149440000000	0.022539440542459488
49	0x3f491c7ea0000000	0.0007663362775929272
50	0x3ec428f5c0000000	2.403259259153856e-06
51	0x3f8cd8d720000000	0.014085465110838413
52	0x3f3f9f9020000000	0.0004825331561733037
53	0x3efbd47ae0000000	2.654075615282636e-05
54	0x3f98fcd260000000	0.024401938542723656
55	0x3f4b30b600000000	0.0008297814056277275
56	0x3f336451e0000000	0.0002958965196739882
57	0x3f913b25a0000000	0.016827190294861794
58	0x3f42ab3f80000000	0.0005697307642549276
59	0xbf193a3d60000000	-9.623527148505673e-05
60	0x3f9c9947c0000000	0.027928467839956284
61	0x3f4f11f9c0000000	0.0009481877787038684
62	0xbf2962e140000000	-0.00019368171342648566
63	0x3f9524f560000000	0.02064879797399044
64	0x3f470556a0000000	0.0007025406812317669
65	0x3f2a6c28e0000000	0.00020158766710665077
66	0x3fa0828c60000000	0.03224600479006767
67	0x3f51eda020000000	0.0010942519875243306
68	0xbf22975c20000000	-0.0001418399770045653
69	0x3f9a62e300000000	0.025767847895622253
70	0x3f4cbd4640000000	0.000877055455930531
71	0x3f1b899980000000	0.00010504722013138235
72	0x3fa4096f20000000	0.03913447633385658
73	0x3f55c2d880000000	0.0013281931169331074
74	0x3ec2e147a0000000	2.250671286674333e-06
75	0x3fa62e3960000000	0.043321412056684494
76	0x3f58212de0000000	0.001472754287533462
77	0xbf39b40000000000	-0.0003921985626220703
78	0x3fa5106b80000000	0.04114089906215668
79	0x3f56e65d40000000	0.0013976965565234423
80	0x3f25cd70a0000000	0.0001663398725213483
81	0x3fb5b919c0000000	0.08485566079616547
82	0x3f5c0f8b80000000	0.0017126905731856823
83	0x3f0d8147a0000000	5.627631981042214e-05
84	0x3fc3da9d40000000	0.15510907769203186
85	0x3f70c284e0000000	0.004091757815331221
86	0xbf34ec51e0000000	-0.00031926154042594135
87	0x3fcb4eb980000000	0.21333998441696167
88	0x3f7f50e380000000	0.0076455008238554
89	0x3f38407ae0000000	0.00037005424383096397
90	0x3fd0023f60000000	0.25013718008995056
91	0x3f839ec4a0000000	0.009580169804394245
92	0x3f34191ec0000000	0.0003066730569116771
93	0x3fd503f600000000	0.328366756439209
94	0x3f87432640000000	0.01135854609310627
95	0x3f1c65c280000000	0.00010832786210812628
96	0x3fd8f6c140000000	0.3900607228279114
97	0x3f8b646420000000	0.013375074602663517
98	0x3f26fe6660000000	0.00017542838759254664
99	0x3fdae12c40000000	0.41999346017837524
100	0x3f8d71b320000000	0.014377021230757236
101	0xbf308028e0000000	-0.00025177953648380935
102	0x3fd95426e0000000	0.3957612216472626
103	0x3f8bd64cc0000000	0.013592338189482689
104	0x3f24380000000000	0.00015425682067871094
105	0x3fd883ff60000000	0.38305649161338806
106	0x3f8b1c90a0000000	0.01323807705193758
107	0x3f2e3051e0000000	0.00023032187891658396
108	0x3fd79ee780000000	0.369073748588562
109	0x3f8afcc1e0000000	0.013177408836781979
110	0xbef4947ae0000000	-1.962661735888105e-05
111	0x3fd73c0680000000	0.36303865909576416
112	0x3f868c04c0000000	0.011009251698851585
113	0xbf47bcf5c0000000	-0.0007244300795719028
114	0x3fd5d1c440000000	0.3409281373023987
115	0x3f88d99da0000000	0.012133819051086903
116	0x3f31cf3320000000	0.00027174947899766266
117	0x3fd14c6a60000000	0.27028903365135193
118	0x3f85dac420000000	0.010671169497072697
119	0xbf2ebb8520000000	-0.00023447036801371723
120	0x3fd50aa0a0000000	0.3287736475467682
121	0x3f8796c680000000	0.011518049985170364
122	0x3f44e5ccc0000000	0.0006377458339557052
123	0x3fcdf1ad20000000	0.23393787443637848
124	0x3f8173aa60000000	0.008521395735442638
125	0xbf251a8f60000000	-0.00016100883658509701
126	0x3fd3c1fe40000000	0.3087154030799866
127	0x3f85c320e0000000	0.010626084171235561
128	0xbf22a7ae00000000	-0.000142326345667243
129	0x3fcecd3960000000	0.24063794314861298
130	0x3f806635a0000000	0.008007449097931385
131	0x3f25fd1ec0000000	0.0001677608524914831
132	0x3fd3fd3ae0000000	0.3123309314250946
133	0x3f85e1e8c0000000	0.010684793815016747
134	0xbf2a5a8f60000000	-0.00020106315787415951
135	0x3fd44113c0000000	0.31647199392318726
136	0x3f83db8840000000	0.009696068242192268
137	0xbf303c7ae0000000	-0.0002477455127518624
138	0x3fd472b5a0000000	0.3195013105869293
139	0x3f83a0fb60000000	0.009584392420947552
140	0x3f07a8f5c0000000	4.5127868361305445e-05
141	0x3fd42b9260000000	0.315159410238266
142	0x3f8534e0e0000000	0.010354763828217983
143	0x3f31f87ae0000000	0.00027420997503213584
144	0x3fd4511ec0000000	0.3174511790275574
145	0x3f857c7dc0000000	0.010491354390978813
146	0xbf220851e0000000	-0.00013757705164607614
147	0x3fd9010ea0000000	0.39068952202796936
148	0x3f8d209820000000	0.014222324825823307
149	0x3f17170a40000000	8.808136044535786e-05
150	0x3fd828bc80000000	0.37748634815216064
151	0x3f8b876520000000	0.013441839255392551
152	0xbf39780000000000	-0.0003886222839355469
153	0x3fda3c6d60000000	0.40993818640708923
154	0x3f8e6ddcc0000000	0.014857983216643333
155	0x3f17970a40000000	8.998870907817036e-05
156	0x3fd9a28ca0000000	0.40054622292518616
157	0x3f8a8d2b00000000	0.01296456903219223
158	0x3f462399a0000000	0.00067563058109954
159	0x3fdd852960000000	0.4612525403499603
160	0x3f9034e5e0000000	0.015826789662241936
161	0x3f31d4a3e0000000	0.0002720737538766116
162	0x3fe0873cc0000000	0.5165084600448608
163	0x3f9330f860000000	0.018741494044661522
164	0xbf3300f5c0000000	-0.00028997421031817794
165	0x3fe01c3fc0000000	0.5034483671188354
166	0x3f92114400000000	0.017643988132476807
167	0xbf100b8520000000	-6.120681791799143e-05
168	0x3fe2730a40000000	0.5765429735183716
169	0x3f94e98f60000000	0.020422210916876793
170	0x3f24a66660000000	0.00015754699415992945
171	0x3fe2676620000000	0.5751219391822815
172	0x3f965b1b60000000	0.021831920370459557
173	0xbf216f5c20000000	-0.00013301848957780749
174	0x3fe5729380000000	0.670236349105835
175	0x3f98861e40000000	0.023949120193719864
176	0xbf39fbae00000000	-0.0003964710049331188
177	0x3fe6f70a00000000	0.717656135559082
178	0x3f99e19480000000	0.02527458220720291
179	0xbf31300000000000	-0.00026226043701171875
180	0x3fe79fb820000000	0.7382469773292542
181	0x3f9b5a0980000000	0.02671065181493759
182	0x3f3233ae00000000	0.0002777385525405407
183	0x3fe8e47da0000000	0.7778919339179993
184	0x3f9ca82560000000	0.02798517607152462
185	0x3f3d875c20000000	0.00045057295938022435
186	0x3feae19920000000	0.8400388360023499
187	0x3f9e37a7c0000000	0.029509183019399643
188	0x3ef228f5c0000000	1.7318725440418348e-05
189	0x3feb369400000000	0.8504123687744141
190	0x3f9e5f0dc0000000	0.02965947613120079
191	0x3f40dee140000000	0.0005148506024852395
192	0x3feebd36a0000000	0.9605973362922668
193	0x3fa13b12c0000000	0.03365381807088852
194	0x3f116c28e0000000	6.646155816270038e-05
195	0x3feed1a200000000	0.9630899429321289
196	0x3fa189bc40000000	0.034253962337970734
197	0xbf3e5570a0000000	-0.0004628562892321497
198	0x3ff10e7a40000000	1.0660345554351807
199	0x3fa3139d60000000	0.037259023636579514
200	0xbf34efd700000000	-0.00031947134993970394
201	0x3ff14fcc60000000	1.0819820165634155
202	0x3fa35020c0000000	0.0377207025885582
203	0x3f3c0f5c20000000	0.00042816161294467747
204	0x3ff3432de0000000	1.2039011716842651
205	0x3fa57ac2c0000000	0.041952215135097504
206	0xbf3bb75c20000000	-0.0004229164042044431
207	0x3ff38eb420000000	1.2223397493362427
208	0x3fa58c4fc0000000	0.04208611696958542
209	0x3f35f170a0000000	0.00033482551225461066
210	0x3ff5a545e0000000	1.3528498411178589
211	0x3fa7cdd3a0000000	0.046492207795381546
212	0x3f364199a0000000	0.0003396034298930317
213	0x3ff6073d60000000	1.3767675161361694
214	0x3fa8370280000000	0.04729469120502472
215	0xbef2deb840000000	-1.799583333195187e-05
216	0x3ff81e84a0000000	1.5074506998062134
217	0x3faa832700000000	0.05178186297416687
218	0xbf27651ea0000000	-0.00017848967399913818
219	0x3ff8901360000000	1.5351747274398804
220	0x3faaff9ca0000000	0.05273141339421272
221	0xbf2a2d70a0000000	-0.00019971847359556705
222	0x3ffabff780000000	1.6718668937683105
223	0x3fad675360000000	0.057428937405347824
224	0x3f0550a3c0000000	4.0655133489053696e-05
225	0x3ffb581960000000	1.7090085744857788
226	0x3fae0ed9e0000000	0.05870705470442772
227	0xbf00aa3d60000000	-3.178596307407133e-05
228	0x3ffd8c82e0000000	1.8468044996261597
229	0x3fb03d7dc0000000	0.063438281416893
230	0xbf2e2851e0000000	-0.0002300834603374824
231	0x3ffe396d80000000	1.8890204429626465
232	0x3fb09cac20000000	0.06489063054323196
233	0xbf1f251ea0000000	-0.00011880874080816284
234	0x40004429e0000000	2.033282995223999
235	0x3fb1e13dc0000000	0.06984315812587738
236	0xbf1b047ae0000000	-0.00010306358308298513
237	0x4000b5ffe0000000	2.088866949081421
238	0x3fb25e7d20000000	0.07175428420305252
239	0x3f3ec3d700000000	0.00046943663619458675
240	0x4001c68960000000	2.2219417095184326
241	0x3fb38a6d20000000	0.07633096724748611
242	0x3f3d838520000000	0.0004503440868575126
243	0x40024d16c0000000	2.2876410484313965
244	0x3fb41df900000000	0.07858234643936157
245	0x3f233d1ec0000000	0.0001467800175305456
246	0x4003645300000000	2.4239864349365234
247	0x3fb55106c0000000	0.08326761424541473
248	0xbf435d5c20000000	-0.0005909633473493159
249	0x400402dc80000000	2.501397132873535
250	0x3fb5ff7ac0000000	0.08592955768108368
251	0x3f38051ea0000000	0.00036651609116233885
252	0x4004bc6ac0000000	2.5920004844665527
253	0x3fb6cb1140000000	0.08903606235980988
254	0xbf2ed61460000000	-0.00023526190489064902
255	0x40057abe60000000	2.6849334239959717
