planning_aware_eval/obstacle/data_collection/obstacle/10_s-4_2_f_sl/velocity/player.npy (npy, 4760 bytes, 1 tensors)

array f8 [193, 3]
000000 00 00 00 00 00 00 00 00 00 00 00 00 00 00 00 00
       0.0 0.0
000010 00 00 00 00 00 00 00 00 00 00 00 00 00 00 00 00
       0.0 0.0
000020 00 00 00 00 00 00 00 00 00 00 00 00 00 00 00 00
       0.0 0.0
000030 00 00 00 00 00 00 00 00 00 00 00 00 00 00 00 00
       0.0 0.0
000040 00 00 00 00 00 00 00 00 00 00 00 00 00 00 00 00
       0.0 0.0
000050 00 00 00 00 00 00 00 00 00 00 00 00 00 00 00 00
       0.0 0.0
000060 00 00 00 00 00 00 00 00 00 00 00 00 00 00 00 00
       0.0 0.0
000070 00 00 00 00 00 00 00 00 00 00 00 80 f9 86 ae 3f
       0.0 0.05962352454662323
000080 00 00 00 60 23 b4 56 3f 00 00 00 e0 a8 2e 66 bf
       0.0013857217272743583 -0.00270779593847692
000090 00 00 00 80 9b 67 ad 3f 00 00 00 00 64 e9 55 3f
       0.05743108689785004 0.0013373829424381256
0000a0 00 00 00 00 00 e9 50 bf 00 00 00 60 9f ab ab 3f
       -0.001032114028930664 0.05404375120997429
0000b0 00 00 00 e0 48 85 54 3f 00 00 00 a0 99 65 36 3f
       0.001252480666153133 0.0003417491971049458
0000c0 00 00 00 20 e4 e8 aa 3f 00 00 00 20 e0 0b 54 3f
       0.05255806818604469 0.0012235344620421529
0000d0 00 00 00 60 66 f7 41 3f 00 00 00 e0 a4 ff aa 3f
       0.0005482911947183311 0.05273165926337242
0000e0 00 00 00 40 18 27 54 3f 00 00 00 c0 f5 a4 30 3f
       0.0012300240341573954 0.000253973004873842
0000f0 00 00 00 e0 34 5c aa 3f 00 00 00 c0 90 ab 53 3f
       0.05148473009467125 0.0012005723547190428
000100 00 00 00 e0 28 52 43 3f 00 00 00 40 34 b8 a9 3f
       0.0005896281800232828 0.05023349076509476
000110 00 00 00 a0 93 1a 53 3f 00 00 00 20 33 b5 4a 3f
       0.0011660043383017182 0.000815057719592005
000120 00 00 00 40 00 cd a9 3f 00 00 00 80 0b 33 53 3f
       0.05039215832948685 0.0011718380264937878
000130 00 00 00 e0 7a 00 41 3f 00 00 00 00 73 3f a9 3f
       0.0005188560462556779 0.049312204122543335
000140 00 00 00 20 7f c5 52 3f 00 00 00 e0 7a 3c 4a 3f
       0.0011457196669653058 0.0008006668067537248
000150 00 00 00 00 8b b0 a9 3f 00 00 00 a0 11 17 53 3f
       0.05017504096031189 0.0011651680106297135
000160 00 00 00 00 ae ed 38 3f 00 00 00 20 b3 81 aa 3f
       0.00038037775084376335 0.051770780235528946
000170 00 00 00 80 6e af 53 3f 00 00 00 40 e1 7a f2 be
       0.0012014941312372684 -1.7623900930630043e-05
000180 00 00 00 40 f9 92 ab 3f 00 00 00 e0 7c 75 54 3f
       0.05385569483041763 0.001248714397661388
000190 00 00 00 a0 47 a1 32 bf 00 00 00 40 92 81 ab 3f
       -0.0002842712274286896 0.05372292548418045
0001a0 00 00 00 c0 90 76 54 3f 00 00 00 c0 cc e0 3a 3f
       0.00124897132627666 0.00041012762812897563
0001b0 00 00 00 e0 7a 2f a4 bf 00 00 00 40 c5 dd 4d bf
       -0.03942474350333214 -0.0009114468703046441
0001c0 00 00 00 00 ae 8d 4b bf 00 00 00 e0 0d be 9d bf
       -0.0008408641442656517 -0.029045311734080315
0001d0 00 00 00 40 14 0a 46 bf 00 00 00 00 d7 f5 55 3f
       -0.0006725882412865758 0.0013403510674834251
0001e0 00 00 00 20 a9 c5 98 bf 00 00 00 e0 4f 54 42 bf
       -0.024191515520215034 -0.0005593671812675893
0001f0 00 00 00 00 00 f2 44 3f 00 00 00 80 40 8f 91 bf
       0.0006392002105712891 -0.017148025333881378
000200 00 00 00 80 7a 4b 3a bf 00 00 00 40 b8 6c 3a 3f
       -0.0004012273857370019 0.0004032087163068354
000210 00 00 00 c0 38 40 6d 3f 00 00 00 80 23 8e 18 3f
       0.003570662345737219 9.36707656364888e-05
000220 00 00 00 40 e1 0c 40 3f 00 00 00 e0 20 9f b8 3f
       0.0004898166516795754 0.09617810696363449
000230 00 00 00 60 3b 57 64 3f 00 00 00 00 ae 6f 2b 3f
       0.0024830016773194075 0.00020932196639478207
000240 00 00 00 80 e5 46 b2 3f 00 00 00 20 9d 8d 50 3f
       0.07139429450035095 0.0010103258537128568
000250 00 00 00 c0 f5 38 35 bf 00 00 00 40 68 f6 c5 3f
       -0.0003238296485505998 0.17158225178718567
000260 00 00 00 60 17 c9 71 3f 00 00 00 00 d7 23 44 bf
       0.004342166241258383 -0.0006146240048110485
000270 00 00 00 80 3b 0c c7 3f 00 00 00 80 94 8a 6b 3f
       0.18006080389022827 0.003361978568136692
000280 00 00 00 e0 28 0e 41 bf 00 00 00 40 e2 38 cb 3f
       -0.0005204867920838296 0.21267345547676086
000290 00 00 00 60 e7 32 6b 3f 00 00 00 00 ae a1 48 bf
       0.0033201712649315596 -0.0007516955956816673
0002a0 00 00 00 e0 4d ec c9 3f 00 00 00 c0 03 4d 72 3f
       0.20252393186092377 0.0044679781422019005
0002b0 00 00 00 20 5c bd 4c 3f 00 00 00 60 5c 5b d2 3f
       0.0008770656422711909 0.2868262231349945
0002c0 00 00 00 e0 d5 f7 79 3f 00 00 00 80 99 df 4c 3f
       0.006339869927614927 0.000881147338077426
0002d0 00 00 00 80 3d 03 d4 3f 00 00 00 00 2a c0 78 3f
       0.31269776821136475 0.006042636930942535
0002e0 00 00 00 c0 1e 85 d1 be 00 00 00 40 e0 eb d7 3f
       -4.177093614998739e-06 0.3737717270851135
0002f0 00 00 00 e0 94 c3 84 3f 00 00 00 00 d7 13 3d 3f
       0.010138667188584805 0.000443687429651618
000300 00 00 00 80 b9 4a da 3f 00 00 00 40 d0 98 82 3f
       0.41081082820892334 0.00908053107559681
000310 00 00 00 20 5c df 2d 3f 00 00 00 40 75 ef dd 3f
       0.00022790908406022936 0.46774035692214966
000320 00 00 00 00 bf 92 86 3f 00 00 00 80 eb 2e 55 bf
       0.011022083461284637 -0.0012929248623549938
000330 00 00 00 c0 90 69 e0 3f 00 00 00 40 8a 90 88 3f
       0.5128864049911499 0.011994438245892525
000340 00 00 00 20 85 4b 3a 3f 00 00 00 a0 3d ac e1 3f
       0.0004012298595625907 0.5522754788398743
000350 00 00 00 20 c9 dc 89 3f 00 00 00 60 8f 56 34 3f
       0.012628146447241306 0.00031033516279421747
000360 00 00 00 a0 57 2b e3 3f 00 00 00 60 40 36 8e 3f
       0.5990408062934875 0.014751913957297802
000370 00 00 00 c0 1e 75 44 3f 00 00 00 20 34 48 e5 3f
       0.0006243133684620261 0.6650639176368713
000380 00 00 00 a0 43 b5 8f 3f 00 00 00 20 85 1b 29 3f
       0.01548245269805193 0.00019155502377543598
000390 00 00 00 40 b6 63 e7 3f 00 00 00 c0 9a 31 92 3f
       0.7309218645095825 0.017767351120710373
0003a0 00 00 00 c0 1e 85 03 3f 00 00 00 00 53 88 e9 3f
       3.7231446185614914e-05 0.7978911399841309
0003b0 00 00 00 20 53 b2 93 3f 00 00 00 20 33 5b 18 bf
       0.01923494227230549 -9.291171591030434e-05
0003c0 00 00 00 00 b3 8c eb 3f 00 00 00 c0 09 ce 94 3f
       0.8609251976013184 0.02031722292304039
0003d0 00 00 00 60 3d 82 12 bf 00 00 00 80 59 25 ed 3f
       -7.060527423163876e-05 0.9108092784881592
0003e0 00 00 00 e0 35 1d 96 3f 00 00 00 00 d7 91 4c bf
       0.021595804020762444 -0.0008718776516616344
0003f0 00 00 00 00 00 3f ef 3f 00 00 00 00 aa 79 97 3f
       0.9764404296875 0.02292504906654358
000400 00 00 00 c0 cc 3c 27 bf 00 00 00 c0 10 f9 f0 3f
       -0.00017728804959915578 1.0608069896697998
000410 00 00 00 40 75 9d 99 3f 00 00 00 80 14 80 42 3f
       0.025014717131853104 0.0005645847413688898
000420 00 00 00 00 4e 3e f2 3f 00 00 00 60 be a4 9b 3f
       1.1402111053466797 0.02699563466012478
000430 00 00 00 c0 f5 7c 3c 3f 00 00 00 a0 18 87 f3 3f
       0.0004346942878328264 1.2204824686050415
000440 00 00 00 20 84 9a 9d 3f 00 00 00 80 eb 59 21 bf
       0.028909744694828987 -0.00013237952953204513
000450 00 00 00 a0 77 d8 f4 3f 00 00 00 a0 f8 99 9f 3f
       1.3028484582901 0.030860790982842445
000460 00 00 00 c0 cc 40 3c bf 00 00 00 80 72 31 f6 3f
       -0.00043110846308991313 1.3870720863342285
000470 00 00 00 a0 4c d2 a0 3f 00 00 00 c0 1e 2d 22 3f
       0.03285445645451546 0.00013867378584109247
000480 00 00 00 00 8c 91 f7 3f 00 00 00 c0 4e dd a1 3f
       1.4730339050292969 0.03489156812429428
000490 00 00 00 a0 70 bd 09 3f 00 00 00 c0 c9 ec f8 3f
       4.909515337203629e-05 1.557809591293335
0004a0 00 00 00 c0 07 e4 a2 3f 00 00 00 60 66 fd 41 3f
       0.036895982921123505 0.0005490064504556358
0004b0 00 00 00 40 b4 54 fa 3f 00 00 00 80 e2 f4 a3 3f
       1.6456797122955322 0.03897769749164581
0004c0 00 00 00 40 e1 fa f8 be 00 00 00 00 d4 d7 fb 3f
       -2.3822783987270668e-05 1.7401924133300781
0004d0 00 00 00 a0 54 1a a5 3f 00 00 00 a0 47 f4 50 bf
       0.04121651127934456 -0.001034803339280188
0004e0 00 00 00 60 18 45 fd 3f 00 00 00 80 7f 2f a6 3f
       1.8293689489364624 0.04333113133907318
0004f0 00 00 00 60 66 d3 4e 3f 00 00 00 c0 cc d5 fe 3f
       0.000940728175919503 1.9271972179412842
000500 00 00 00 20 24 5f a7 3f 00 00 00 a0 47 f1 19 bf
       0.045647744089365005 -9.896278061205521e-05
000510 00 00 00 e0 24 39 00 40 00 00 00 40 d4 97 a8 3f
       2.027902364730835 0.04803336411714554
000520 00 00 00 c0 a3 64 37 bf 00 00 00 60 43 f8 00 40
       -0.0003569507389329374 2.1212222576141357
000530 00 00 00 e0 7c b9 a9 3f 00 00 00 a0 70 ee 47 3f
       0.05024328455328941 0.000730328552890569
000540 00 00 00 20 bc bd 01 40 00 00 00 40 88 e4 aa 3f
       2.217643976211548 0.052524812519550323
000550 00 00 00 60 66 36 3a 3f 00 00 00 c0 d9 5b 02 40
       0.00039997100248001516 2.294848918914795
000560 00 00 00 80 35 d4 ab 3f 00 00 00 c0 cc 38 2c 3f
       0.05435340106487274 0.000215315812965855
000570 00 00 00 a0 31 09 03 40 00 00 00 c0 68 db ac 3f
       2.3794891834259033 0.05636145919561386
000580 00 00 00 80 c2 8f 41 bf 00 00 00 c0 f6 cc 03 40
       -0.0005359363276511431 2.4750800132751465
000590 00 00 00 80 ab 03 ae 3f 00 00 00 c0 a3 3c 37 bf
       0.05862174928188324 -0.00035456655314192176
0005a0 00 00 00 e0 9d a2 04 40 00 00 00 40 29 48 af 3f
       2.5794026851654053 0.06109742075204849
0005b0 00 00 00 80 14 e0 39 3f 00 00 00 a0 69 7a 05 40
       0.0003948259400203824 2.684771776199341
0005c0 00 00 00 c0 db 47 b0 3f 00 00 00 a0 99 79 36 3f
       0.06359647214412689 0.0003429412900004536
0005d0 00 00 00 a0 36 56 06 40 00 00 00 00 19 ee b0 3f
       2.7920963764190674 0.06613308191299438
0005e0 00 00 00 20 33 b7 20 3f 00 00 00 a0 0e 38 07 40
       0.00012753008923027664 2.902371644973755
0005f0 00 00 00 20 20 99 b1 3f 00 00 00 c0 cc dc 28 bf
       0.06874275952577591 -0.00018968581571243703
000600 00 00 00 a0 f8 21 08 40 00 00 00 20 bd 4a b2 3f
       3.016587495803833 0.07145292311906815
000610 00 00 00 80 14 88 4c bf 00 00 00 00 eb 15 09 40
       -0.0008707141969352961 3.135702133178711
000620 00 00 00 20 62 03 b3 3f 00 00 00 60 66 27 46 3f
       0.07427037507295609 0.0006760835531167686
000630 00 00 00 80 7e 0a 0a 40 00 00 00 60 df bc b3 3f
       3.255124092102051 0.0771007165312767
000640 00 00 00 40 e1 4e 2f 3f 00 00 00 20 53 fc 0a 40
       0.00023886203416623175 3.3732054233551025
000650 00 00 00 e0 0d 24 b8 3f 00 00 00 c0 f5 c8 a7 3f
       0.09430014342069626 0.046455077826976776
000660 00 00 00 80 f4 e3 0b 40 00 00 00 c0 a9 8d ba 3f
       3.4863061904907227 0.10372410714626312
000670 00 00 00 e0 09 54 96 3f 00 00 00 c0 e8 fc 0c 40
       0.02180495671927929 3.623490810394287
000680 00 00 00 e0 9e 86 b3 3f 00 00 00 40 a8 53 9a bf
       0.07627289742231369 -0.02570975199341774
000690 00 00 00 80 f9 ef 0d 40 00 00 00 00 d9 a6 b3 3f
       3.7421751022338867 0.07676464319229126
0006a0 00 00 00 20 3d d2 91 bf 00 00 00 20 60 fc 0e 40
       -0.017403559759259224 3.873230218887329
0006b0 00 00 00 40 5d be b5 3f 00 00 00 80 22 1b 87 bf
       0.0849359780550003 -0.011282224208116531
0006c0 00 00 00 a0 2a 0d 10 40 00 00 00 a0 b5 8e b7 3f
       4.012857913970947 0.09202132374048233
0006d0 00 00 00 60 66 3a 7a bf 00 00 00 20 ef 86 10 40
       -0.0064033507369458675 4.131771564483643
0006e0 00 00 00 c0 41 b4 b8 3f 00 00 00 60 26 38 64 bf
       0.09650050103664398 -0.0024681806098669767
0006f0 00 00 00 80 59 09 11 40 00 00 00 00 f2 b2 b9 3f
       4.259130477905273 0.10038673877716064
000700 00 00 00 40 61 17 58 bf 00 00 00 e0 ce 91 11 40
       -0.0014704179484397173 4.392390727996826
000710 00 00 00 00 c7 9b ba 3f 00 00 00 c0 cc 02 47 bf
       0.1039394736289978 -0.0007022380596026778
000720 00 00 00 a0 7d 2b 12 40 00 00 00 40 aa 8f bb 3f
       4.542471408843994 0.10766090452671051
000730 00 00 00 e0 51 de 46 bf 00 00 00 a0 5a ad 12 40
       -0.0006978893070481718 4.669291019439697
000740 00 00 00 60 c7 56 bc 3f 00 00 00 60 3d f1 51 3f
       0.1106991395354271 0.0010951136937364936
000750 00 00 00 c0 09 38 13 40 00 00 00 00 d4 28 bd 3f
       4.80472469329834 0.11390423774719238
000760 00 00 00 80 c2 89 43 3f 00 00 00 e0 3a cb 13 40
       0.0005962562281638384 4.948466777801514
000770 00 00 00 80 83 06 be 3f 00 00 00 c0 1e e5 33 3f
       0.11728689074516296 0.0003035736153833568
000780 00 00 00 40 79 57 14 40 00 00 00 00 92 d9 be 3f
       5.085423469543457 0.12050735950469971
000790 00 00 00 00 a0 e9 72 3f 00 00 00 c0 6c e1 14 40
       0.00461733341217041 5.220141410827637
0007a0 00 00 00 e0 36 a9 bf 3f 00 00 00 e0 7a 4e 65 3f
       0.12367575615644455 0.0026008987333625555
0007b0 00 00 00 c0 fd 4f 15 40 00 00 00 00 da 27 c0 3f
       5.328116416931152 0.12621617317199707
0007c0 00 00 00 20 05 e0 55 3f 00 00 00 60 6a 62 15 40
       0.001335148815996945 5.346108913421631
0007d0 00 00 00 20 ff 34 c0 3f 00 00 00 80 eb 87 43 3f
       0.12661732733249664 0.0005960369016975164
0007e0 00 00 00 60 21 61 15 40 00 00 00 40 32 ba a4 3f
       5.34485387802124 0.04048306494951248
0007f0 00 00 00 e0 28 44 22 3f 00 00 00 40 38 49 15 40
       0.00013936041796114296 5.321503639221191
