planning_aware_eval/interactive/data_collection/interactive/10_s-7_0_b_l_f_1_s/velocity/player.npy (npy, 7064 bytes, 1 tensors)

array f8 [289, 3]
0	0xbe891726a0000000	-1.8693829417770758e-07
1	0x3e87e48260000000	1.780138489948513e-07
2	0x3f0be7ae00000000	5.3224561270326376e-05
3	0x3e60fb81a0000000	3.163227191294027e-08
4	0x3e7f385000000000	1.1630345397861674e-07
5	0x3f312dc280000000	0.00026212690863758326
6	0xbe809149c0000000	-1.234377293712896e-07
7	0xbe68a44f20000000	-4.589898949802773e-08
8	0x3f38e5eb80000000	0.00037991523277014494
9	0xbe32d8ddc0000000	-4.38819025561088e-09
10	0xbe6ed2b380000000	-5.741240727274999e-08
11	0x3f03c8f5c0000000	3.773689240915701e-05
12	0x3e79091800000000	9.326458894065581e-08
13	0x3e7cc9fbc0000000	1.0724737364853354e-07
14	0xbee3428f60000000	-9.183883776131552e-06
15	0x3e616882e0000000	3.242538682002305e-08
16	0x3e708ae020000000	6.162554910815743e-08
17	0x3f0e147ae0000000	5.737304672948085e-05
18	0xbe81aa3fc0000000	-1.3161476886125456e-07
19	0xbe7a578880000000	-9.813132351155218e-08
20	0xbf208cccc0000000	-0.0001262664736714214
21	0x3e73d9cf00000000	7.395004786303616e-08
22	0xbe4fd0fbc0000000	-1.4815638493814731e-08
23	0xbf12828f60000000	-7.061004725983366e-05
24	0x3e7a979d40000000	9.906382558710902e-08
25	0xbe427eb840000000	-8.612405011376723e-09
26	0xbeea000000000000	-1.239776611328125e-05
27	0x3e58539d60000000	2.26559304650209e-08
28	0x3e6522f820000000	3.936998282938475e-08
29	0x3ee33851e0000000	9.16480985324597e-06
30	0xbe481348e0000000	-1.1210949502071799e-08
31	0x3e61d8d860000000	3.324272412896789e-08
32	0x3f145b8520000000	7.765769987599924e-05
33	0x3e3a60e7a0000000	6.141731123676664e-09
34	0x3e45c0b5c0000000	1.0129424410365573e-08
35	0x3f154a3d60000000	8.121490100165829e-05
36	0xbe5ff86560000000	-2.9774659182635332e-08
37	0x3e50bc95e0000000	1.558723106143134e-08
38	0x3f0ab47ae0000000	5.093574509373866e-05
39	0xbe2c6375c0000000	-3.304858164909774e-09
40	0xbe5422e5a0000000	-1.8753405939264667e-08
41	0xbf0b1851e0000000	-5.167960989638232e-05
42	0xbe4b90e420000000	-1.2836410157035516e-08
43	0x3e56dedfc0000000	2.1299907615457414e-08
44	0xbf1bfa3d60000000	-0.00010672568896552548
45	0x3e5fdcaba0000000	2.9673794088580507e-08
46	0xbe469b00c0000000	-1.052649700739039e-08
47	0xbeb23d70a0000000	-1.0871887070607045e-06
48	0x3e34c748a0000000	4.837860334561128e-09
49	0xbe1cc1e660000000	-1.6739022390410696e-09
50	0x3ec39999a0000000	2.3365021206700476e-06
51	0x3e2969f140000000	2.9585600636039544e-09
52	0xbe56324300000000	-2.067194770916103e-08
53	0xbf0b31eb80000000	-5.187034548725933e-05
54	0xbe6aea5b20000000	-5.013393788999565e-08
55	0x3e3dae5ce0000000	6.910670702353627e-09
56	0xbf2b9428e0000000	-0.00021040915453340858
57	0xbe084e1420000000	-7.073684415992432e-10
58	0xbe2d9344c0000000	-3.4430143180941286e-09
59	0xbf15c70a40000000	-8.307457028422505e-05
60	0x3e38dfeda0000000	5.791596979776159e-09
61	0x3e44708940000000	9.517927779256752e-09
62	0xbf19ba3d60000000	-9.814262011786923e-05
63	0x3e5a8eb940000000	2.4733612491445456e-08
64	0xbe18a07b80000000	-1.4334733400289679e-09
65	0x3f152a3d60000000	8.073806384345517e-05
66	0xbe67261520000000	-4.31179252302627e-08
67	0xbe54383e00000000	-1.883105937849905e-08
68	0xbee0570a40000000	-7.791519237798639e-06
69	0x3e6fc212e0000000	5.915407186307675e-08
70	0xbe8671eb20000000	-1.6722823659165442e-07
71	0xbf05428f60000000	-4.055023237015121e-05
72	0x3e602d3e00000000	3.013150262631825e-08
73	0xbe770c36a0000000	-8.58594049191197e-08
74	0x3f2450f5c0000000	0.0001550006854813546
75	0xbef95991e0000000	-2.41755315073533e-05
76	0x3eff50c140000000	2.9864739190088585e-05
77	0x3f019d70a0000000	3.359794573043473e-05
78	0x3f16ca7800000000	8.694035932421684e-05
79	0x3effbce5c0000000	3.0267601687228307e-05
80	0x3ef34a3d60000000	1.8396376617602073e-05
81	0x3f21988d40000000	0.00013424610369838774
82	0x3f448f85c0000000	0.0006274607731029391
83	0xbf505c6660000000	-0.00099859235342592
84	0x3f2e6b2c60000000	0.00023207585036288947
85	0x3f49f1f8a0000000	0.0007917846669442952
86	0x3f23275c20000000	0.00014613151142839342
87	0x3f29d2a240000000	0.00019701223936863244
88	0x3f68c5e720000000	0.0030240549240261316
89	0xbeff63d700000000	-2.993583620991558e-05
90	0x3f2dd8ec40000000	0.0002277172461617738
91	0x3f7c74d020000000	0.006947339046746492
92	0x3f2e1c7ae0000000	0.00022973060549702495
93	0x3f36008e60000000	0.0003357265086378902
94	0x3f913cfb80000000	0.016834191977977753
95	0x3f2d6cccc0000000	0.00022449492826126516
96	0x3f49f61560000000	0.0007922748918645084
97	0x3fa6cb3120000000	0.044518981128931046
98	0x3f2b8a3d60000000	0.00021011351782362908
99	0x3f695be960000000	0.003095584688708186
100	0x3fc0e8a460000000	0.1320996731519699
101	0x3f11447ae0000000	6.587028474314138e-05
102	0x3f6480cd60000000	0.0025028239469975233
103	0x3fbe00a200000000	0.11719715595245361
104	0x3f21a570a0000000	0.00013463020150084049
105	0x3f73222280000000	0.0046712253242731094
106	0x3fcffc57a0000000	0.2498883754014969
107	0xbee7333320000000	-1.1062621524615679e-05
108	0x3f776eaae0000000	0.005720775108784437
109	0x3fd1a80da0000000	0.27588215470314026
110	0x3f0bccccc0000000	5.302429053699598e-05
111	0x3f7c867280000000	0.006964156404137611
112	0x3fd4889200000000	0.32083559036254883
113	0x3f236a8f60000000	0.00014813423331361264
114	0x3f815f1160000000	0.008482108823955059
115	0x3fdb8758e0000000	0.43013593554496765
116	0x3f13333320000000	7.324218313442543e-05
117	0x3f813a13e0000000	0.008411555550992489
118	0x3fdf661a40000000	0.4906068444252014
119	0xbf1d0ae140000000	-0.00011078834359068424
120	0x3f85d423c0000000	0.01065853051841259
121	0x3fe38c3f40000000	0.6108700037002563
122	0x3f122a3d60000000	6.929397204658017e-05
123	0x3f85c081a0000000	0.010621082969009876
124	0x3fe5288d60000000	0.661200225353241
125	0x3f1990a3c0000000	9.752273035701364e-05
126	0x3f86b50fa0000000	0.01108753401786089
127	0x3fe5f56ba0000000	0.6862085461616516
128	0x3f18bc28e0000000	9.43565319175832e-05
129	0x3f89f02820000000	0.012665093876421452
130	0x3fe8fcdda0000000	0.7808673977851868
131	0x3f1b2147a0000000	0.0001034927336149849
132	0x3f88b48b80000000	0.012063112109899521
133	0x3feb9ce680000000	0.8629028797149658
134	0xbf180eb840000000	-9.177207539323717e-05
135	0x3f8cc04180000000	0.014038573950529099
136	0x3fee51fb20000000	0.9475074410438538
137	0x3f23d47ae0000000	0.0001512908929726109
138	0x3f8d52f240000000	0.01431836374104023
139	0x3ff0298ea0000000	1.0101457834243774
140	0xbf0ddd70a0000000	-5.6962966482387856e-05
141	0x3f8cd554c0000000	0.014078771695494652
142	0x3ff1664dc0000000	1.0874764919281006
143	0xbee19eb840000000	-8.40187021822203e-06
144	0x3f8e038060000000	0.014655116014182568
145	0x3ff2fc54c0000000	1.1866042613983154
146	0xbf0f28f5c0000000	-5.9432983107399195e-05
147	0x3f90aeaae0000000	0.01629130356013775
148	0x3ff4451d80000000	1.266873836517334
149	0xbefffd70a0000000	-3.050804116355721e-05
150	0x3f91a54c80000000	0.017232127487659454
151	0x3ff598d960000000	1.3498166799545288
152	0x3ef3d1eb80000000	1.890182466013357e-05
153	0x3f9267e6c0000000	0.017974477261304855
154	0x3ff6edeea0000000	1.4330888986587524
155	0xbeff666660000000	-2.994537317135837e-05
156	0x3f932f2b60000000	0.018734624609351158
157	0x3ff843c640000000	1.5165464878082275
158	0x3f05bae140000000	4.144668491790071e-05
159	0x3f940f4cc0000000	0.019589614123106003
160	0x3ff9994320000000	1.5999175310134888
161	0xbf118eb840000000	-6.697654316667467e-05
162	0x3f94b8c9e0000000	0.020236162468791008
163	0x3ffae89e80000000	1.6817917823791504
164	0xbf0cf0a3c0000000	-5.519866681424901e-05
165	0x3f95441ca0000000	0.020767638459801674
166	0x3ffc2e4080000000	1.7612919807434082
167	0xbeff47ae00000000	-2.9830931453034282e-05
168	0x3f956cc880000000	0.020922787487506866
169	0x3ffd0b3f00000000	1.8152456283569336
170	0x3f3bcc0000000000	0.0004241466522216797
171	0x3f960b7480000000	0.021528072655200958
172	0x3ffe2a78e0000000	1.8853691816329956
173	0xbf26bcccc0000000	-0.00017347335233353078
174	0x3f96f24fa0000000	0.02240871824324131
175	0x3fff4e6d60000000	1.956647276878357
176	0xbf269947a0000000	-0.00017241477326024324
177	0x3f982d0f60000000	0.02360939048230648
178	0x4000388920000000	2.0276052951812744
179	0xbefcc7ae00000000	-2.7446745662018657e-05
180	0x3f99806560000000	0.024903854355216026
181	0x4000c4cbe0000000	2.0960919857025146
182	0xbf118c28e0000000	-6.693839532090351e-05
183	0x3f9af18840000000	0.026311997324228287
184	0x40015090e0000000	2.1643388271331787
185	0x3efcc28f60000000	2.742767355812248e-05
186	0x3f9c5fa8a0000000	0.027708658948540688
187	0x4001d80a00000000	2.230487823486328
188	0xbf05dc28e0000000	-4.169463863945566e-05
189	0x3f9ddcc060000000	0.029162412509322166
190	0x40026001a0000000	2.2968780994415283
191	0xbebcf5c280000000	-1.7261504581256304e-06
192	0x3f9ee18980000000	0.03015723079442978
193	0x4002e5a840000000	2.3621373176574707
194	0xbf2056b840000000	-0.0001246547617483884
195	0x3f9f5b6200000000	0.030622035264968872
196	0x4003720e80000000	2.430691719055176
197	0x3f285851e0000000	0.00018573760462459177
198	0x3f9f788660000000	0.030733203515410423
199	0x4003ea09c0000000	2.48927640914917
200	0x3f1eee1460000000	0.00011798858031397685
201	0x3f9f6ede40000000	0.030696365982294083
202	0x40045bef80000000	2.5448904037475586
203	0x3ef86147a0000000	2.3250579033629037e-05
204	0x3f9f4b06e0000000	0.030559642240405083
205	0x4004d1de00000000	2.6024742126464844
206	0xbf16900000000000	-8.606910705566406e-05
207	0x3f9f18eee0000000	0.03036854974925518
208	0x40054d89c0000000	2.66286039352417
209	0xbed28f5c20000000	-4.425048700795742e-06
210	0x3f9ed949c0000000	0.03012576326727867
211	0x4005c98080000000	2.7233896255493164
212	0xbf0b11eb80000000	-5.1631926908157766e-05
213	0x3f9e8a6920000000	0.029824869707226753
214	0x4006464800000000	2.7843170166015625
215	0xbf19d28f60000000	-9.850502101471648e-05
216	0x3f9e419b60000000	0.02954714559018612
217	0x4006c2d4e0000000	2.84513258934021
218	0xbf26fe1480000000	-0.00017541885608807206
219	0x3f9df4ed60000000	0.02925463579595089
220	0x400742a920000000	2.9075491428375244
221	0xbf11100000000000	-6.508827209472656e-05
222	0x3f9dc5c700000000	0.0290747731924057
223	0x4007c2aba0000000	2.9700539112091064
224	0x3efb6e1480000000	2.6159286790061742e-05
225	0x3f9d8c4ea0000000	0.028855541720986366
226	0x40083fefa0000000	3.0312187671661377
227	0xbefa147ae0000000	-2.4871826099115424e-05
228	0x3f9d35d000000000	0.028525590896606445
229	0x4008bdaf20000000	3.0926191806793213
230	0x3f158999a0000000	8.215904381358996e-05
231	0x3f9d3c2de0000000	0.028549877926707268
232	0x400939bca0000000	3.1531918048858643
233	0x3f2840a3c0000000	0.00018503188039176166
234	0x3f9d1bae80000000	0.0284259095788002
235	0x4009b0df60000000	3.2113635540008545
236	0x3efe35c280000000	2.88105002255179e-05
237	0x3f9d2a8440000000	0.028482500463724136
238	0x400a282b80000000	3.2696142196655273
239	0x3f2666b840000000	0.00017090796609409153
240	0x3f9d0e2600000000	0.028374284505844116
241	0x400a9935e0000000	3.3248097896575928
242	0xbef4c51ec0000000	-1.980781598831527e-05
243	0x3f9cb90640000000	0.028049562126398087
244	0x400b075420000000	3.3785784244537354
245	0xbed40a3d60000000	-4.77790808872669e-06
246	0x3f9c2df820000000	0.02751910872757435
247	0x400b70e200000000	3.4301185607910156
248	0x3efdb851e0000000	2.8343200028757565e-05
249	0x3f9b86f980000000	0.026882074773311615
250	0x400bd4b5c0000000	3.4788622856140137
251	0x3ee68f5c20000000	1.0757446034403984e-05
252	0x3f9aa134e0000000	0.02600557915866375
253	0x400c4bc580000000	3.5369977951049805
254	0x3f35d8ccc0000000	0.0003333568456582725
255	0x3f99ca9880000000	0.025186903774738312
