planning_aware_eval/obstacle/data_collection/obstacle/10_t2-6_0_r_sr/transform/player.npy (npy, 11104 bytes, 1 tensors)

array f8 [196, 7]
00000000: 0000 0000 0f84 51c0 0000 0060 e01f 4dc0
00000010: 0000 0080 99ad 5b3f 0000 0000 657c f53e
00000020: 0000 0080 7db6 1540 0000 00e0 ffff ffbe
00000030: 0000 0000 0000 0000 0000 0040 0e84 51c0
00000040: 0000 0060 e01f 4dc0 0000 0020 5cb7 5b3f
00000050: 0000 0000 657c f53e 0000 0080 7db6 1540
00000060: 0000 00e0 ffff ffbe 0000 0000 0000 0000
00000070: 0000 00a0 0d84 51c0 0000 0060 e01f 4dc0
00000080: 0000 00e0 7af8 5b3f 0000 0080 2011 193f
00000090: 0000 0020 9ab6 1540 0000 00a0 ffff ffbe
000000a0: 0000 0000 0000 0000 0000 0020 0d84 51c0
000000b0: 0000 0060 e01f 4dc0 0000 0060 6636 5c3f
000000c0: 0000 0080 2011 193f 0000 0020 9ab6 1540
000000d0: 0000 00a0 ffff ffbe 0000 0000 0000 0000
000000e0: 0000 0080 0c84 51c0 0000 0060 e01f 4dc0
000000f0: 0000 0000 d7ff 5b3f 0000 0080 2011 193f
00000100: 0000 0020 9ab6 1540 0000 00a0 ffff ffbe
00000110: 0000 0000 0000 0000 0000 00e0 0b84 51c0
00000120: 0000 0060 e01f 4dc0 0000 00c0 f514 5c3f
00000130: 0000 0080 2011 193f 0000 0020 9ab6 1540
00000140: 0000 00a0 ffff ffbe 0000 0000 0000 0000
00000150: 0000 0040 0b84 51c0 0000 0060 e01f 4dc0
00000160: 0000 0000 ae1f 5c3f 0000 0080 2011 193f
00000170: 0000 0020 9ab6 1540 0000 00a0 ffff ffbe
00000180: 0000 0000 0000 0000 0000 00c0 0a84 51c0
00000190: 0000 0060 e01f 4dc0 0000 0000 0008 5c3f
000001a0: 0000 0080 2011 193f 0000 0020 9ab6 1540
000001b0: 0000 00a0 ffff ffbe 0000 0000 0000 0000
000001c0: 0000 00c0 0a84 51c0 0000 0060 e01f 4dc0
000001d0: 0000 0000 0008 5c3f 0000 0080 2011 193f
000001e0: 0000 0020 9ab6 1540 0000 00a0 ffff ffbe
000001f0: 0000 0000 0000 0000 0000 0080 0a84 51c0
00000200: 0000 0060 e01f 4dc0 0000 0080 143e 5c3f
00000210: 0000 0080 2011 193f 0000 0020 9ab6 1540
00000220: 0000 00a0 ffff ffbe 0000 0000 0000 0000
00000230: 0000 00c0 0a84 51c0 0000 0060 e01f 4dc0
00000240: 0000 00a0 1e25 5c3f 0000 0080 2011 193f
00000250: 0000 0020 9ab6 1540 0000 00a0 ffff ffbe
00000260: 0000 0000 0000 0000 0000 00e0 0a84 51c0
00000270: 0000 0060 e01f 4dc0 0000 0020 5cc3 5b3f
00000280: 0000 0080 2011 193f 0000 0020 9ab6 1540
00000290: 0000 00a0 ffff ffbe 0000 0000 0000 0000
000002a0: 0000 00e0 f783 51c0 0000 0060 dc1f 4dc0
000002b0: 0000 00a0 1e01 5c3f 0000 0040 f520 523f
000002c0: 0000 0020 2eb7 1540 0000 00a0 ffff 1fbf
000002d0: 0000 0000 0000 0000 0000 00c0 e883 51c0
000002e0: 0000 0020 d91f 4dc0 0000 00c0 f538 5c3f
000002f0: 0000 0020 9b3d 523f 0000 0060 5eb7 1540
00000300: 0000 00a0 ffff 0fbf 0000 0000 0000 0000
00000310: 0000 0000 d983 51c0 0000 0060 d51f 4dc0
00000320: 0000 00c0 cc54 5c3f 0000 0060 c63b 513f
00000330: 0000 0040 ecb7 1540 0000 00a0 ffff 1fbf
00000340: 0000 0000 0000 0000 0000 0020 c983 51c0
00000350: 0000 0000 d21f 4dc0 0000 0040 e102 5c3f
00000360: 0000 0040 7edb 4a3f 0000 00e0 1eb8 1540
00000370: 0000 0000 0000 10bf 0000 0000 0000 0000
00000380: 0000 00c0 b683 51c0 0000 0000 ce1f 4dc0
00000390: 0000 0080 c2f1 5b3f 0000 0040 7edb 4a3f
000003a0: 0000 00c0 d0b8 1540 0000 0000 0000 18bf
000003b0: 0000 0000 0000 0000 0000 00e0 a283 51c0
000003c0: 0000 0040 ca1f 4dc0 0000 0040 b846 5c3f
000003d0: 0000 0020 bf51 4d3f 0000 0060 33b9 1540
000003e0: 0000 0020 0000 18bf 0000 0000 0000 0000
000003f0: 0000 0020 7d83 51c0 0000 00e0 c11f 4dc0
00000400: 0000 0040 5c33 5c3f 0000 00e0 2ec9 603f
00000410: 0000 0000 05b9 1540 0000 0000 0000 20bf
00000420: 0000 0000 0000 0000 0000 0040 2783 51c0
00000430: 0000 0000 b01f 4dc0 0000 00a0 14ee 5b3f
00000440: 0000 0000 89a5 743f 0000 0080 6fc1 1540
00000450: 0000 00e0 ffff 3bbf 0000 0000 0000 0000
00000460: 0000 0000 ba82 51c0 0000 00e0 981f 4dc0
00000470: 0000 0000 1fcd 5b3f 0000 0020 c81d 7c3f
00000480: 0000 0020 19c9 1540 0000 0000 0000 40bf
00000490: 0000 0000 0000 0000 0000 0080 1a82 51c0
000004a0: 0000 00a0 781f 4dc0 0000 0040 a46c 5b3f
000004b0: 0000 00e0 aec5 823f 0000 00e0 99d5 1540
000004c0: 0000 0000 0000 3cbf 0000 0000 0000 0000
000004d0: 0000 0000 5281 51c0 0000 0060 501f 4dc0
000004e0: 0000 0020 1f19 5b3f 0000 0000 8a1d 863f
000004f0: 0000 00a0 04de 1540 0000 0040 0000 32bf
00000500: 0000 0000 0000 0000 0000 0060 7a80 51c0
00000510: 0000 00c0 211f 4dc0 0000 0020 714d 5b3f
00000520: 0000 0000 b70b 883f 0000 0000 e4db 1540
00000530: 0000 0000 0000 3cbf 0000 0000 0000 0000
00000540: 0000 00e0 737f 51c0 0000 0000 ec1e 4dc0
00000550: 0000 0080 5220 5b3f 0000 00a0 56cb 893f
00000560: 0000 0060 89e9 1540 0000 00e0 ffff 40bf
00000570: 0000 0000 0000 0000 0000 0060 4f7e 51c0
00000580: 0000 0020 ad1e 4dc0 0000 00e0 0a0f 5b3f
00000590: 0000 00e0 935a 8a3f 0000 00c0 56f1 1540
000005a0: 0000 00e0 ffff 46bf 0000 0000 0000 0000
000005b0: 0000 0040 fc7c 51c0 0000 0020 651e 4dc0
000005c0: 0000 0040 7105 5b3f 0000 0000 80cb 8d3f
000005d0: 0000 0080 ad03 1640 0000 0040 0000 4cbf
000005e0: 0000 0000 0000 0000 0000 00e0 5e7b 51c0
000005f0: 0000 00a0 0a1e 4dc0 0000 00a0 7bb0 5a3f
00000600: 0000 0020 ba44 913f 0000 00e0 ad07 1640
00000610: 0000 0020 0000 4dbf 0000 0000 0000 0000
00000620: 0000 00e0 af79 51c0 0000 0080 ae1d 4dc0
00000630: 0000 00a0 7bc4 5a3f 0000 0060 7d71 913f
00000640: 0000 00e0 c918 1640 0000 0000 0000 4fbf
00000650: 0000 0000 0000 0000 0000 00c0 cf77 51c0
00000660: 0000 0060 471d 4dc0 0000 0020 67b6 5a3f
00000670: 0000 0040 f0fe 913f 0000 0000 2828 1640
00000680: 0000 0040 0000 4fbf 0000 0000 0000 0000
00000690: 0000 00e0 bf75 51c0 0000 0060 d41c 4dc0
000006a0: 0000 00c0 29a4 5a3f 0000 00c0 3985 923f
000006b0: 0000 0040 0d36 1640 0000 0000 0000 51bf
000006c0: 0000 0000 0000 0000 0000 00c0 6b73 51c0
000006d0: 0000 00e0 501c 4dc0 0000 00e0 ae67 5a3f
000006e0: 0000 00a0 b656 933f 0000 00c0 243c 1640
000006f0: 0000 0000 0000 51bf 0000 0000 0000 0000
00000700: 0000 00e0 ec70 51c0 0000 0040 c51b 4dc0
00000710: 0000 00a0 f65c 5a3f 0000 0020 7a3f 943f
00000720: 0000 0080 5149 1640 0000 0000 0080 51bf
00000730: 0000 0000 0000 0000 0000 0000 456e 51c0
00000740: 0000 0020 341b 4dc0 0000 0080 7169 5a3f
00000750: 0000 0000 e1d5 943f 0000 00c0 ef6e 1640
00000760: 0000 0000 0000 53bf 0000 0000 0000 0000
00000770: 0000 0080 546b 51c0 0000 0060 911a 4dc0
00000780: 0000 00a0 f644 5a3f 0000 00e0 9361 963f
00000790: 0000 0060 4090 1640 0000 0000 0080 55bf
000007a0: 0000 0000 0000 0000 0000 00a0 4768 51c0
000007b0: 0000 0000 e619 4dc0 0000 0040 905a 5a3f
000007c0: 0000 00c0 c246 973f 0000 00a0 baab 1640
000007d0: 0000 0000 0000 58bf 0000 0000 0000 0000
000007e0: 0000 0000 c064 51c0 0000 00e0 1d19 4dc0
000007f0: 0000 0080 15fe 593f 0000 0060 0ff8 983f
-70.06341552734375 -58.2490348815918 0.0016893385909497738 2.0490566384978592e-05 5.428213119506836 -3.0517576306010596e-05 0.0 -70.06336975097656
-58.2490348815918 0.0016916656168177724 2.0490566384978592e-05 5.428213119506836 -3.0517576306010596e-05 0.0 -70.0633316040039 -58.2490348815918
0.0017071914626285434 9.56226431299001e-05 5.4283223152160645 -3.051757266803179e-05 0.0 -70.06330108642578 -58.2490348815918 0.0017219543224200606
9.56226431299001e-05 5.4283223152160645 -3.051757266803179e-05 0.0 -70.06326293945312 -58.2490348815918 0.0017089461907744408 9.56226431299001e-05
5.4283223152160645 -3.051757266803179e-05 0.0 -70.06322479248047 -58.2490348815918 0.001713981619104743 9.56226431299001e-05 5.4283223152160645
-3.051757266803179e-05 0.0 -70.06318664550781 -58.2490348815918 0.0017165374010801315 9.56226431299001e-05 5.4283223152160645 -3.051757266803179e-05
0.0 -70.06315612792969 -58.2490348815918 0.0017108917236328125 9.56226431299001e-05 5.4283223152160645 -3.051757266803179e-05 0.0
-70.06315612792969 -58.2490348815918 0.0017108917236328125 9.56226431299001e-05 5.4283223152160645 -3.051757266803179e-05 0.0 -70.06314086914062
-58.2490348815918 0.0017237854190170765 9.56226431299001e-05 5.4283223152160645 -3.051757266803179e-05 0.0 -70.06315612792969 -58.2490348815918
0.0017178343841806054 9.56226431299001e-05 5.4283223152160645 -3.051757266803179e-05 0.0 -70.06316375732422 -58.2490348815918 0.0016945266397669911
9.56226431299001e-05 5.4283223152160645 -3.051757266803179e-05 0.0 -70.06200408935547 -58.2489128112793 0.0017092513153329492 0.0011064906138926744
5.428886890411377 -0.00012207029067212716 0.0 -70.06108093261719 -58.24881362915039 0.0017225646879523993 0.0011133208172395825 5.429070949554443
-6.103514533606358e-05 0.0 -70.06011962890625 -58.24869918823242 0.0017292022239416838 0.0010518491035327315 5.429612159729004 -0.00012207029067212716
0.0 -70.05915069580078 -58.24859619140625 0.0017096709925681353 0.0008196226553991437 5.429805278778076 -6.103515625e-05 0.0
-70.05802917480469 -58.24847412109375 0.0017055892385542393 0.0008196226553991437 5.430483818054199 -9.1552734375e-05 0.0 -70.05681610107422
-58.24835968017578 0.0017258452717214823 0.00089475471759215 5.4308600425720215 -9.155274165095761e-05 0.0 -70.05451202392578 -58.248104095458984
0.001721229637041688 0.0020490565802901983 5.430683135986328 -0.0001220703125 0.0 -70.04927062988281 -58.24755859375 0.0017047120491042733
0.0050406791269779205 5.438901901245117 -0.00042724606464616954 0.0 -70.0426025390625 -58.24685287475586 0.0016968538984656334 0.006864339578896761
5.446384906768799 -0.00048828125 0.0 -70.03286743164062 -58.24586868286133 0.0016738513950258493 0.00916611310094595 5.458594799041748
-0.00042724609375 0.0 -70.0206298828125 -58.2446403503418 0.001653938670642674 0.010798528790473938 5.4668145179748535 -0.0002746582613326609
0.0 -70.0074691772461 -58.24321746826172 0.0016664128052070737 0.011741094291210175 5.4647369384765625 -0.00042724609375 0.0
-69.99144744873047 -58.2415771484375 0.0016556554473936558 0.012594868429005146 5.478063106536865 -0.0005187987699173391 0.0 -69.97359466552734
-58.23965835571289 0.0016515356255695224 0.012868075631558895 5.485682487487793 -0.0007019042386673391 0.0 -69.95289611816406 -58.23746109008789
0.001649246783927083 0.014548301696777344 5.503591537475586 -0.0008544923039153218 0.0 -69.92766571044922 -58.23469924926758 0.0016289908671751618
0.016863735392689705 5.5074992179870605 -0.0008850098238326609 0.0 -69.90135955810547 -58.23188781738281 0.001633759238757193 0.017034491524100304
5.524207592010498 -0.000946044921875 0.0 -69.87205505371094 -58.22874069213867 0.0016304022865369916 0.017574075609445572 5.539215087890625
-0.0009460450382903218 0.0 -69.83983612060547 -58.2252311706543 0.0016260535921901464 0.01808634027838707 5.5527849197387695 -0.00103759765625
0.0 -69.80345153808594 -58.22121810913086 0.0016116340411826968 0.018885472789406776 5.558733940124512 -0.00103759765625 0.0
-69.76445770263672 -58.216957092285156 0.0016090782592073083 0.019773395732045174 5.571599960327148 -0.001068115234375 0.0 -69.72296142578125
-58.212528228759766 0.001612053718417883 0.02034713327884674 5.608336448669434 -0.00115966796875 0.0 -69.67703247070312 -58.20756149291992
0.0016033562133088708 0.021856604143977165 5.640870571136475 -0.001312255859375 0.0 -69.6293716430664 -58.20233154296875 0.001608506077900529
0.022730868309736252 5.667704105377197 -0.00146484375 0.0 -69.57421875 -58.196224212646484 0.001586457248777151 0.024383774027228355
