planning_aware_eval/interactive/data_collection/interactive/10_t1-5_0_p_c_r_1_0/transform/player.npy (npy, 17376 bytes, 1 tensors)

array f8 [308, 7]
-3.377934694290161 66.15840911865234 0.0016793060349300504 0.00028003775514662266 -178.88137817382812 -6.103514533606358e-05 0.0 -3.377934694290161
66.15840911865234 0.0016793060349300504 0.00028003775514662266 -178.88137817382812 -6.103514533606358e-05 0.0 -3.377934694290161 66.15840911865234
0.0016793060349300504 0.00028003775514662266 -178.88137817382812 -6.103514533606358e-05 0.0 -3.377934694290161 66.15840911865234 0.0016793060349300504
0.00028003775514662266 -178.88137817382812 -6.103514533606358e-05 0.0 -3.377934694290161 66.15840911865234 0.0016793060349300504 0.00028003775514662266
-178.88137817382812 -6.103514533606358e-05 0.0 -3.378328800201416 66.15840148925781 0.0015099715674296021 0.0004781132156495005 -178.88137817382812
-6.1035138060105965e-05 0.0 -3.379430055618286 66.15837860107422 0.00145721435546875 0.0012704151449725032 -178.88134765625 -6.103514533606358e-05
0.0 -3.3795647621154785 66.15837860107422 0.0014679336454719305 0.000300528306979686 -178.88134765625 -6.103515261202119e-05 0.0
-3.380539894104004 66.15835571289062 0.001488494803197682 0.0008810943691059947 -178.8813018798828 -6.103514533606358e-05 0.0 -3.38053822517395
66.15835571289062 0.0015280151274055243 -0.00012294339830987155 -178.8813018798828 -3.051757266803179e-05 0.0 -3.381334066390991 66.15833282470703
0.0015693664317950606 0.0005122641450725496 -178.88134765625 -6.103515261202119e-05 0.0 -3.381232500076294 66.1583251953125 0.0016060256166383624
-0.00033467926550656557 -178.88136291503906 -3.0517578125e-05 0.0 -3.381932258605957 66.15830993652344 0.0016384887276217341 0.00035516981733962893
-178.88140869140625 -6.103514533606358e-05 0.0 -3.3817737102508545 66.15831756591797 0.0016548538114875555 -0.0004234717052895576 -178.88140869140625
-6.103514533606358e-05 0.0 -3.3825199604034424 66.1583023071289 0.0016627120785415173 0.00040298112435266376 -178.88137817382812 -6.103514533606358e-05
0.0 -3.382462739944458 66.15829467773438 0.0016779708676040173 -0.0003073585103265941 -178.88137817382812 -6.1035138060105965e-05 0.0
-3.3833749294281006 66.15827178955078 0.0016758727142587304 0.000594226410612464 -178.88136291503906 -6.103515261202119e-05 0.0 -3.3835160732269287
66.15827178955078 0.0016853332053869963 -9.56226431299001e-05 -178.88137817382812 -6.1035138060105965e-05 0.0 -3.384676218032837 66.15824890136719
0.0016828154912218451 0.0008059622487053275 -178.88137817382812 -6.103514533606358e-05 0.0 -3.385179281234741 66.15824890136719 0.001694641076028347
0.00022539623023476452 -178.88137817382812 -6.103514533606358e-05 0.0 -3.3869237899780273 66.158203125 0.0016898727044463158 0.001325056655332446
-178.88140869140625 -6.103515625e-05 0.0 -3.3896632194519043 66.15816497802734 0.001685829134657979 0.0024930189829319715 -178.88177490234375
-6.103515625e-05 0.0 -3.3955142498016357 66.15796661376953 0.0016598510555922985 0.0051704528741538525 -178.887451171875 -0.00015258787607308477
0.0 -3.403252124786377 66.1578369140625 0.0016621017130091786 0.007021434139460325 -178.88485717773438 -6.1035138060105965e-05 0.0
-3.4130239486694336 66.15764617919922 0.0016473006689921021 0.008380641229450703 -178.88551330566406 -3.0517585400957614e-05 0.0 -3.425001859664917
66.15748596191406 0.0016443252097815275 0.009446151554584503 -178.8856201171875 0.00023736753792036325 0.0 -3.4386062622070312 66.15718841552734
0.0016381072346121073 0.009432490915060043 -178.8915557861328 2.0744017092511058e-05 0.0 -3.455348014831543 66.15687561035156 0.0016226577572524548
0.01040920801460743 -178.89462280273438 3.692111567943357e-05 0.0 -3.4748263359069824 66.15653991699219 0.0016224669525399804 0.012355811893939972
-178.88949584960938 -9.155271982308477e-05 0.0 -3.4961113929748535 66.15607452392578 0.001632003695704043 0.012881736271083355 -178.89674377441406
-0.00012207026884425431 0.0 -3.5200626850128174 66.15556335449219 0.0016266631428152323 0.013264226727187634 -178.90220642089844 -0.00012207030522404239
0.0 -3.546257495880127 66.15508270263672 0.0016263198340311646 0.013407660648226738 -178.89862060546875 -6.103515625e-05 0.0
-3.5745391845703125 66.15453338623047 0.0016323851887136698 0.013598905876278877 -178.8999481201172 -9.1552734375e-05 0.0 -3.6053102016448975
66.15404510498047 0.0016320800641551614 0.013885773718357086 -178.8804931640625 -0.00012207027612021193 0.0 -3.640812873840332 66.15336608886719
0.0016112899174913764 0.01536792516708374 -178.87982177734375 -9.155272709904239e-05 0.0 -3.6774821281433105 66.15267181396484 0.001617813017219305
0.015033245086669922 -178.8762969970703 -0.00012207030522404239 0.0 -3.721393346786499 66.15180969238281 0.0015782928094267845 0.016269510611891747
00000000: 0000 00a0 0206 0bc0 0000 0060 238a 5040
00000010: 0000 0020 8583 5b3f 0000 0000 415a 323f
00000020: 0000 0040 345c 66c0 0000 00a0 ffff 0fbf
00000030: 0000 0000 0000 0000 0000 00a0 0206 0bc0
00000040: 0000 0060 238a 5040 0000 0020 8583 5b3f
00000050: 0000 0000 415a 323f 0000 0040 345c 66c0
00000060: 0000 00a0 ffff 0fbf 0000 0000 0000 0000
00000070: 0000 00a0 0206 0bc0 0000 0060 238a 5040
00000080: 0000 0020 8583 5b3f 0000 0000 415a 323f
00000090: 0000 0040 345c 66c0 0000 00a0 ffff 0fbf
000000a0: 0000 0000 0000 0000 0000 00a0 0206 0bc0
000000b0: 0000 0060 238a 5040 0000 0020 8583 5b3f
000000c0: 0000 0000 415a 323f 0000 0040 345c 66c0
000000d0: 0000 00a0 ffff 0fbf 0000 0000 0000 0000
000000e0: 0000 00a0 0206 0bc0 0000 0060 238a 5040
000000f0: 0000 0020 8583 5b3f 0000 0000 415a 323f
00000100: 0000 0040 345c 66c0 0000 00a0 ffff 0fbf
00000110: 0000 0000 0000 0000 0000 0040 d106 0bc0
00000120: 0000 0040 238a 5040 0000 00a0 47bd 583f
00000130: 0000 00a0 6855 3f3f 0000 0040 345c 66c0
00000140: 0000 0060 ffff 0fbf 0000 0000 0000 0000
00000150: 0000 00a0 1209 0bc0 0000 00e0 228a 5040
00000160: 0000 0000 00e0 573f 0000 00e0 81d0 543f
00000170: 0000 0000 345c 66c0 0000 00a0 ffff 0fbf
00000180: 0000 0000 0000 0000 0000 0040 5909 0bc0
00000190: 0000 00e0 228a 5040 0000 00c0 f50c 583f
000001a0: 0000 0040 07b2 333f 0000 0000 345c 66c0
000001b0: 0000 00e0 ffff 0fbf 0000 0000 0000 0000
000001c0: 0000 0080 580b 0bc0 0000 0080 228a 5040
000001d0: 0000 0020 3363 583f 0000 00c0 27df 4c3f
000001e0: 0000 00a0 335c 66c0 0000 00a0 ffff 0fbf
000001f0: 0000 0000 0000 0000 0000 00a0 570b 0bc0
00000200: 0000 0080 228a 5040 0000 00c0 f508 593f
00000210: 0000 00c0 4b1d 20bf 0000 00a0 335c 66c0
00000220: 0000 00a0 ffff ffbe 0000 0000 0000 0000
00000230: 0000 00e0 f80c 0bc0 0000 0020 228a 5040
00000240: 0000 0060 66b6 593f 0000 00e0 2ec9 403f
00000250: 0000 0000 345c 66c0 0000 00e0 ffff 0fbf
00000260: 0000 0000 0000 0000 0000 00a0 c30c 0bc0
00000270: 0000 0000 228a 5040 0000 00e0 2850 5a3f
00000280: 0000 0080 fcee 35bf 0000 0020 345c 66c0
00000290: 0000 0000 0000 00bf 0000 0000 0000 0000
000002a0: 0000 0080 320e 0bc0 0000 00c0 218a 5040
000002b0: 0000 00e0 51d8 5a3f 0000 00c0 c246 373f
000002c0: 0000 0080 345c 66c0 0000 00a0 ffff 0fbf
000002d0: 0000 0000 0000 0000 0000 0060 df0d 0bc0
000002e0: 0000 00e0 218a 5040 0000 00c0 f51c 5b3f
000002f0: 0000 0020 adc0 3bbf 0000 0080 345c 66c0
00000300: 0000 00a0 ffff 0fbf 0000 0000 0000 0000
00000310: 0000 00a0 660f 0bc0 0000 00a0 218a 5040
00000320: 0000 0080 eb3d 5b3f 0000 00c0 e668 3a3f
00000330: 0000 0040 345c 66c0 0000 00a0 ffff 0fbf
00000340: 0000 0000 0000 0000 0000 00a0 480f 0bc0
00000350: 0000 0080 218a 5040 0000 0080 eb7d 5b3f
00000360: 0000 00c0 9e24 34bf 0000 0040 345c 66c0
00000370: 0000 0060 ffff 0fbf 0000 0000 0000 0000
00000380: 0000 00e0 2611 0bc0 0000 0020 218a 5040
00000390: 0000 00a0 1e75 5b3f 0000 0080 bb78 433f
000003a0: 0000 0020 345c 66c0 0000 00e0 ffff 0fbf
000003b0: 0000 0000 0000 0000 0000 00e0 7011 0bc0
000003c0: 0000 0020 218a 5040 0000 00c0 cc9c 5b3f
000003d0: 0000 0080 2011 19bf 0000 0040 345c 66c0
000003e0: 0000 0060 ffff 0fbf 0000 0000 0000 0000
000003f0: 0000 0020 d113 0bc0 0000 00c0 208a 5040
00000400: 0000 0060 3d92 5b3f 0000 00c0 e668 4a3f
00000410: 0000 0040 345c 66c0 0000 00a0 ffff 0fbf
00000420: 0000 0000 0000 0000 0000 00e0 d814 0bc0
00000430: 0000 00c0 208a 5040 0000 0000 d7c3 5b3f
00000440: 0000 00e0 0a8b 2d3f 0000 0040 345c 66c0
00000450: 0000 00a0 ffff 0fbf 0000 0000 0000 0000
00000460: 0000 0080 6b18 0bc0 0000 0000 208a 5040
00000470: 0000 0000 d7af 5b3f 0000 00c0 b0b5 553f
00000480: 0000 0080 345c 66c0 0000 0000 0000 10bf
00000490: 0000 0000 0000 0000 0000 00c0 071e 0bc0
000004a0: 0000 0060 1f8a 5040 0000 0040 e19e 5b3f
000004b0: 0000 0060 3d6c 643f 0000 0080 375c 66c0
000004c0: 0000 0000 0000 10bf 0000 0000 0000 0000
000004d0: 0000 0060 032a 0bc0 0000 0020 1c8a 5040
000004e0: 0000 0080 eb31 5b3f 0000 00e0 9c2d 753f
000004f0: 0000 0000 665c 66c0 0000 00e0 ffff 23bf
00000500: 0000 0000 0000 0000 0000 0040 dc39 0bc0
00000510: 0000 0000 1a8a 5040 0000 0020 5c3b 5b3f
00000520: 0000 00e0 81c2 7c3f 0000 00c0 505c 66c0
00000530: 0000 0060 ffff 0fbf 0000 0000 0000 0000
00000540: 0000 0080 df4d 0bc0 0000 00e0 168a 5040
00000550: 0000 00a0 47fd 5a3f 0000 00a0 de29 813f
00000560: 0000 0020 565c 66c0 0000 0040 0000 00bf
00000570: 0000 0000 0000 0000 0000 0060 6766 0bc0
00000580: 0000 0040 148a 5040 0000 00c0 ccf0 5a3f
00000590: 0000 0000 8158 833f 0000 0000 575c 66c0
000005a0: 0000 00a0 bb1c 2f3f 0000 0000 0000 0000
000005b0: 0000 0000 4482 0bc0 0000 0060 0f8a 5040
000005c0: 0000 0040 b8d6 5a3f 0000 0080 5751 833f
000005d0: 0000 00a0 875c 66c0 0000 0000 6ec0 f53e
000005e0: 0000 0000 0000 0000 0000 0080 8da4 0bc0
000005f0: 0000 0040 0a8a 5040 0000 0080 eb95 5a3f
00000600: 0000 0040 6c51 853f 0000 00c0 a05c 66c0
00000610: 0000 00e0 775b 033f 0000 0000 0000 0000
00000620: 0000 00c0 71cc 0bc0 0000 00c0 048a 5040
00000630: 0000 00a0 1e95 5a3f 0000 0000 014e 893f
00000640: 0000 00c0 765c 66c0 0000 00c0 ffff 17bf
00000650: 0000 0000 0000 0000 0000 0040 09f8 0bc0
00000660: 0000 0020 fd89 5040 0000 00a0 1ebd 5a3f
00000670: 0000 0060 bd61 8a3f 0000 0020 b25c 66c0
00000680: 0000 0040 ffff 1fbf 0000 0000 0000 0000
00000690: 0000 00a0 1629 0cc0 0000 00c0 f489 5040
000006a0: 0000 0040 b8a6 5a3f 0000 0060 462a 8b3f
000006b0: 0000 00e0 de5c 66c0 0000 00e0 ffff 1fbf
000006c0: 0000 0000 0000 0000 0000 0040 bc5e 0cc0
000006d0: 0000 00e0 ec89 5040 0000 00a0 47a5 5a3f
000006e0: 0000 00c0 7975 8b3f 0000 0080 c15c 66c0
000006f0: 0000 0000 0000 10bf 0000 0000 0000 0000
00000700: 0000 0000 a898 0cc0 0000 00e0 e389 5040
00000710: 0000 0040 b8be 5a3f 0000 0040 bed9 8b3f
00000720: 0000 0060 cc5c 66c0 0000 0000 0000 18bf
00000730: 0000 0000 0000 0000 0000 00e0 acd7 0cc0
00000740: 0000 00e0 db89 5040 0000 00a0 70bd 5a3f
00000750: 0000 0000 2570 8c3f 0000 0000 2d5c 66c0
00000760: 0000 0060 ffff 1fbf 0000 0000 0000 0000
00000770: 0000 0080 6220 0dc0 0000 00c0 d089 5040
00000780: 0000 0060 3d66 5a3f 0000 0000 3879 8f3f
00000790: 0000 0080 275c 66c0 0000 00e0 ffff 17bf
000007a0: 0000 0000 0000 0000 0000 00c0 7b6b 0dc0
000007b0: 0000 0060 c589 5040 0000 0080 9981 5a3f
000007c0: 0000 0000 c0c9 8e3f 0000 00a0 0a5c 66c0
000007d0: 0000 00e0 ffff 1fbf 0000 0000 0000 0000
000007e0: 0000 00e0 69c5 0dc0 0000 0040 b789 5040
000007f0: 0000 0000 d7db 593f 0000 0060 f4a8 903f
