planning_aware_eval/obstacle/data_collection/obstacle/10_s-2_2_f_sr/transform/player.npy (npy, 10096 bytes, 1 tensors)

array f8 [178, 7]
000000 00 00 00 c0 4a 11 43 40 00 00 00 40 e1 49 4e c0
       38.135093688964844 -60.577186584472656
000010 00 00 00 80 14 ae 5c 3f 00 00 00 40 07 b2 13 3f
       0.0017504882998764515 7.51320767449215e-05
000020 00 00 00 a0 88 36 eb 3f 00 00 00 e0 ff ff ff be
       0.8504069447517395 -3.0517576306010596e-05
000030 00 00 00 00 00 00 00 00 00 00 00 00 4c 11 43 40
       0.0 38.1351318359375
000040 00 00 00 e0 e1 49 4e c0 00 00 00 c0 a3 2c 5c 3f
       -60.577205657958984 0.001719627296552062
000050 00 00 00 40 07 b2 13 3f 00 00 00 e0 69 26 eb 3f
       7.51320767449215e-05 0.8484391570091248
000060 00 00 00 40 32 4a 12 3f 00 00 00 00 00 00 00 00
       6.977016164455563e-05 0.0
000070 00 00 00 60 4d 11 43 40 00 00 00 e0 e1 49 4e c0
       38.13517379760742 -60.577205657958984
000080 00 00 00 00 d7 0b 5c 3f 00 00 00 80 a9 e7 11 3f
       0.0017118072137236595 6.830188794992864e-05
000090 00 00 00 60 41 27 eb 3f 00 00 00 e0 ff ff 0f bf
       0.8485419154167175 -6.103515261202119e-05
0000a0 00 00 00 00 00 00 00 00 00 00 00 a0 4e 11 43 40
       0.0 38.13521194458008
0000b0 00 00 00 e0 e1 49 4e c0 00 00 00 80 eb b9 5b 3f
       -60.577205657958984 0.001692275982350111
0000c0 00 00 00 40 07 b2 13 3f 00 00 00 00 2c 24 eb 3f
       7.51320767449215e-05 0.8481655120849609
0000d0 00 00 00 e0 ff ff 17 bf 00 00 00 00 00 00 00 00
       -9.155272709904239e-05 0.0
0000e0 00 00 00 a0 4e 11 43 40 00 00 00 a0 e0 49 4e c0
       38.13521194458008 -60.57716751098633
0000f0 00 00 00 60 3d ba 5b 3f 00 00 00 40 07 b2 13 3f
       0.0016923522343859076 7.51320767449215e-05
000100 00 00 00 a0 ff ed ea 3f 00 00 00 20 00 00 18 bf
       0.8415525555610657 -9.155274165095761e-05
000110 00 00 00 00 00 00 00 00 00 00 00 a0 4e 11 43 40
       0.0 38.13521194458008
000120 00 00 00 a0 e0 49 4e c0 00 00 00 c0 f5 9c 5b 3f
       -60.57716751098633 0.0016853713896125555
000130 00 00 00 40 07 b2 13 3f 00 00 00 40 97 ec ea 3f
       7.51320767449215e-05 0.8413807153701782
000140 00 00 00 00 00 00 18 bf 00 00 00 00 00 00 00 00
       -9.1552734375e-05 0.0
000150 00 00 00 a0 4e 11 43 40 00 00 00 60 e0 49 4e c0
       38.13521194458008 -60.5771598815918
000160 00 00 00 a0 70 65 5b 3f 00 00 00 80 a9 e7 11 3f
       0.0016721343854442239 6.830188794992864e-05
000170 00 00 00 c0 04 eb ea 3f 00 00 00 00 00 00 18 bf
       0.8411887884140015 -9.1552734375e-05
000180 00 00 00 00 00 00 00 00 00 00 00 20 4f 11 43 40
       0.0 38.13522720336914
000190 00 00 00 60 e2 49 4e c0 00 00 00 20 85 a3 5b 3f
       -60.57722091674805 0.0016869354294613004
0001a0 00 00 00 00 65 7c 15 3f 00 00 00 60 9b 0f eb 3f
       8.196226553991437e-05 0.8456551432609558
0001b0 00 00 00 00 1a a3 eb 3e 00 00 00 00 00 00 00 00
       1.317840360570699e-05 0.0
0001c0 00 00 00 00 51 11 43 40 00 00 00 00 e3 49 4e c0
       38.135284423828125 -60.577239990234375
0001d0 00 00 00 a0 70 a5 5b 3f 00 00 00 a0 7a 02 21 3f
       0.0016873931745067239 0.00012977358710486442
0001e0 00 00 00 e0 7a 13 eb 3f 00 00 00 a0 65 23 d8 3e
       0.8461279273033142 5.7550118981453124e-06
0001f0 00 00 00 00 00 00 00 00 00 00 00 e0 57 11 43 40
       0.0 38.135494232177734
000200 00 00 00 c0 e4 49 4e c0 00 00 00 00 ae 8f 5c 3f
       -60.577293395996094 0.0017432402819395065
000210 00 00 00 c0 6f 3f 33 3f 00 00 00 40 de 55 eb 3f
       0.00029369810363277793 0.8542319536209106
000220 00 00 00 e0 ff ff ff be 00 00 00 00 00 00 00 00
       -3.0517576306010596e-05 0.0
000230 00 00 00 80 68 11 43 40 00 00 00 00 e4 49 4e c0
       38.13600158691406 -60.5772705078125
000240 00 00 00 20 33 3b 5c 3f 00 00 00 00 77 0d 47 3f
       0.0017230986850336194 0.0007035094313323498
000250 00 00 00 e0 f7 37 eb 3f 00 00 00 e0 ff ff ff be
       0.8505820631980896 -3.0517576306010596e-05
000260 00 00 00 00 00 00 00 00 00 00 00 80 d4 11 43 40
       0.0 38.13929748535156
000270 00 00 00 40 e0 49 4e c0 00 00 00 c0 47 a5 5b 3f
       -60.57715606689453 0.0016873551066964865
000280 00 00 00 e0 a5 00 70 3f 00 00 00 e0 fb 18 eb 3f
       0.003906867932528257 0.8467997908592224
000290 00 00 00 e0 ff ff 35 bf 00 00 00 00 00 00 00 00
       -0.00033569333027116954 0.0
0002a0 00 00 00 c0 9a 12 43 40 00 00 00 60 d9 49 4e c0
       38.145347595214844 -60.57694625854492
0002b0 00 00 00 c0 3d 2a 5b 3f 00 00 00 40 a2 fd 7d 3f
       0.0016580203082412481 0.007321962155401707
0002c0 00 00 00 a0 1b 0f eb 3f 00 00 00 e0 ff ff 40 bf
       0.8455942273139954 -0.0005187987699173391
0002d0 00 00 00 00 00 00 00 00 00 00 00 80 d2 13 43 40
       0.0 38.15486145019531
0002e0 00 00 00 c0 d0 49 4e c0 00 00 00 e0 66 96 5a 3f
       -60.576683044433594 0.001622772659175098
0002f0 00 00 00 c0 39 7e 86 3f 00 00 00 40 40 e5 ea 3f
       0.010982943698763847 0.8404847383499146
000300 00 00 00 e0 ff ff 40 bf 00 00 00 00 00 00 00 00
       -0.0005187987699173391 0.0
000310 00 00 00 a0 81 15 43 40 00 00 00 20 c5 49 4e c0
       38.16801834106445 -60.57632827758789
000320 00 00 00 00 3e 3e 5a 3f 00 00 00 20 ff 4f 8e 3f
       0.001601753756403923 0.014801018871366978
000330 00 00 00 60 da bb ea 3f 00 00 00 20 00 00 42 bf
       0.8354312777519226 -0.0005493164644576609
000340 00 00 00 00 00 00 00 00 00 00 00 e0 bc 17 43 40
       0.0 38.18545150756836
000350 00 00 00 00 bb 49 4e c0 00 00 00 00 d8 db 59 3f
       -60.576019287109375 0.0015782937407493591
000360 00 00 00 40 b9 c5 93 3f 00 00 00 e0 4b 30 eb 3f
       0.019308943301439285 0.8496455550193787
000370 00 00 00 20 00 00 42 bf 00 00 00 00 00 00 00 00
       -0.0005493164644576609 0.0
000380 00 00 00 c0 ea 1a 43 40 00 00 00 40 a9 49 4e c0
       38.210289001464844 -60.575477600097656
000390 00 00 00 c0 71 2d 5a 3f 00 00 00 e0 18 80 98 3f
       0.0015977488365024328 0.023926151916384697
0003a0 00 00 00 40 76 73 eb 3f 00 00 00 00 00 00 47 bf
       0.8578444719314575 -0.000701904296875
0003b0 00 00 00 00 00 00 00 00 00 00 00 40 ab 1e 43 40
       0.0 38.239601135253906
0003c0 00 00 00 e0 91 49 4e c0 00 00 00 80 0b 3f 59 3f
       -60.574764251708984 0.0015409099869430065
0003d0 00 00 00 a0 36 45 9d 3f 00 00 00 40 65 73 eb 3f
       0.02858434058725834 0.8578363656997681
0003e0 00 00 00 e0 ff ff 4c bf 00 00 00 00 00 00 00 00
       -0.0008850097074173391 0.0
0003f0 00 00 00 40 fc 22 43 40 00 00 00 c0 78 49 4e c0
       38.27332305908203 -60.573997497558594
000400 00 00 00 40 7c b4 58 3f 00 00 00 a0 6d 77 9f 3f
       0.0015078748110681772 0.03072902001440525
000410 00 00 00 80 8e 97 eb 3f 00 00 00 c0 ff ff 4a bf
       0.862250566482544 -0.0008239744929596782
000420 00 00 00 00 00 00 00 00 00 00 00 40 d7 27 43 40
       0.0 38.311256408691406
000430 00 00 00 c0 5d 49 4e c0 00 00 00 a0 e2 76 58 3f
       -60.57317352294922 0.0014931882033124566
000440 00 00 00 c0 1d b0 a0 3f 00 00 00 40 48 2b ec 3f
       0.032593660056591034 0.8802834749221802
000450 00 00 00 00 00 00 51 bf 00 00 00 00 00 00 00 00
       -0.00103759765625 0.0
000460 00 00 00 20 3f 2d 43 40 00 00 00 00 3f 49 4e c0
       38.35348892211914 -60.572235107421875
000470 00 00 00 40 20 59 58 3f 00 00 00 a0 c6 99 a1 3f
       0.0014860930386930704 0.034376341849565506
000480 00 00 00 00 7d ca ec 3f 00 00 00 c0 ff 7f 54 bf
       0.8997178077697754 -0.0012512204702943563
000490 00 00 00 00 00 00 00 00 00 00 00 40 68 33 43 40
       0.0 38.40161895751953
0004a0 00 00 00 20 17 49 4e c0 00 00 00 80 7c 24 58 3f
       -60.57101821899414 0.0014735427685081959
0004b0 00 00 00 c0 5b 59 a2 3f 00 00 00 e0 b0 ee ec 3f
       0.03583800047636032 0.9041370749473572
0004c0 00 00 00 00 00 80 56 bf 00 00 00 00 00 00 00 00
       -0.001373291015625 0.0
0004d0 00 00 00 e0 2c 3a 43 40 00 00 00 80 eb 48 4e c0
       38.45449447631836 -60.56968688964844
0004e0 00 00 00 40 ed 05 58 3f 00 00 00 e0 91 13 a3 3f
       0.0014662567991763353 0.037258680909872055
0004f0 00 00 00 80 86 0e ed 3f 00 00 00 e0 ff ff 55 bf
       0.9080231189727783 -0.0013427733210846782
000500 00 00 00 00 00 00 00 00 00 00 00 c0 71 41 43 40
       0.0 38.51128387451172
000510 00 00 00 20 c0 48 4e c0 00 00 00 a0 2a 08 58 3f
       -60.568363189697266 0.0014667907962575555
000520 00 00 00 c0 04 a1 a3 3f 00 00 00 40 e0 be ed 3f
       0.03833784908056259 0.929550290107727
000530 00 00 00 e0 ff ff 55 bf 00 00 00 00 00 00 00 00
       -0.0013427733210846782 0.0
000540 00 00 00 e0 68 49 43 40 00 00 00 20 8f 48 4e c0
       38.57351303100586 -60.56686782836914
000550 00 00 00 20 3f f6 57 3f 00 00 00 60 86 36 a4 3f
       0.001462518353946507 0.03947849199175835
000560 00 00 00 20 87 68 ee 3f 00 00 00 e0 ff 7f 57 bf
       0.9502597451210022 -0.0014343260554596782
000570 00 00 00 00 00 00 00 00 00 00 00 c0 77 52 43 40
       0.0 38.64427947998047
000580 00 00 00 a0 56 48 4e c0 00 00 00 80 9b 95 57 3f
       -60.56514358520508 0.0014394777826964855
000590 00 00 00 20 14 c3 a4 3f 00 00 00 20 dc 1f ef 3f
       0.0405508317053318 0.9726391434669495
0005a0 00 00 00 e0 ff 7f 58 bf 00 00 00 00 00 00 00 00
       -0.0014953612117096782 0.0
0005b0 00 00 00 e0 d1 5b 43 40 00 00 00 60 1b 48 4e c0
       38.717342376708984 -60.56333541870117
0005c0 00 00 00 c0 a5 a8 57 3f 00 00 00 80 cd 09 a5 3f
       0.001444017281755805 0.04109041392803192
0005d0 00 00 00 40 24 d7 ef 3f 00 00 00 00 00 00 5a bf
       0.9950124025344849 -0.0015869140625
0005e0 00 00 00 00 00 00 00 00 00 00 00 20 be 65 43 40
       0.0 38.794864654541016
0005f0 00 00 00 e0 d9 47 4e c0 00 00 00 40 68 be 57 3f
       -60.561336517333984 0.0014492052141577005
000600 00 00 00 60 c1 12 a5 3f 00 00 00 60 6f 26 f0 3f
       0.04115871712565422 1.0093835592269897
000610 00 00 00 e0 ff ff 59 bf 00 00 00 00 00 00 00 00
       -0.0015869139460846782 0.0
000620 00 00 00 80 54 70 43 40 00 00 00 a0 93 47 4e c0
       38.87757873535156 -60.5591926574707
000630 00 00 00 60 3f c2 57 3f 00 00 00 20 56 16 a5 3f
       0.0014501208206638694 0.04118603840470314
000640 00 00 00 00 33 6c f0 3f 00 00 00 e0 ff 7f 5a bf
       1.0264158248901367 -0.0016174315242096782
000650 00 00 00 00 00 00 00 00 00 00 00 e0 c4 7b 43 40
       0.0 38.96694564819336
000660 00 00 00 e0 46 47 4e c0 00 00 00 40 68 a6 57 3f
       -60.55685043334961 0.001443483168259263
000670 00 00 00 c0 00 f7 a4 3f 00 00 00 e0 e6 b8 f0 3f
       0.04094698280096054 1.0451420545578003
000680 00 00 00 e0 ff ff 59 bf 00 00 00 00 00 00 00 00
       -0.0015869139460846782 0.0
000690 00 00 00 c0 43 87 43 40 00 00 00 40 f9 46 4e c0
       39.05675506591797 -60.554481506347656
0006a0 00 00 00 80 72 e1 57 3f 00 00 00 80 1b f6 a4 3f
       0.001457559410482645 0.04094015061855316
0006b0 00 00 00 e0 4e 0f f1 3f 00 00 00 00 00 00 5b bf
       1.0662373304367065 -0.00164794921875
0006c0 00 00 00 00 00 00 00 00 00 00 00 40 52 93 43 40
       0.0 39.15094757080078
0006d0 00 00 00 20 a7 46 4e c0 00 00 00 20 0c 03 58 3f
       -60.55197525024414 0.001465570298023522
0006e0 00 00 00 80 95 fa a4 3f 00 00 00 00 db 72 f1 3f
       0.04097430408000946 1.090540885925293
0006f0 00 00 00 c0 ff ff 5b bf 00 00 00 00 00 00 00 00
       -0.0017089841421693563 0.0
000700 00 00 00 00 33 a0 43 40 00 00 00 80 4e 46 4e c0
       39.251556396484375 -60.54927062988281
000710 00 00 00 a0 49 f9 57 3f 00 00 00 00 93 e9 a4 3f
       0.0014632433885708451 0.04084452986717224
000720 00 00 00 80 f4 e1 f1 3f 00 00 00 20 00 80 5d bf
       1.1176648139953613 -0.0018005372257903218
000730 00 00 00 00 00 00 00 00 00 00 00 a0 ba ad 43 40
       0.0 39.35725784301758
000740 00 00 00 a0 ef 45 4e c0 00 00 00 20 0c ef 57 3f
       -60.5463752746582 0.0014608019264414907
000750 00 00 00 c0 49 c1 a4 3f 00 00 00 20 09 5a f2 3f
       0.04053717106580734 1.1469813585281372
000760 00 00 00 c0 ff ff 5e bf 00 00 00 00 00 00 00 00
       -0.0018920896109193563 0.0
000770 00 00 00 80 7f bb 43 40 00 00 00 e0 8d 45 4e c0
       39.46482849121094 -60.543392181396484
000780 00 00 00 20 0c 0f 58 3f 00 00 00 c0 44 9f a4 3f
       0.0014684313209727407 0.040277622640132904
000790 00 00 00 00 04 d9 f2 3f 00 00 00 00 00 80 60 bf
       1.1779823303222656 -0.00201416015625
0007a0 00 00 00 00 00 00 00 00 00 00 00 c0 36 ca 43 40
       0.0 39.579795837402344
0007b0 00 00 00 80 23 45 4e c0 00 00 00 c0 01 fc 57 3f
       -60.54014587402344 0.0014638917054980993
0007c0 00 00 00 c0 8d 69 a4 3f 00 00 00 e0 a1 64 f3 3f
       0.039867810904979706 1.2120684385299683
0007d0 00 00 00 c0 ff 7f 61 bf 00 00 00 00 00 00 00 00
       -0.0021362300030887127 0.0
0007e0 00 00 00 c0 7a d9 43 40 00 00 00 e0 b2 44 4e c0
       39.699058532714844 -60.53670883178711
0007f0 00 00 00 40 16 fa 57 3f 00 00 00 c0 fd 29 a4 3f
       0.0014634339604526758 0.03938286751508713
