planning_aware_eval/interactive/data_collection/interactive/10_t2-7_1_c_r_f_1_0/velocity/player.npy (npy, 4856 bytes, 1 tensors)

array f8 [197, 3]
0	0x3ea598eb00000000	6.43650764686754e-07
1	0x3e51e74740000000	1.667386939629978e-08
2	0x3f383e8f60000000	0.0003699398075696081
3	0x3ea323ae40000000	5.703979013560456e-07
4	0xbe63980e60000000	-3.6496611954817126e-08
5	0x3f229170a0000000	0.00014166354958433658
6	0x3ea17876e0000000	5.206633773013891e-07
7	0x3e721675c0000000	6.738206081990938e-08
8	0xbf253fd700000000	-0.0001621198607608676
9	0x3e9ce81980000000	4.307424887883826e-07
10	0x3e64c22840000000	3.86655827355753e-08
11	0x3eece8f5c0000000	1.3785362170892768e-05
12	0x3e981d91c0000000	3.5934903053203016e-07
13	0x3e676741c0000000	4.3592130793967954e-08
14	0xbf1db2e140000000	-0.00011329173867125064
15	0x3e95337e00000000	3.1592162486049347e-07
16	0x3e51ac9d60000000	1.6460452556543714e-08
17	0x3ec89999a0000000	2.932548568423954e-06
18	0x3e919f0f20000000	2.6257819740749255e-07
19	0xbe21406a40000000	-2.008353039428812e-09
20	0xbf282deb80000000	-0.00018447398906573653
21	0x3e8b344d20000000	2.026878433980528e-07
22	0xbe52b652c0000000	-1.7427094434196988e-08
23	0xbf1e5bd700000000	-0.00011580943828448653
24	0x3e887e9700000000	1.8249818367621629e-07
25	0x3e427cd140000000	8.608944668253571e-09
26	0xbf2b370a40000000	-0.00020763397333212197
27	0x3e832caf20000000	1.4286150928910502e-07
28	0xbe52a31be0000000	-1.735719301620975e-08
29	0xbf0f5f5c20000000	-5.983829396427609e-05
30	0x3e81f7f300000000	1.3387614217208466e-07
31	0x3e56e69940000000	2.1328009580656726e-08
32	0xbf02aa3d60000000	-3.560066033969633e-05
33	0x3e71bc5a00000000	6.607081104448298e-08
34	0x3e58d79d60000000	2.3136143667557008e-08
35	0xbef6c8f5c0000000	-2.1729469153797254e-05
36	0x3f91d736c0000000	0.017422538250684738
37	0x3f326dc760000000	0.00028120153001509607
38	0xbf192e6660000000	-9.605884406482801e-05
39	0x3f92255920000000	0.017720596864819527
40	0xbf1b9849c0000000	-0.00010526609548833221
41	0xbf241e8f60000000	-0.0001534986513433978
42	0x3f937c2360000000	0.019028237089514732
43	0xbf30156d40000000	-0.0002454177592881024
44	0xbf1ad38520000000	-0.00010233402281301096
45	0x3f9c8660e0000000	0.027856362983584404
46	0xbf459d8e00000000	-0.0006596511229872704
47	0xbf2c96b840000000	-0.0002181148447562009
48	0x3fad9390e0000000	0.05776646360754967
49	0x3f33602cc0000000	0.000295649457257241
50	0xbf170d70a0000000	-8.79383078427054e-05
51	0x3fbf6d6400000000	0.12276291847229004
52	0x3f68f3a380000000	0.0030458634719252586
53	0x3f22330a40000000	0.0001388502132613212
54	0x3fcd62f5c0000000	0.2295825183391571
55	0x3f67f36e40000000	0.002923693973571062
56	0x3f203f5c20000000	0.0001239585835719481
57	0x3fd8744d60000000	0.382098525762558
58	0x3f715115c0000000	0.004227719269692898
59	0x3ef2f70a40000000	1.8086433556163684e-05
60	0x3fe0f0f1a0000000	0.5294120907783508
61	0x3f7bad2520000000	0.006756920833140612
62	0xbf23e5eb80000000	-0.00015181064372882247
63	0x3fe4ba88c0000000	0.6477702856063843
64	0x3f7bd89700000000	0.006798353046178818
65	0xbf10f75c20000000	-6.472110544564202e-05
66	0x3fea5d1d20000000	0.8238664269447327
67	0x3f838e9c20000000	0.00954935047775507
68	0x3f10cb8520000000	6.406784086721018e-05
69	0x3fef907720000000	0.986384928226471
70	0x3f84d81f60000000	0.010177846066653728
71	0x3f2c3eb840000000	0.00021549224038608372
72	0x3ff2eb03c0000000	1.1823766231536865
73	0x3f8841ab20000000	0.011844002641737461
74	0xbf161f0a40000000	-8.438587246928364e-05
75	0x3ff6052240000000	1.376253366470337
76	0x3f8c297820000000	0.013750971294939518
77	0x3ebcf5c280000000	1.7261504581256304e-06
78	0x3ff94efee0000000	1.581786036491394
79	0x3f9098a3e0000000	0.016207275912165642
80	0xbed27ae140000000	-4.405975232657511e-06
81	0x3ffc478960000000	1.7674649953842163
82	0x3f91d99d60000000	0.017431696876883507
83	0xbf211eb840000000	-0.00013061522622592747
84	0x3fff648d40000000	1.9620487689971924
85	0x3f93a86d00000000	0.01919718086719513
86	0x3f0be47ae0000000	5.3200721595203504e-05
87	0x40015ee500000000	2.171335220336914
88	0x3f95c0a260000000	0.02124265395104885
89	0xbf51c0ccc0000000	-0.0010835647117346525
90	0x4003262c80000000	2.39363956451416
91	0x3f984274e0000000	0.02369101159274578
92	0x3f46cc0000000000	0.0006957054138183594
93	0x4004dbff60000000	2.6074206829071045
94	0x3f9b09a480000000	0.026403971016407013
95	0x3f37e43d60000000	0.0003645562974270433
96	0x40068757a0000000	2.81608510017395
97	0x3f9df86920000000	0.029267923906445503
98	0x3f343a1480000000	0.00030863762367516756
99	0x40080a1a60000000	3.0049331188201904
100	0x3fa06c63a0000000	0.032076943665742874
101	0xbf58bf7ae0000000	-0.0015104961348697543
102	0x40099a14a0000000	3.2002346515655518
103	0x3fa1e73e40000000	0.034967370331287384
104	0x3f4d5f3320000000	0.0008963584550656378
105	0x400b1a1d20000000	3.3877508640289307
106	0x3fa311b060000000	0.03724433109164238
107	0x3f4485f5c0000000	0.0006263208342716098
108	0x400ca46e40000000	3.5802884101867676
109	0x3fa3ec9a40000000	0.0389145091176033
110	0x3f1a6947a0000000	0.00010075091995531693
111	0x400e1e8920000000	3.7649099826812744
112	0x3fa479ca00000000	0.039991676807403564
113	0x3f228ae140000000	0.00014146804460324347
114	0x400f8f3360000000	3.9449222087860107
115	0x3fa4db27c0000000	0.04073452204465866
116	0x3f12451ec0000000	6.969452078919858e-05
117	0x40107494c0000000	4.113848686218262
118	0x3fa4ef3ba0000000	0.040887702256441116
119	0xbf5bcc47a0000000	-0.0016966533148661256
120	0x40112346e0000000	4.284450054168701
121	0x3fa4a4cc20000000	0.04031980410218239
122	0x3f4ab8ae00000000	0.0008154725655913353
123	0x4011cf3de0000000	4.4523844718933105
124	0x3fa3e90ac0000000	0.03888734430074692
125	0x3f413899a0000000	0.0005255460855551064
126	0x40127c8280000000	4.621591567993164
127	0x3fa2deff20000000	0.03685757890343666
128	0x3f2d34a3c0000000	0.00022282122517935932
129	0x40132a0a60000000	4.791055202484131
130	0x3fa16081a0000000	0.033939410001039505
131	0x3f14938520000000	7.849216490285471e-05
132	0x4013d42660000000	4.957177639007568
133	0x3f9ef70d60000000	0.030239304527640343
134	0x3f1c67ae00000000	0.00010835647117346525
135	0x40147807a0000000	5.11721658706665
136	0x3f9a4a02e0000000	0.025672955438494682
137	0x3f6f390a40000000	0.0038113784976303577
138	0x401520dca0000000	5.2820916175842285
139	0x3f95028e60000000	0.020517563447356224
140	0x3f5fc26b80000000	0.0019384431652724743
141	0x4015a2cce0000000	5.408984661102295
142	0x3f8d3ff140000000	0.014282116666436195
143	0x3f4db8eb80000000	0.0009070539381355047
144	0x4015e6ff00000000	5.475582122802734
145	0x3f8176cce0000000	0.00852737482637167
146	0x3f3335ae00000000	0.0002931165508925915
147	0x4016485600000000	5.570640563964844
148	0x3f6010da00000000	0.0019611604511737823
149	0xbf0f7d70a0000000	-6.006240801070817e-05
150	0x4016b96700000000	5.681056976318359
151	0xbf74a36f00000000	-0.005038674920797348
152	0xbf2b123d60000000	-0.00020653723913710564
153	0x40172eaa40000000	5.795571327209473
154	0xbf88e584c0000000	-0.012156521901488304
155	0xbf33e970a0000000	-0.00030383109697140753
156	0x4017ae24c0000000	5.920062065124512
157	0xbf938c3a60000000	-0.01908961497247219
158	0xbf352970a0000000	-0.00032290458329953253
159	0x4017cc7380000000	5.94965934753418
160	0xbf97bb9aa0000000	-0.023176589980721474
161	0xbf34bc28e0000000	-0.0003163909714203328
162	0x4018654aa0000000	6.098917484283447
163	0xbfa0246e00000000	-0.031527936458587646
164	0xbf329fd700000000	-0.0002841854002326727
165	0x40189c0080000000	6.152345657348633
166	0xbfa39f9640000000	-0.0383269265294075
167	0xbf303b5c20000000	-0.00024767874856479466
168	0x4018b3bde0000000	6.1755290031433105
169	0xbfa721c480000000	-0.04517950117588043
170	0xbf2c9b3320000000	-0.00021824835857842118
171	0x4018b41ce0000000	6.175891399383545
172	0xbfaaa09160000000	-0.05200628563761711
173	0xbf28bfae00000000	-0.0001888179685920477
174	0x40189ed160000000	6.15509557723999
175	0xbfae507b60000000	-0.05920777842402458
176	0xbf243ab840000000	-0.00015433787484653294
177	0x401879c040000000	6.118897438049316
178	0xbfb11b2ac0000000	-0.06682078540325165
179	0xbf221e1480000000	-0.0001382255577482283
180	0x40184e9c00000000	6.0767669677734375
181	0xbfb326fe80000000	-0.07481375336647034
182	0xbf1ba428e0000000	-0.00010544299584580585
183	0x4017fd9880000000	5.997652053833008
184	0xbfb52e00a0000000	-0.08273319154977798
185	0xbf133b8520000000	-7.336616545217112e-05
186	0x4017b1f540000000	5.9237871170043945
187	0xbfb739d000000000	-0.09072589874267578
188	0xbf0c428f60000000	-5.390167279983871e-05
189	0x4017583640000000	5.83614444732666
190	0xbfb9155f60000000	-0.09798236936330795
191	0xbf09951ea0000000	-4.879474363406189e-05
192	0x4016e8e000000000	5.7274169921875
193	0xbfbadebf60000000	-0.10496135801076889
194	0xbf0287ae00000000	-3.534316783770919e-05
195	0x40166a55a0000000	5.603842258453369
196	0xbfbca37280000000	-0.11186900734901428
197	0xbef6c7ae00000000	-2.1724699763581157e-05
198	0x4015dbe880000000	5.464754104614258
199	0xbfbe563f20000000	-0.11850351840257645
200	0xbedf9eb840000000	-7.53879521653289e-06
201	0x4015499400000000	5.3218536376953125
202	0xbfc002a780000000	-0.12508100271224976
203	0xbed3c7ae00000000	-4.715919203590602e-06
204	0x4014b591a0000000	5.177313327789307
205	0xbfc0cd0920000000	-0.13125719130039215
206	0x3eb70a3d60000000	1.3732909565078444e-06
207	0x401425f840000000	5.037079811096191
208	0xbfc17adba0000000	-0.1365618258714676
209	0xbedc800000000000	-6.794929504394531e-06
210	0x4013948560000000	4.895040035247803
211	0xbfc25b4be0000000	-0.14341114461421967
212	0xbf698e5480000000	-0.0031196260824799538
213	0x4012f1ace0000000	4.736011028289795
214	0xbfc3003e00000000	-0.14844489097595215
215	0xbf5d1a9ea0000000	-0.001776366145350039
216	0x40124cabe0000000	4.574874401092529
217	0xbfc3631d60000000	-0.15146224200725555
218	0xbf521ce140000000	-0.0011055183131247759
219	0x4011ad27e0000000	4.419097423553467
220	0xbfc3997100000000	-0.15312016010284424
221	0xbf3ca2e140000000	-0.0004369544913060963
222	0x40111108e0000000	4.266635417938232
223	0xbfc3b2e0e0000000	-0.15389643609523773
224	0xbf13475c20000000	-7.354259287239984e-05
225	0x401076bb20000000	4.11594820022583
226	0xbfc3b66de0000000	-0.1540047973394394
227	0x3f188947a0000000	9.359836258227006e-05
228	0x400fc93960000000	3.9732539653778076
229	0xbfc3a8c340000000	-0.1535877287387848
230	0x3f38ceb840000000	0.0003785323933698237
231	0x400eacd2e0000000	3.8343865871429443
232	0xbfc38e13c0000000	-0.15277335047721863
233	0x3f37ef1ea0000000	0.00036520478897728026
234	0x400d94bca0000000	3.6976253986358643
235	0xbfc3675440000000	-0.15159085392951965
236	0x3f318a1480000000	0.0002676296280696988
237	0x400c7c0760000000	3.560560941696167
238	0xbfc33390a0000000	-0.15001113712787628
239	0x3f21ac28e0000000	0.00013483046495821327
240	0x400b6a5e40000000	3.4269375801086426
241	0xbfc2f47e60000000	-0.14808635413646698
242	0x3f2bdfae00000000	0.00021265982650220394
243	0x400a582fa0000000	3.2930595874786377
244	0xbfc2a90f80000000	-0.14578431844711304
245	0x3f1ab947a0000000	0.00010194301285082474
246	0x4009505660000000	3.164227247238159
247	0xbfc2555640000000	-0.14322927594184875
248	0x3f2ef970a0000000	0.0002363157254876569
249	0x4008461a00000000	3.034229278564453
250	0xbfc1f59180000000	-0.14030665159225464
251	0x3f116d1ec0000000	6.647586997132748e-05
252	0x400744f3c0000000	2.908668041229248
253	0xbfc18f1200000000	-0.13717865943908691
254	0x3f275e6660000000	0.0001782894105417654
255	0x400640f9e0000000	2.781726598739624
