planning_aware_eval/obstacle/data_collection/obstacle/10_i-1_0_r_sr/transform/player.npy (npy, 10208 bytes, 1 tensors)

array f8 [180, 7]
-48.69820785522461 -4.154876232147217 0.0017134094377979636 4.781132156495005e-05 90.37545776367188 -3.0517576306010596e-05 0.0 -48.698211669921875
-4.154876232147217 0.001706199604086578 5.464151035994291e-05 90.37567138671875 -6.103515625e-05 0.0 -48.698211669921875 -4.154876232147217
0.0017218398861587048 5.464151035994291e-05 90.37567138671875 -6.103515625e-05 0.0 -48.698211669921875 -4.154876232147217 0.0017205047188326716
5.464151035994291e-05 90.37567138671875 -6.103515625e-05 0.0 -48.698211669921875 -4.154876232147217 0.0017261505126953125 5.464151035994291e-05
90.37567138671875 -6.103515625e-05 0.0 -48.69821548461914 -4.154876232147217 0.001709365751594305 5.464151035994291e-05 90.37577819824219
-9.1552734375e-05 0.0 -48.698211669921875 -4.154876232147217 0.001716995146125555 5.464151035994291e-05 90.37562561035156 -3.051757266803179e-05
0.0 -48.69821548461914 -4.154876232147217 0.0017146682366728783 5.464151035994291e-05 90.37577819824219 -6.103515625e-05 0.0
-48.69821548461914 -4.154876232147217 0.0017158507835119963 5.464151035994291e-05 90.37577819824219 -6.103515625e-05 0.0 -48.69822311401367
-4.154876232147217 0.0017107391031458974 5.464151035994291e-05 90.37593078613281 -0.00012207030522404239 0.0 -48.69822311401367 -4.154876232147217
0.001719741732813418 5.464151035994291e-05 90.37580108642578 -6.103514533606358e-05 0.0 -48.69822692871094 -4.154876232147217 0.0017127227038145065
5.464151035994291e-05 90.37596893310547 -0.00012207030522404239 0.0 -48.69822311401367 -4.154876232147217 0.0017113112844526768 5.464151035994291e-05
90.37577056884766 -6.103514533606358e-05 0.0 -48.6982307434082 -4.154876232147217 0.0017254637787118554 5.464151035994291e-05 90.37591552734375
-9.1552734375e-05 0.0 -48.6982307434082 -4.154876232147217 0.0017123413272202015 5.464151035994291e-05 90.37591552734375 -9.1552734375e-05
0.0 -48.6982307434082 -4.154876232147217 0.0017145538004115224 5.464151035994291e-05 90.37609100341797 -9.1552734375e-05 0.0
-48.69822692871094 -4.154876232147217 0.001732253935188055 5.464151035994291e-05 90.37609100341797 -9.1552734375e-05 0.0 -48.69823455810547
-4.154876232147217 0.0017238616710528731 5.464151035994291e-05 90.37631225585938 -0.00015258787607308477 0.0 -48.6982307434082 -4.154876232147217
0.0017243956681340933 6.147169915493578e-05 90.37615203857422 -9.155272709904239e-05 0.0 -48.69823455810547 -4.154876232147217 0.0017269515665248036
6.147169915493578e-05 90.37631225585938 -0.00012207030522404239 0.0 -48.69820785522461 -4.154881477355957 0.0017332076095044613 5.464151035994291e-05
90.36901092529297 0.00014560401905328035 0.0 -48.69809341430664 -4.154854774475098 0.0017376708565279841 8.879245433490723e-05 90.3812484741211
5.3688570915255696e-05 0.0 -48.69811248779297 -4.15476655960083 0.0017414093017578125 0.00015709434228483588 90.37218475341797 4.272053047316149e-06
0.0 -48.698020935058594 -4.154582500457764 0.0017365645617246628 0.00025954717420972884 90.38392639160156 -6.103514533606358e-05 0.0
-48.69805908203125 -4.1542534828186035 0.0017213057726621628 0.0003961509501095861 90.37286376953125 -9.1552734375e-05 0.0 -48.698036193847656
-4.152904033660889 0.0017176055116578937 0.0016665661241859198 90.37706756591797 -0.00018310551240574569 0.0 -48.698158264160156 -4.147260665893555
0.0016707610338926315 0.005730528384447098 90.38223266601562 -0.0005493161734193563 0.0 -48.6983642578125 -4.137043476104736 0.0016306686447933316
0.01038871705532074 90.38860321044922 -0.000732421875 0.0 -48.69865036010742 -4.12240743637085 0.0016352081438526511 0.015586490742862225
90.39422607421875 -0.0009155272273346782 0.0 -48.69904327392578 -4.101132392883301 0.0016046141972765326 0.02053837850689888 90.40812683105469
-0.001159667270258069 0.0 -48.69952392578125 -4.075103759765625 0.0015851592179387808 0.023734906688332558 90.43690490722656 -0.0015258786734193563
0.0 -48.70012664794922 -4.044902324676514 0.0015817641979083419 0.026548944413661957 90.46150970458984 -0.001678468193858862 0.0
-48.70094680786133 -4.007071018218994 0.0015557861188426614 0.029492754489183426 90.49348449707031 -0.0020446779672056437 0.0 -48.70178985595703
-3.965245246887207 0.0015515899285674095 0.032129209488630295 90.52733612060547 -0.0019836416468024254 0.0 -48.70305633544922 -3.9138762950897217
0.0015197371831163764 0.034881774336099625 90.53659057617188 -0.002105712890625 0.0 -48.70432662963867 -3.8598029613494873 0.0015222548972815275
0.0364936999976635 90.56107330322266 -0.0021972651593387127 0.0 -48.7056770324707 -3.801450490951538 0.0015257262857630849 0.03823539614677429
00000000: 0000 00e0 5e59 48c0 0000 00e0 979e 10c0
00000010: 0000 0060 8f12 5c3f 0000 0080 2011 093f
00000020: 0000 0080 0798 5640 0000 00e0 ffff ffbe
00000030: 0000 0000 0000 0000 0000 0000 5f59 48c0
00000040: 0000 00e0 979e 10c0 0000 00e0 51f4 5b3f
00000050: 0000 0000 dca5 0c3f 0000 0000 0b98 5640
00000060: 0000 0000 0000 10bf 0000 0000 0000 0000
00000070: 0000 0000 5f59 48c0 0000 00e0 979e 10c0
00000080: 0000 0080 eb35 5c3f 0000 0000 dca5 0c3f
00000090: 0000 0000 0b98 5640 0000 0000 0000 10bf
000000a0: 0000 0000 0000 0000 0000 0000 5f59 48c0
000000b0: 0000 00e0 979e 10c0 0000 00e0 5130 5c3f
000000c0: 0000 0000 dca5 0c3f 0000 0000 0b98 5640
000000d0: 0000 0000 0000 10bf 0000 0000 0000 0000
000000e0: 0000 0000 5f59 48c0 0000 00e0 979e 10c0
000000f0: 0000 0000 0048 5c3f 0000 0000 dca5 0c3f
00000100: 0000 0000 0b98 5640 0000 0000 0000 10bf
00000110: 0000 0000 0000 0000 0000 0020 5f59 48c0
00000120: 0000 00e0 979e 10c0 0000 0080 9901 5c3f
00000130: 0000 0000 dca5 0c3f 0000 00c0 0c98 5640
00000140: 0000 0000 0000 18bf 0000 0000 0000 0000
00000150: 0000 0000 5f59 48c0 0000 00e0 979e 10c0
00000160: 0000 0080 9921 5c3f 0000 0000 dca5 0c3f
00000170: 0000 0040 0a98 5640 0000 00a0 ffff ffbe
00000180: 0000 0000 0000 0000 0000 0020 5f59 48c0
00000190: 0000 00e0 979e 10c0 0000 0000 d717 5c3f
000001a0: 0000 0000 dca5 0c3f 0000 00c0 0c98 5640
000001b0: 0000 0000 0000 10bf 0000 0000 0000 0000
000001c0: 0000 0020 5f59 48c0 0000 00e0 979e 10c0
000001d0: 0000 00c0 cc1c 5c3f 0000 0000 dca5 0c3f
000001e0: 0000 00c0 0c98 5640 0000 0000 0000 10bf
000001f0: 0000 0000 0000 0000 0000 0060 5f59 48c0
00000200: 0000 00e0 979e 10c0 0000 0020 5c07 5c3f
00000210: 0000 0000 dca5 0c3f 0000 0040 0f98 5640
00000220: 0000 00e0 ffff 1fbf 0000 0000 0000 0000
00000230: 0000 0060 5f59 48c0 0000 00e0 979e 10c0
00000240: 0000 00a0 1e2d 5c3f 0000 0000 dca5 0c3f
00000250: 0000 0020 0d98 5640 0000 00a0 ffff 0fbf
00000260: 0000 0000 0000 0000 0000 0080 5f59 48c0
00000270: 0000 00e0 979e 10c0 0000 0000 ae0f 5c3f
00000280: 0000 0000 dca5 0c3f 0000 00e0 0f98 5640
00000290: 0000 00e0 ffff 1fbf 0000 0000 0000 0000
000002a0: 0000 0060 5f59 48c0 0000 00e0 979e 10c0
000002b0: 0000 0080 c209 5c3f 0000 0000 dca5 0c3f
000002c0: 0000 00a0 0c98 5640 0000 00a0 ffff 0fbf
000002d0: 0000 0000 0000 0000 0000 00a0 5f59 48c0
000002e0: 0000 00e0 979e 10c0 0000 00a0 1e45 5c3f
000002f0: 0000 0000 dca5 0c3f 0000 0000 0f98 5640
00000300: 0000 0000 0000 18bf 0000 0000 0000 0000
00000310: 0000 00a0 5f59 48c0 0000 00e0 979e 10c0
00000320: 0000 0080 140e 5c3f 0000 0000 dca5 0c3f
00000330: 0000 0000 0f98 5640 0000 0000 0000 18bf
00000340: 0000 0000 0000 0000 0000 00a0 5f59 48c0
00000350: 0000 00e0 979e 10c0 0000 0020 5c17 5c3f
00000360: 0000 0000 dca5 0c3f 0000 00e0 1198 5640
00000370: 0000 0000 0000 18bf 0000 0000 0000 0000
00000380: 0000 0080 5f59 48c0 0000 00e0 979e 10c0
00000390: 0000 0080 9961 5c3f 0000 0000 dca5 0c3f
000003a0: 0000 00e0 1198 5640 0000 0000 0000 18bf
000003b0: 0000 0000 0000 0000 0000 00c0 5f59 48c0
000003c0: 0000 00e0 979e 10c0 0000 0060 663e 5c3f
000003d0: 0000 0000 dca5 0c3f 0000 0080 1598 5640
000003e0: 0000 00e0 ffff 23bf 0000 0000 0000 0000
000003f0: 0000 00a0 5f59 48c0 0000 00e0 979e 10c0
00000400: 0000 00c0 a340 5c3f 0000 00c0 4b1d 103f
00000410: 0000 00e0 1298 5640 0000 00e0 ffff 17bf
00000420: 0000 0000 0000 0000 0000 00c0 5f59 48c0
00000430: 0000 00e0 979e 10c0 0000 0020 5c4b 5c3f
00000440: 0000 00c0 4b1d 103f 0000 0080 1598 5640
00000450: 0000 00e0 ffff 1fbf 0000 0000 0000 0000
00000460: 0000 00e0 5e59 48c0 0000 0040 999e 10c0
00000470: 0000 0080 9965 5c3f 0000 0000 dca5 0c3f
00000480: 0000 00e0 9d97 5640 0000 0000 a915 233f
00000490: 0000 0000 0000 0000 0000 0020 5b59 48c0
000004a0: 0000 0040 929e 10c0 0000 00e0 5178 5c3f
000004b0: 0000 00c0 c246 173f 0000 0060 6698 5640
000004c0: 0000 0040 f525 0c3f 0000 0000 0000 0000
000004d0: 0000 00c0 5b59 48c0 0000 0020 7b9e 10c0
000004e0: 0000 0000 0088 5c3f 0000 0020 3697 243f
000004f0: 0000 00e0 d197 5640 0000 0000 15eb d13e
00000500: 0000 0000 0000 0000 0000 00c0 5859 48c0
00000510: 0000 00e0 4a9e 10c0 0000 0000 ae73 5c3f
00000520: 0000 00a0 7a02 313f 0000 0040 9298 5640
00000530: 0000 00a0 ffff 0fbf 0000 0000 0000 0000
00000540: 0000 0000 5a59 48c0 0000 00a0 f49d 10c0
00000550: 0000 0000 ae33 5c3f 0000 0060 4ff6 393f
00000560: 0000 0000 dd97 5640 0000 0000 0000 18bf
00000570: 0000 0000 0000 0000 0000 0040 5959 48c0
00000580: 0000 00e0 929c 10c0 0000 00e0 2824 5c3f
00000590: 0000 00c0 154e 5b3f 0000 00e0 2198 5640
000005a0: 0000 0060 0000 28bf 0000 0000 0000 0000
000005b0: 0000 0040 5d59 48c0 0000 0080 cb96 10c0
000005c0: 0000 0000 ae5f 5b3f 0000 0000 e578 773f
000005d0: 0000 0080 7698 5640 0000 0080 ffff 41bf
000005e0: 0000 0000 0000 0000 0000 0000 6459 48c0
000005f0: 0000 0020 558c 10c0 0000 0020 85b7 5a3f
00000600: 0000 0000 ae46 853f 0000 00e0 de98 5640
00000610: 0000 0000 0000 48bf 0000 0000 0000 0000
00000620: 0000 0060 6d59 48c0 0000 0060 587d 10c0
00000630: 0000 0060 8fca 5a3f 0000 0060 cfeb 8f3f
00000640: 0000 0000 3b99 5640 0000 00c0 ffff 4dbf
00000650: 0000 0000 0000 0000 0000 0040 7a59 48c0
00000660: 0000 0040 8f67 10c0 0000 0060 3d4a 5a3f
00000670: 0000 0040 0308 953f 0000 00c0 1e9a 5640
00000680: 0000 0040 ffff 52bf 0000 0000 0000 0000
00000690: 0000 0000 8a59 48c0 0000 0000 e84c 10c0
000006a0: 0000 00c0 a3f8 593f 0000 00a0 f64d 983f
000006b0: 0000 0040 f69b 5640 0000 00c0 ffff 58bf
000006c0: 0000 0000 0000 0000 0000 00c0 9d59 48c0
000006d0: 0000 00e0 fa2d 10c0 0000 0060 66ea 593f
000006e0: 0000 0080 a52f 9b3f 0000 0060 899d 5640
000006f0: 0000 0080 0180 5bbf 0000 0000 0000 0000
00000700: 0000 00a0 b859 48c0 0000 00a0 3d07 10c0
00000710: 0000 00a0 707d 593f 0000 0040 5933 9e3f
00000720: 0000 0040 959f 5640 0000 0020 00c0 60bf
00000730: 0000 0000 0000 0000 0000 0040 d459 48c0
00000740: 0000 0080 d2b8 0fc0 0000 0000 d76b 593f
00000750: 0000 0060 3d73 a03f 0000 00e0 bfa1 5640
00000760: 0000 0080 ff3f 60bf 0000 0000 0000 0000
00000770: 0000 00c0 fd59 48c0 0000 0060 9e4f 0fc0
00000780: 0000 0060 3de6 583f 0000 0020 06dc a13f
00000790: 0000 0080 57a2 5640 0000 0000 0040 61bf
000007a0: 0000 0000 0000 0000 0000 0060 275a 48c0
000007b0: 0000 0060 e0e0 0ec0 0000 00c0 ccf0 583f
000007c0: 0000 0060 4daf a23f 0000 00a0 e8a3 5640
000007d0: 0000 00c0 ffff 61bf 0000 0000 0000 0000
000007e0: 0000 00a0 535a 48c0 0000 00e0 5e69 0ec0
000007f0: 0000 0020 5cff 583f 0000 0000 9793 a33f
