planning_aware_eval/obstacle/data_collection/obstacle/10_s-7_2_f_sr/velocity/player.npy (npy, 5072 bytes, 1 tensors)

array f8 [206, 3]
000000 00 00 00 00 00 00 00 00 00 00 00 00 00 00 00 00
       0.0 0.0
000010 00 00 00 00 00 00 00 00 00 00 00 00 00 00 00 00
       0.0 0.0
000020 00 00 00 00 00 00 00 00 00 00 00 00 00 00 00 00
       0.0 0.0
000030 00 00 00 00 00 00 00 00 00 00 00 00 00 00 00 00
       0.0 0.0
000040 00 00 00 00 00 00 00 00 00 00 00 00 00 00 00 00
       0.0 0.0
000050 00 00 00 00 00 00 00 00 00 00 00 00 00 00 00 00
       0.0 0.0
000060 00 00 00 a0 f1 d1 45 bf 00 00 00 e0 34 fa af 3f
       -0.000665896397549659 0.06245579943060875
000070 00 00 00 a0 f0 3a 68 bf 00 00 00 c0 49 b7 44 bf
       -0.002957792254164815 -0.0006322012050077319
000080 00 00 00 c0 df 76 ae 3f 00 00 00 00 ae 51 4b bf
       0.05950068682432175 -0.0008337115868926048
000090 00 00 00 80 f8 78 43 bf 00 00 00 60 af cc ac 3f
       -0.0005942548159509897 0.05624912306666374
0000a0 00 00 00 60 3d 3e 3f 3f 00 00 00 c0 bb 70 44 bf
       0.0004767322388943285 -0.0006237904308363795
0000b0 00 00 00 c0 23 01 ae 3f 00 00 00 00 ae 13 39 bf
       0.05860244482755661 -0.0003826427273452282
0000c0 00 00 00 e0 eb c2 42 bf 00 00 00 00 db a2 ab 3f
       -0.0005725528462789953 0.053976863622665405
0000d0 00 00 00 20 33 ba 56 3f 00 00 00 00 69 c0 42 bf
       0.0013871669070795178 -0.0005722534842789173
0000e0 00 00 00 a0 d2 83 ab 3f 00 00 00 60 3d 2a 4d 3f
       0.05374010279774666 0.0008900451357476413
0000f0 00 00 00 40 ce ab 42 bf 00 00 00 c0 a7 52 ab 3f
       -0.0005697972374036908 0.053364984691143036
000100 00 00 00 e0 28 9e 46 3f 00 00 00 00 05 43 42 bf
       0.0006902408204041421 -0.0005573057569563389
000110 00 00 00 e0 de b2 aa 3f 00 00 00 40 b8 24 4d 3f
       0.05214592441916466 0.0008893870981410146
000120 00 00 00 80 c6 66 42 bf 00 00 00 60 4a f5 aa 3f
       -0.0005615681875497103 0.052652668207883835
000130 00 00 00 00 d7 7f 3f 3f 00 00 00 60 31 ac 42 bf
       0.0004806423094123602 -0.0005698433960787952
000140 00 00 00 c0 99 54 ab 3f 00 00 00 80 c2 55 2d 3f
       0.05337982624769211 0.00022380828158929944
000150 00 00 00 40 ef 60 42 bf 00 00 00 20 71 dc aa 3f
       -0.0005608719075098634 0.05246308818459511
000160 00 00 00 20 33 17 48 3f 00 00 00 20 9c 9c 35 3f
       0.0007351874955929816 0.0003297692455817014
000170 00 00 00 a0 d2 5e 9f bf 00 00 00 80 14 ae 2c 3f
       -0.030635157600045204 0.00021881103748455644
000180 00 00 00 00 12 fd 34 3f 00 00 00 40 ba a1 9e bf
       0.0003202599473297596 -0.02991381660103798
000190 00 00 00 40 e1 7a 04 3f 00 00 00 20 a0 ab 35 3f
       3.9062499126885086e-05 0.00033066424657590687
0001a0 00 00 00 40 40 84 9f bf 00 00 00 e0 51 40 3e bf
       -0.030777934938669205 -0.00046159743214957416
0001b0 00 00 00 a0 12 76 2d 3f 00 00 00 c0 48 89 95 bf
       0.00022477128368336707 -0.021031510084867477
0001c0 00 00 00 80 94 4a 56 3f 00 00 00 c0 fd 0b 2b 3f
       0.001360554713755846 0.00020635101827792823
0001d0 00 00 00 80 a2 5b 93 bf 00 00 00 60 3d 9a 2f 3f
       -0.018904246389865875 0.0002411079331068322
0001e0 00 00 00 80 87 eb 22 3f 00 00 00 e0 d8 74 8b bf
       0.00014434842159971595 -0.013406462036073208
0001f0 00 00 00 20 33 33 13 3f 00 00 00 00 30 ed df be
       7.324218313442543e-05 -7.611874025315046e-06
000200 00 00 00 e0 f8 5e 46 3f 00 00 00 e0 28 02 49 bf
       0.0006827082834206522 -0.0007631969056092203
000210 00 00 00 40 c2 49 46 bf 00 00 00 40 75 2a ad 3f
       -0.0006801794515922666 0.05696455389261246
000220 00 00 00 e0 28 db 4c 3f 00 00 00 a0 3a cf 5a bf
       0.0008806180558167398 -0.0016363213071599603
000230 00 00 00 a0 6b c1 c1 3f 00 00 00 c0 a3 30 1e bf
       0.1387152224779129 -0.00011516570521052927
000240 00 00 00 00 d2 25 62 bf 00 00 00 c0 9d 69 c7 3f
       -0.002215299755334854 0.18291065096855164
000250 00 00 00 60 8f 72 2f bf 00 00 00 a0 2b ba 6a bf
       -0.0002399253862677142 -0.0032626010943204165
000260 00 00 00 80 60 df ca 3f 00 00 00 a0 70 5d 42 3f
       0.20994192361831665 0.0005604553152807057
000270 00 00 00 a0 ba ad 71 bf 00 00 00 20 5a 6a d1 3f
       -0.004316071514040232 0.27211621403694153
000280 00 00 00 a0 99 4a 41 3f 00 00 00 80 6d 56 6f bf
       0.0005276918527670205 -0.0038253916427493095
000290 00 00 00 80 1c ce d3 3f 00 00 00 40 b8 06 2d bf
       0.3094550371170044 -0.00022145270486362278
0002a0 00 00 00 40 c4 20 64 bf 00 00 00 40 2d ae d4 3f
       -0.0024570305831730366 0.32313090562820435
0002b0 00 00 00 40 0a c7 19 3f 00 00 00 60 b6 1d 62 bf
       9.833335934672505e-05 -0.0022114336024969816
0002c0 00 00 00 60 25 af d6 3f 00 00 00 40 0a 93 49 bf
       0.3544400632381439 -0.0007804679917171597
0002d0 00 00 00 e0 24 8a 6b bf 00 00 00 80 14 33 d9 3f
       -0.003361770650371909 0.3937426805496216
0002e0 00 00 00 00 d7 63 1d bf 00 00 00 00 a0 dc 72 bf
       -0.00011211395030841231 -0.004604935646057129
0002f0 00 00 00 40 b6 69 dd 3f 00 00 00 c0 1e e1 34 bf
       0.45957714319229126 -0.00031859398586675525
000300 00 00 00 80 5c c4 77 bf 00 00 00 00 9d 57 e0 3f
       -0.005802499130368233 0.5106949806213379
000310 00 00 00 c0 f5 e8 05 3f 00 00 00 20 90 0b 7b bf
       4.179000825388357e-05 -0.006602824199944735
000320 00 00 00 00 af 88 e1 3f 00 00 00 60 8f 06 30 3f
       0.5479350090026855 0.0002445316349621862
000330 00 00 00 40 9a ef 79 bf 00 00 00 c0 a2 8f e2 3f
       -0.0063320184126496315 0.5800336599349976
000340 00 00 00 20 85 2b 0f 3f 00 00 00 00 fa 35 80 bf
       5.945205703028478e-05 -0.007915452122688293
000350 00 00 00 c0 27 2f e5 3f 00 00 00 60 3d a2 2a 3f
       0.6620062589645386 0.00020319937902968377
000360 00 00 00 60 e2 19 7e bf 00 00 00 80 2e 80 e7 3f
       -0.0073489039205014706 0.7343971729278564
000370 00 00 00 e0 28 74 33 3f 00 00 00 40 64 c9 7f bf
       0.00029684064793400466 -0.007760421372950077
000380 00 00 00 40 29 36 e9 3f 00 00 00 00 00 b8 40 bf
       0.7878614664077759 -0.0005102157592773438
000390 00 00 00 20 61 62 82 bf 00 00 00 e0 61 15 ec 3f
       -0.008976706303656101 0.8776101469993591
0003a0 00 00 00 e0 7a 14 13 3f 00 00 00 20 85 03 85 bf
       7.27844235370867e-05 -0.010260620154440403
0003b0 00 00 00 20 90 75 ed 3f 00 00 00 00 00 a8 32 3f
       0.920600950717926 0.0002846717834472656
0003c0 00 00 00 a0 e3 9f 85 bf 00 00 00 c0 c0 67 ef 3f
       -0.010558870621025562 0.9814151525497437
0003d0 00 00 00 a0 47 41 18 bf 00 00 00 60 61 62 88 bf
       -9.252547897631302e-05 -0.01190639566630125
0003e0 00 00 00 40 87 12 f1 3f 00 00 00 e0 28 2c 36 3f
       1.067023515701294 0.00033832548069767654
0003f0 00 00 00 a0 3c cf 89 bf 00 00 00 60 7a 51 f2 3f
       -0.012602304108440876 1.1448920965194702
000400 00 00 00 e0 28 5c ec 3e 00 00 00 c0 ab 9b 8b bf
       1.3523101188184228e-05 -0.01348051242530346
000410 00 00 00 60 67 9a f3 3f 00 00 00 20 85 6f 4b bf
       1.2251962423324585 -0.0008372688316740096
000420 00 00 00 00 eb 71 8d bf 00 00 00 80 97 ec f4 3f
       -0.01437743753194809 1.3077616691589355
000430 00 00 00 a0 70 e1 42 3f 00 00 00 20 bc 9e 8e bf
       0.0005761909415014088 -0.014951200224459171
000440 00 00 00 00 4e c4 f5 3f 00 00 00 e0 51 18 0c 3f
       1.3604259490966797 5.358695852919482e-05
000450 00 00 00 c0 6e 40 90 bf 00 00 00 60 b9 1d f7 3f
       -0.01587079092860222 1.4447568655014038
000460 00 00 00 00 ae a7 3b bf 00 00 00 40 5a 4c 91 bf
       -0.000421981792896986 -0.016892824321985245
000470 00 00 00 e0 5e 99 f8 3f 00 00 00 c0 a3 f0 03 bf
       1.537443995475769 -3.803252911893651e-05
000480 00 00 00 a0 23 5a 92 bf 00 00 00 20 bf 1b fa 3f
       -0.01792197860777378 1.6317740678787231
000490 00 00 00 e0 28 7c 04 3f 00 00 00 60 b1 67 93 bf
       3.9072034269338474e-05 -0.018950244411826134
0004a0 00 00 00 40 39 99 fb 3f 00 00 00 60 8f 60 42 bf
       1.7249081134796143 -0.0005608272622339427
0004b0 00 00 00 80 78 9a 94 bf 00 00 00 00 68 4d fd 3f
       -0.02012050896883011 1.8313980102539062
0004c0 00 00 00 00 ae e7 44 3f 00 00 00 00 7a b6 95 bf
       0.000637969933450222 -0.0212039053440094
0004d0 00 00 00 40 8a e2 fe 3f 00 00 00 60 3d da 14 bf
       1.9303076267242432 -7.954597094794735e-05
0004e0 00 00 00 20 a4 e9 96 bf 00 00 00 a0 c1 4b 00 40
       -0.022375645115971565 2.0369904041290283
0004f0 00 00 00 00 d7 6d 44 3f 00 00 00 c0 dd ad 98 bf
       0.0006234454922378063 -0.02410074695944786
000500 00 00 00 c0 59 8d 01 40 00 00 00 80 eb 99 3c 3f
       2.194018840789795 0.00043642043601721525
000510 00 00 00 00 57 cf 99 bf 00 00 00 00 d2 5b 02 40
       -0.02520500123500824 2.2948341369628906
000520 00 00 00 a0 99 99 f4 be 00 00 00 80 a7 ee 9a bf
       -1.964569128176663e-05 -0.02630101889371872
000530 00 00 00 a0 35 28 03 40 00 00 00 e0 7a 34 26 bf
       2.3946335315704346 -0.00016941070498432964
000540 00 00 00 a0 fb c3 9b bf 00 00 00 60 40 c0 03 40
       -0.027114802971482277 2.4688727855682373
000550 00 00 00 e0 a3 38 20 bf 00 00 00 00 9b cf 9c bf
       -0.00012375832011457533 -0.02813570201396942
000560 00 00 00 40 e8 7e 04 40 00 00 00 40 b8 5e 0c 3f
       2.5619664192199707 5.411147867562249e-05
000570 00 00 00 80 3d 28 9e bf 00 00 00 20 05 74 05 40
       -0.02945037931203842 2.681650400161743
000580 00 00 00 e0 7a e4 19 bf 00 00 00 20 b7 58 9f bf
       -9.877204865915701e-05 -0.030611859634518623
000590 00 00 00 a0 64 4c 06 40 00 00 00 20 5c 8f 02 3f
       2.7873013019561768 3.5400389606365934e-05
0005a0 00 00 00 20 50 48 a0 bf 00 00 00 60 86 2a 07 40
       -0.031801704317331314 2.895764112472534
0005b0 00 00 00 80 eb b1 31 bf 00 00 00 e0 e2 eb a0 bf
       -0.0002700042678043246 -0.03304966911673546
0005c0 00 00 00 00 fb 12 08 40 00 00 00 e0 51 f8 3c bf
       3.009267807006836 -0.00044204710866324604
0005d0 00 00 00 40 94 cb a1 bf 00 00 00 a0 67 51 09 40
       -0.034756310284137726 3.164748430252075
0005e0 00 00 00 a0 47 61 fa be 00 00 00 80 f0 10 c0 bf
       -2.5157927666441537e-05 -0.12551695108413696
0005f0 00 00 00 80 18 3e 0a 40 00 00 00 60 66 14 49 3f
       3.280320167541504 0.0007653713109903038
000600 00 00 00 20 2c d0 cc bf 00 00 00 00 67 35 0b 40
       -0.22510291635990143 3.4010753631591797
000610 00 00 00 40 e1 aa 34 3f 00 00 00 60 13 6e d1 bf
       0.00031536101596429944 -0.2723434865474701
000620 00 00 00 c0 85 36 0c 40 00 00 00 00 ae 1b 38 3f
       3.5266222953796387 0.0003678607754409313
000630 00 00 00 20 5d 8d d3 bf 00 00 00 c0 d9 36 0d 40
       -0.30550315976142883 3.651782512664795
000640 00 00 00 80 14 28 41 3f 00 00 00 40 d9 8d d5 bf
       0.0005235767457634211 -0.3367827534675598
000650 00 00 00 40 ae 3f 0e 40 00 00 00 00 00 e0 22 3f
       3.7810940742492676 0.00014400482177734375
000660 00 00 00 a0 e0 5b d7 bf 00 00 00 e0 04 2e 0f 40
       -0.3649827539920807 3.897470235824585
000670 00 00 00 80 14 ce 49 3f 00 00 00 e0 c8 05 e0 bf
       0.0007875061128288507 -0.500706136226654
000680 00 00 00 60 28 03 10 40 00 00 00 00 00 00 fb 3e
       4.0030837059021 2.574920654296875e-05
000690 00 00 00 e0 e8 21 e4 bf 00 00 00 c0 0d 69 10 40
       -0.6291393637657166 4.102591514587402
0006a0 00 00 00 c0 cc 98 4a 3f 00 00 00 e0 ec e5 e6 bf
       0.000811672187410295 -0.7155670523643494
0006b0 00 00 00 40 5a da 10 40 00 00 00 c0 cc 06 4a 3f
       4.213234901428223 0.000794267631135881
0006c0 00 00 00 80 af e3 e9 bf 00 00 00 40 c2 70 11 40
       -0.8090436458587646 4.360116004943848
0006d0 00 00 00 e0 51 a8 39 3f 00 00 00 20 a7 21 ec bf
       0.0003915023698937148 -0.8791080117225647
0006e0 00 00 00 e0 0a e6 11 40 00 00 00 40 b8 9e 3e 3f
       4.474650859832764 0.00046722410479560494
0006f0 00 00 00 80 7b a7 f0 bf 00 00 00 80 de 33 12 40
       -1.0408892631530762 4.550653457641602
000700 00 00 00 40 b8 46 2a 3f 00 00 00 40 aa b6 f3 bf
       0.00020047186990268528 -1.2320959568023682
000710 00 00 00 e0 86 59 12 40 00 00 00 00 ae 53 38 bf
       4.587428569793701 -0.0003711986355483532
000720 00 00 00 e0 ba e4 f5 bf 00 00 00 40 f8 53 12 40
       -1.3683422803878784 4.582001686096191
000730 00 00 00 e0 a3 b7 52 3f 00 00 00 40 66 3c f7 bf
       0.001142416032962501 -1.4522459506988525
000740 00 00 00 20 f1 31 12 40 00 00 00 e0 7a 7e 48 3f
       4.548771381378174 0.0007474994636140764
000750 00 00 00 c0 a0 6b f8 bf 00 00 00 80 64 fb 11 40
       -1.5262763500213623 4.495500564575195
000760 00 00 00 00 d7 93 25 3f 00 00 00 20 84 7a f9 bf
       0.000164623255841434 -1.5924111604690552
000770 00 00 00 80 92 b6 11 40 00 00 00 00 d7 73 13 bf
       4.428293228149414 -7.420539623126388e-05
000780 00 00 00 80 d7 b0 fb bf 00 00 00 60 97 34 11 40
       -1.7306742668151855 4.301358699798584
000790 00 00 00 80 eb 51 e2 be 00 00 00 60 31 58 fe bf
       -8.735656592762098e-06 -1.8965314626693726
0007a0 00 00 00 20 a5 85 10 40 00 00 00 20 5c 1f 38 3f
       4.130512714385986 0.0003680801310110837
0007b0 00 00 00 80 97 b9 ff bf 00 00 00 c0 3e 15 10 40
       -1.9828104972839355 4.020747184753418
0007c0 00 00 00 00 00 60 44 3f 00 00 00 60 9d 88 00 c0
       0.000621795654296875 -2.066706418991089
0007d0 00 00 00 e0 1c 24 0f 40 00 00 00 80 eb 3d 31 3f
       3.8926331996917725 0.0002630901290103793
0007e0 00 00 00 00 1e 05 01 c0 00 00 00 60 40 46 0e 40
       -2.1274986267089844 3.7843024730682373
0007f0 00 00 00 80 eb 9b 41 bf 00 00 00 c0 e9 06 02 c0
       -0.0005373859312385321 -2.25337553024292
