planning_aware_eval/obstacle/data_collection/obstacle/10_s-6_2_f_sl/velocity/player.npy (npy, 3992 bytes, 1 tensors)

array f8 [161, 3]
000000 00 00 00 e0 c9 74 1d bf 00 00 00 60 99 64 a3 3f
       -0.00011236650607315823 0.03787688538432121
000010 00 00 00 40 b8 be 21 3f 00 00 00 20 6b d9 00 bf
       0.00013538359780795872 -3.213747186237015e-05
000020 00 00 00 e0 8c fd a1 3f 00 00 00 e0 51 b9 4b 3f
       0.03513756021857262 0.0008460664539597929
000030 00 00 00 a0 78 05 11 3f 00 00 00 80 8e bf a0 3f
       6.493138062069193e-05 0.032711461186409
000040 00 00 00 a0 70 bf 46 bf 00 00 00 e0 48 93 15 3f
       -0.0006942081381566823 8.230335515690967e-05
000050 00 00 00 40 be 46 a0 3f 00 00 00 e0 51 70 3c bf
       0.03178972750902176 -0.0004339408769737929
000060 00 00 00 80 aa 96 15 3f 00 00 00 00 dd 09 a0 3f
       8.23537411633879e-05 0.03132525086402893
000070 00 00 00 20 33 33 23 bf 00 00 00 60 37 10 14 3f
       -0.00014648436626885086 7.653558714082465e-05
000080 00 00 00 60 76 a6 9f 3f 00 00 00 80 c2 55 00 3f
       0.03090844117105007 3.115653817076236e-05
000090 00 00 00 e0 b8 3f 15 3f 00 00 00 60 c2 f9 9e 3f
       8.105817687464878e-05 0.03024963103234768
0000a0 00 00 00 c0 1e 05 f0 be 00 00 00 40 b8 40 2d bf
       -1.5277862985385582e-05 -0.0002231812395621091
0000b0 00 00 00 00 41 61 a0 3f 00 00 00 a0 c7 c1 51 3f
       0.03199198842048645 0.0010837983572855592
0000c0 00 00 00 20 1c 82 31 bf 00 00 00 80 4e 97 9f 3f
       -0.00026715456624515355 0.030850626528263092
0000d0 00 00 00 60 8f dc 43 bf 00 00 00 00 ca c2 27 3f
       -0.0006061267922632396 0.00018128124065697193
0000e0 00 00 00 40 ce 59 9e 3f 00 00 00 80 eb 0d 4b 3f
       0.029639456421136856 0.0008256339933723211
0000f0 00 00 00 40 b9 2b 3d bf 00 00 00 60 7d af c2 3f
       -0.0004451110144145787 0.14598052203655243
000100 00 00 00 40 b8 3c 47 bf 00 00 00 60 88 92 50 bf
       -0.0007091426523402333 -0.0010114986216649413
000110 00 00 00 00 4c af c5 3f 00 00 00 60 66 8d 45 3f
       0.16941213607788086 0.0006577253225259483
000120 00 00 00 e0 a1 95 3e bf 00 00 00 00 fa 89 d2 3f
       -0.0004666824534069747 0.2896714210510254
000130 00 00 00 40 b8 b2 50 bf 00 00 00 a0 d3 5f 61 3f
       -0.001019172603264451 0.002120889024809003
000140 00 00 00 e0 22 ce d5 3f 00 00 00 00 d7 07 41 bf
       0.34070655703544617 -0.0005197334103286266
000150 00 00 00 20 05 7f 48 3f 00 00 00 80 92 14 dd 3f
       0.0007475638412870467 0.4543806314468384
000160 00 00 00 a0 47 61 05 3f 00 00 00 c0 26 b6 65 bf
       4.0779112168820575e-05 -0.0026503331027925014
000170 00 00 00 20 8d 21 e3 3f 00 00 00 80 eb c1 20 bf
       0.5978456139564514 -0.00012784957652911544
000180 00 00 00 60 50 ac 53 bf 00 00 00 80 bf c4 e5 3f
       -0.0012007508194074035 0.6802670955657959
000190 00 00 00 c0 1e a9 31 3f 00 00 00 60 67 72 5d bf
       0.00026947975857183337 -0.001797295524738729
0001a0 00 00 00 20 44 b7 ea 3f 00 00 00 00 ae a7 21 bf
       0.8348713517189026 -0.000134696951135993
0001b0 00 00 00 c0 80 32 58 bf 00 00 00 80 6b 5a ee 3f
       -0.0014768845867365599 0.9485375881195068
0001c0 00 00 00 80 c2 9d 31 3f 00 00 00 e0 4c b7 48 bf
       0.000268802628852427 -0.0007542729726992548
0001d0 00 00 00 e0 c1 0a f1 3f 00 00 00 c0 4c c2 51 3f
       1.0651262998580933 0.0010839223396033049
0001e0 00 00 00 c0 9f a5 44 bf 00 00 00 00 36 c5 f2 3f
       -0.0006300954846665263 1.173147201538086
0001f0 00 00 00 00 00 9c 3f bf 00 00 00 20 5d 52 60 bf
       -0.00048232078552246094 -0.0019923991058021784
000200 00 00 00 00 b3 97 f4 3f 00 00 00 60 3d ca 39 bf
       1.2870359420776367 -0.00039352415478788316
000210 00 00 00 e0 20 34 63 bf 00 00 00 80 9a b4 f6 3f
       -0.0023441927041858435 1.4190926551818848
000220 00 00 00 80 c2 7b 4c 3f 00 00 00 e0 de 3c 66 bf
       0.0008692455012351274 -0.0027145722415298223
000230 00 00 00 00 4f 37 f8 3f 00 00 00 40 e1 a2 45 bf
       1.513503074645996 -0.0006602859357371926
000240 00 00 00 e0 dc d4 6a bf 00 00 00 e0 91 ed f9 3f
       -0.003275329014286399 1.6205004453659058
000250 00 00 00 60 3d f6 35 bf 00 00 00 20 3f 2d 70 bf
       -0.00033511160290800035 -0.003949400503188372
000260 00 00 00 a0 a4 47 fc 3f 00 00 00 a0 47 7f 4c 3f
       1.7674909830093384 0.0008696651202626526
000270 00 00 00 80 14 03 73 bf 00 00 00 80 a6 67 fe 3f
       -0.004641609266400337 1.9003052711486816
000280 00 00 00 c0 f5 08 32 3f 00 00 00 80 80 c5 75 bf
       0.00027519225841388106 -0.005315305665135384
000290 00 00 00 00 f6 f9 ff 3f 00 00 00 60 14 26 4f bf
       1.998525619506836 -0.0009505843627266586
0002a0 00 00 00 60 42 41 79 bf 00 00 00 80 d5 1b 01 40
       -0.006165751721709967 2.1385908126831055
0002b0 00 00 00 00 ae e7 41 3f 00 00 00 00 48 52 7c bf
       0.000546417199075222 -0.006914407014846802
0002c0 00 00 00 60 cd e4 01 40 00 00 00 c0 cc 12 47 bf
       2.236719846725464 -0.0007041454082354903
0002d0 00 00 00 40 ae d5 80 bf 00 00 00 00 f4 29 03 40
       -0.008220063522458076 2.3954849243164062
0002e0 00 00 00 a0 70 b5 2f 3f 00 00 00 a0 e3 4f 83 bf
       0.0002419185620965436 -0.009429720230400562
0002f0 00 00 00 a0 a9 26 04 40 00 00 00 80 c2 05 36 bf
       2.518878221511841 -0.00033603666815906763
000300 00 00 00 00 18 df 85 bf 00 00 00 40 b4 2a 05 40
       -0.010679423809051514 2.6458516120910645
000310 00 00 00 60 3d 96 30 3f 00 00 00 80 04 21 88 bf
       0.00025309561169706285 -0.011781726032495499
000320 00 00 00 e0 5e ea 05 40 00 00 00 00 00 7e 43 bf
       2.739438772201538 -0.0005948543548583984
000330 00 00 00 20 44 ae 8a bf 00 00 00 60 7e af 06 40
       -0.01302769873291254 2.8356902599334717
000340 00 00 00 60 66 c2 33 bf 00 00 00 60 9b 1e 8e bf
       -0.00030150412931106985 -0.014706815592944622
000350 00 00 00 00 c3 ad 07 40 00 00 00 00 00 8a 4e 3f
       2.9598445892333984 0.0009319782257080078
000360 00 00 00 40 89 b8 90 bf 00 00 00 20 c7 95 08 40
       -0.016328949481248856 3.073133707046509
000370 00 00 00 00 ae 4f 3a 3f 00 00 00 80 7c 35 91 bf
       0.00040147779509425163 -0.01680559664964676
000380 00 00 00 e0 f6 9a 09 40 00 00 00 e0 51 f8 fe be
       3.2006661891937256 -2.9535292924265377e-05
000390 00 00 00 20 d9 09 8a bf 00 00 00 40 cc 3a 0a 40
       -0.01271409634500742 3.278709888458252
0003a0 00 00 00 c0 1e 77 52 bf 00 00 00 00 30 bc 7c bf
       -0.0011270332615822554 -0.007015407085418701
0003b0 00 00 00 20 f7 de 0a 40 00 00 00 40 e1 46 31 bf
       3.358869791030884 -0.0002636241842992604
0003c0 00 00 00 e0 02 6b 36 3f 00 00 00 00 72 a1 0b 40
       0.0003420717257540673 3.4538307189941406
0003d0 00 00 00 60 66 56 4c 3f 00 00 00 e0 e3 9d 81 3f
       0.0008647918584756553 0.008601932786405087
0003e0 00 00 00 a0 5a 5c 0c 40 00 00 00 c0 cc 08 3e bf
       3.5450947284698486 -0.00045828818110749125
0003f0 00 00 00 e0 6b 61 91 3f 00 00 00 20 44 10 0d 40
       0.01697319559752941 3.6329424381256104
000400 00 00 00 c0 cc ac 37 3f 00 00 00 a0 39 56 98 3f
       0.0003612518194131553 0.023766422644257545
000410 00 00 00 20 b7 9d 0d 40 00 00 00 20 85 23 3b bf
       3.702009439468384 -0.0004141044628340751
000420 00 00 00 60 b0 e2 9e 3f 00 00 00 20 53 29 0e 40
       0.030161624774336815 3.7701780796051025
000430 00 00 00 00 ae 83 35 bf 00 00 00 80 5c c3 a2 3f
       -0.00032828329131007195 0.03664673864841461
000440 00 00 00 a0 0a b3 0e 40 00 00 00 e0 28 5c cf be
       3.8374226093292236 -3.7384031656984007e-06
000450 00 00 00 40 22 e5 a6 3f 00 00 00 40 f0 32 0f 40
       0.04471690207719803 3.899872303009033
000460 00 00 00 20 85 eb 0a bf 00 00 00 a0 af 4a ac 3f
       -5.134582534083165e-05 0.05525730922818184
000470 00 00 00 c0 bb b2 0f 40 00 00 00 e0 7a 1f 53 3f
       3.9622721672058105 0.0011671733809635043
000480 00 00 00 a0 8f fb b0 3f 00 00 00 e0 19 07 10 40
       0.06633851677179337 4.006934642791748
000490 00 00 00 80 c2 6b 40 bf 00 00 00 00 9b d8 b3 3f
       -0.000501127215102315 0.07752388715744019
0004a0 00 00 00 e0 7e 27 10 40 00 00 00 c0 cc 7c 11 bf
       4.038569927215576 -6.670951552223414e-05
0004b0 00 00 00 80 d7 00 b7 3f 00 00 00 e0 39 43 10 40
       0.0898565948009491 4.065650463104248
0004c0 00 00 00 80 94 6c 51 3f 00 00 00 e0 7a f0 b9 3f
       0.0010634851641952991 0.10132568329572678
0004d0 00 00 00 80 30 57 10 40 00 00 00 00 d7 89 43 bf
       4.085145950317383 -0.0005962657742202282
0004e0 00 00 00 00 36 10 bd 3f 00 00 00 a0 48 69 10 40
       0.11352860927581787 4.102816104888916
0004f0 00 00 00 80 eb 0f 44 3f 00 00 00 a0 2b 85 c0 3f
       0.0006122493650764227 0.12906403839588165
000500 00 00 00 e0 3a 77 10 40 00 00 00 a0 70 67 49 bf
       4.116435527801514 -0.0007752704550512135
000510 00 00 00 c0 65 e7 c2 3f 00 00 00 20 47 84 10 40
       0.1476866900920868 4.129177570343018
000520 00 00 00 40 0a a3 47 3f 00 00 00 e0 84 6b c5 3f
       0.0007213401840999722 0.16734372079372406
000530 00 00 00 a0 22 8f 10 40 00 00 00 80 14 ce 47 bf
       4.139780521392822 -0.0007264709565788507
000540 00 00 00 e0 08 3b c8 3f 00 00 00 a0 48 99 10 40
       0.18930159509181976 4.149691104888916
000550 00 00 00 80 c2 48 4a 3f 00 00 00 a0 2b 55 cb 3f
       0.0008021306712180376 0.21353669464588165
000560 00 00 00 40 42 a0 10 40 00 00 00 00 ae 69 47 bf
       4.156502723693848 -0.0007145022973418236
000570 00 00 00 c0 71 fd ce 3f 00 00 00 e0 7a a3 10 40
       0.2421095073223114 4.159648418426514
000580 00 00 00 60 3d 56 33 bf 00 00 00 00 57 d2 d1 3f
       -0.00029505728161893785 0.27846312522888184
000590 00 00 00 c0 36 a2 10 40 00 00 00 20 5c af 0b bf
       4.158411979675293 -5.2804945880779997e-05
0005a0 00 00 00 60 f9 85 d4 3f 00 00 00 a0 cc 9a 10 40
       0.32067713141441345 4.1511712074279785
0005b0 00 00 00 e0 28 1c 07 3f 00 00 00 e0 fc a4 d7 3f
       4.4078824430471286e-05 0.3694450557231903
0005c0 00 00 00 20 17 8c 10 40 00 00 00 e0 d1 f0 57 3f
       4.136806964874268 0.0014612245140597224
0005d0 00 00 00 20 77 c2 da 3f 00 00 00 a0 b9 73 10 40
       0.4181192219257355 4.113012790679932
0005e0 00 00 00 00 d7 d7 45 3f 00 00 00 80 4f 8a dd 3f
       0.0006665992550551891 0.4615668058395386
0005f0 00 00 00 c0 06 54 10 40 00 00 00 80 14 9c 44 bf
       4.082056999206543 -0.0006289577577263117
000600 00 00 00 00 58 03 e0 3f 00 00 00 60 4d 2e 10 40
       0.5004081726074219 4.045217037200928
000610 00 00 00 60 3d 3c 40 bf 00 00 00 00 cd 2c e1 3f
       -0.0004954623873345554 0.5367188453674316
000620 00 00 00 40 59 02 10 40 00 00 00 e0 28 48 4d 3f
       4.002293586730957 0.000893611868377775
000630 00 00 00 80 1e 2e e2 3f 00 00 00 a0 fe a5 0f 40
       0.5681297779083252 3.95605206489563
000640 00 00 00 40 b8 ae 26 3f 00 00 00 00 7c e7 e2 3f
       0.0001730537333060056 0.5907573699951172
000650 00 00 00 00 d7 4d 0f 40 00 00 00 e0 51 a0 45 bf
       3.9130077362060547 -0.0006599807529710233
000660 00 00 00 e0 72 8c e3 3f 00 00 00 20 71 f0 0e 40
       0.6108946204185486 3.867403268814087
000670 00 00 00 60 14 2a 3d bf 00 00 00 a0 c6 3f e4 3f
       -0.00044501302181743085 0.6327851414680481
000680 00 00 00 40 ed 86 0e 40 00 00 00 40 0a b3 41 3f
       3.8158822059631348 0.0005401420639827847
000690 00 00 00 20 e0 cf e4 3f 00 00 00 a0 63 25 0e 40
       0.6503754258155823 3.768256425857544
0006a0 00 00 00 a0 70 e1 44 bf 00 00 00 a0 29 5a e5 3f
       -0.0006372260977514088 0.6672561764717102
0006b0 00 00 00 e0 b1 c2 0d 40 00 00 00 a0 1e 75 3b bf
       3.7200658321380615 -0.0004189681785646826
0006c0 00 00 00 80 9c e1 e5 3f 00 00 00 20 db 5b 0d 40
       0.6837904453277588 3.669851541519165
0006d0 00 00 00 00 00 48 3d bf 00 00 00 40 e4 63 e6 3f
       -0.0004467964172363281 0.6996937990188599
0006e0 00 00 00 00 3b ff 0c 40 00 00 00 00 d7 1f 30 3f
       3.624624252319336 0.0002460384275764227
0006f0 00 00 00 80 e3 f9 e6 3f 00 00 00 60 61 a0 0c 40
       0.7180039882659912 3.57831072807312
000700 00 00 00 60 8f 12 4a 3f 00 00 00 40 7e 6a e7 3f
       0.0007956695626489818 0.7317496538162231
000710 00 00 00 a0 94 3f 0c 40 00 00 00 60 8f b2 45 bf
       3.5310451984405518 -0.0006621551583521068
000720 00 00 00 e0 78 07 e8 3f 00 00 00 80 73 cd 0b 40
       0.7509121298789978 3.47531795501709
000730 00 00 00 40 0a 2b 40 3f 00 00 00 40 55 6c e8 3f
       0.0004934120224788785 0.7632242441177368
000740 00 00 00 40 15 73 0b 40 00 00 00 40 b8 1e 48 bf
       3.4311928749084473 -0.0007360839517787099
000750 00 00 00 c0 f1 d1 e8 3f 00 00 00 e0 4c 1b 0b 40
       0.7756279706954956 3.3883302211761475
000760 00 00 00 a0 70 65 3e bf 00 00 00 00 e4 4c e9 3f
       -0.00046380996354855597 0.7906360626220703
000770 00 00 00 c0 1b c4 0a 40 00 00 00 a0 70 d9 3f 3f
       3.3457560539245605 0.0004859828914050013
000780 00 00 00 c0 01 c6 e9 3f 00 00 00 40 60 81 0a 40
       0.8054207563400269 3.313171863555908
000790 00 00 00 c0 1e 65 31 3f 00 00 00 80 b3 1e ea 3f
       0.0002654266427271068 0.8162477016448975
0007a0 00 00 00 40 4c 48 0a 40 00 00 00 60 8f c0 3d 3f
       3.285301685333252 0.0004539823567029089
0007b0 00 00 00 e0 96 76 ea 3f 00 00 00 40 8d 10 0a 40
       0.8269762396812439 3.2580819129943848
0007c0 00 00 00 c0 a3 e8 43 bf 00 00 00 60 df af ea 3f
       -0.0006075667915865779 0.8339688181877136
0007d0 00 00 00 00 68 e7 09 40 00 00 00 40 b8 0e 44 bf
       3.2379913330078125 -0.0006121062906458974
0007e0 00 00 00 a0 bf 0c eb 3f 00 00 00 00 87 d1 09 40
       0.8453062176704407 3.2273082733154297
0007f0 00 00 00 00 d7 39 43 3f 00 00 00 40 49 5a eb 3f
       0.0005867290310561657 0.8547712564468384
