planning_aware_eval/obstacle/data_collection/obstacle/10_s-2_2_f_sr_1/transform/player.npy (npy, 10264 bytes, 1 tensors)

array f8 [181, 7]
000000 00 00 00 20 75 fe 42 40 00 00 00 20 36 29 50 c0
       37.98794937133789 -64.64392852783203
000010 00 00 00 20 5c 0f 5d 3f 00 00 00 e0 f8 00 78 bf
       0.0017736816080287099 -0.00586030213162303
000020 00 00 00 c0 dc 7c 66 40 00 00 00 60 04 c3 61 3f
       179.90194702148438 0.0021681867074221373
000030 00 00 00 00 00 00 00 00 00 00 00 20 75 fe 42 40
       0.0 37.98794937133789
000040 00 00 00 20 36 29 50 c0 00 00 00 20 5c 0f 5d 3f
       -64.64392852783203 0.0017736816080287099
000050 00 00 00 e0 f8 00 78 bf 00 00 00 c0 dc 7c 66 40
       -0.00586030213162303 179.90194702148438
000060 00 00 00 60 04 c3 61 3f 00 00 00 00 00 00 00 00
       0.0021681867074221373 0.0
000070 00 00 00 20 75 fe 42 40 00 00 00 20 36 29 50 c0
       37.98794937133789 -64.64392852783203
000080 00 00 00 20 5c 0f 5d 3f 00 00 00 e0 f8 00 78 bf
       0.0017736816080287099 -0.00586030213162303
000090 00 00 00 c0 dc 7c 66 40 00 00 00 60 04 c3 61 3f
       179.90194702148438 0.0021681867074221373
0000a0 00 00 00 00 00 00 00 00 00 00 00 20 75 fe 42 40
       0.0 37.98794937133789
0000b0 00 00 00 20 36 29 50 c0 00 00 00 20 5c 0f 5d 3f
       -64.64392852783203 0.0017736816080287099
0000c0 00 00 00 e0 f8 00 78 bf 00 00 00 c0 dc 7c 66 40
       -0.00586030213162303 179.90194702148438
0000d0 00 00 00 60 04 c3 61 3f 00 00 00 00 00 00 00 00
       0.0021681867074221373 0.0
0000e0 00 00 00 20 75 fe 42 40 00 00 00 20 36 29 50 c0
       37.98794937133789 -64.64392852783203
0000f0 00 00 00 20 5c 0f 5d 3f 00 00 00 e0 f8 00 78 bf
       0.0017736816080287099 -0.00586030213162303
000100 00 00 00 c0 dc 7c 66 40 00 00 00 60 04 c3 61 3f
       179.90194702148438 0.0021681867074221373
000110 00 00 00 00 00 00 00 00 00 00 00 20 75 fe 42 40
       0.0 37.98794937133789
000120 00 00 00 20 36 29 50 c0 00 00 00 20 5c 0f 5d 3f
       -64.64392852783203 0.0017736816080287099
000130 00 00 00 e0 f8 00 78 bf 00 00 00 c0 dc 7c 66 40
       -0.00586030213162303 179.90194702148438
000140 00 00 00 60 04 c3 61 3f 00 00 00 00 00 00 00 00
       0.0021681867074221373 0.0
000150 00 00 00 20 75 fe 42 40 00 00 00 20 36 29 50 c0
       37.98794937133789 -64.64392852783203
000160 00 00 00 20 5c 0f 5d 3f 00 00 00 e0 f8 00 78 bf
       0.0017736816080287099 -0.00586030213162303
000170 00 00 00 c0 dc 7c 66 40 00 00 00 60 04 c3 61 3f
       179.90194702148438 0.0021681867074221373
000180 00 00 00 00 00 00 00 00 00 00 00 a0 65 fe 42 40
       0.0 37.98747634887695
000190 00 00 00 20 36 29 50 c0 00 00 00 60 66 96 5a 3f
       -64.64392852783203 0.0016227721935138106
0001a0 00 00 00 80 c4 44 72 bf 00 00 00 c0 dc 7c 66 40
       -0.004460113123059273 179.90194702148438
0001b0 00 00 00 80 5c 63 5c 3f 00 00 00 00 00 00 00 00
       0.0017326739616692066 0.0
0001c0 00 00 00 20 41 fe 42 40 00 00 00 40 36 29 50 c0
       37.98636245727539 -64.64393615722656
0001d0 00 00 00 00 00 14 59 3f 00 00 00 80 0e 80 67 bf
       0.0015306472778320312 -0.002868679352104664
0001e0 00 00 00 c0 dc 7c 66 40 00 00 00 40 10 90 58 3f
       179.90194702148438 0.0014991911593824625
0001f0 00 00 00 00 00 00 00 00 00 00 00 c0 27 fe 42 40
       0.0 37.98558807373047
000200 00 00 00 40 36 29 50 c0 00 00 00 00 d7 3f 59 3f
       -64.64393615722656 0.0015410995110869408
000210 00 00 00 60 4f 04 62 bf 00 00 00 c0 dc 7c 66 40
       -0.0021993208210915327 179.90194702148438
000220 00 00 00 60 82 db 54 3f 00 00 00 00 00 00 00 00
       0.0012730382150039077 0.0
000230 00 00 00 e0 11 fe 42 40 00 00 00 40 36 29 50 c0
       37.984920501708984 -64.64393615722656
000240 00 00 00 80 c2 09 59 3f 00 00 00 e0 0a 8b 5d bf
       0.0015282058157026768 -0.0018031698418781161
000250 00 00 00 c0 dc 7c 66 40 00 00 00 a0 d8 f2 50 3f
       179.90194702148438 0.0010344615438953042
000260 00 00 00 00 00 00 00 00 00 00 00 c0 fc fd 42 40
       0.0 37.984275817871094
000270 00 00 00 40 36 29 50 c0 00 00 00 60 8f c2 59 3f
       -64.64393615722656 0.0015722656389698386
000280 00 00 00 c0 4b 0f 58 bf 00 00 00 c0 dc 7c 66 40
       -0.0014684905763715506 179.90194702148438
000290 00 00 00 a0 4c 45 4c 3f 00 00 00 00 00 00 00 00
       0.0008627533097751439 0.0
0002a0 00 00 00 00 ea fd 42 40 00 00 00 40 36 29 50 c0
       37.98370361328125 -64.64393615722656
0002b0 00 00 00 c0 cc 14 5a 3f 00 00 00 e0 f8 07 54 bf
       0.0015918731223791838 -0.0012226038379594684
0002c0 00 00 00 c0 dc 7c 66 40 00 00 00 20 1f 94 46 3f
       179.90194702148438 0.0006890441873110831
0002d0 00 00 00 00 00 00 00 00 00 00 00 00 d8 fd 42 40
       0.0 37.983154296875
0002e0 00 00 00 40 36 29 50 c0 00 00 00 e0 51 a4 5a 3f
       -64.64393615722656 0.001626090961508453
0002f0 00 00 00 40 e3 8f 50 bf 00 00 00 c0 dc 7c 66 40
       -0.0010108679998666048 179.90194702148438
000300 00 00 00 a0 2b ef 42 3f 00 00 00 00 00 00 00 00
       0.0005778277409262955 0.0
000310 00 00 00 80 c6 fd 42 40 00 00 00 40 36 29 50 c0
       37.98262023925781 -64.64393615722656
000320 00 00 00 00 d7 3b 5b 3f 00 00 00 60 4f f6 49 bf
       0.0016622161492705345 -0.0007923019002191722
000330 00 00 00 c0 dc 7c 66 40 00 00 00 60 d8 29 3f 3f
       179.90194702148438 0.0004755166301038116
000340 00 00 00 00 00 00 00 00 00 00 00 00 b6 fd 42 40
       0.0 37.98211669921875
000350 00 00 00 40 36 29 50 c0 00 00 00 e0 51 9c 5b 3f
       -64.64393615722656 0.0016852187691256404
000360 00 00 00 20 48 28 46 bf 00 00 00 c0 dc 7c 66 40
       -0.0006761886761523783 179.90194702148438
000370 00 00 00 60 6c e4 38 3f 00 00 00 00 00 00 00 00
       0.00037982602952979505 0.0
000380 00 00 00 60 a5 fd 42 40 00 00 00 40 36 29 50 c0
       37.98160934448242 -64.64393615722656
000390 00 00 00 e0 28 f8 5b 3f 00 00 00 a0 7a 02 41 bf
       0.001707115094177425 -0.0005190943484194577
0003a0 00 00 00 c0 dc 7c 66 40 00 00 00 a0 64 e8 34 3f
       179.90194702148438 0.0003190274874214083
0003b0 00 00 00 00 00 00 00 00 00 00 00 00 96 fd 42 40
       0.0 37.98114013671875
0003c0 00 00 00 40 36 29 50 c0 00 00 00 a0 70 c9 5b 3f
       -64.64393615722656 0.0016959762433543801
0003d0 00 00 00 a0 7a 02 41 bf 00 00 00 c0 dc 7c 66 40
       -0.0005190943484194577 179.90194702148438
0003e0 00 00 00 a0 64 e8 34 3f 00 00 00 00 00 00 00 00
       0.0003190274874214083 0.0
0003f0 00 00 00 a0 9b fd 42 40 00 00 00 60 36 29 50 c0
       37.9813117980957 -64.6439437866211
000400 00 00 00 a0 47 39 5b 3f 00 00 00 e0 f8 07 54 bf
       0.001661605783738196 -0.0012226038379594684
000410 00 00 00 c0 dc 7c 66 40 00 00 00 40 d6 ca 2a 3f
       179.90194702148438 0.00020440926891751587
000420 00 00 00 00 00 00 00 00 00 00 00 a0 92 fd 42 40
       0.0 37.98103713989258
000430 00 00 00 60 36 29 50 c0 00 00 00 60 3d 76 5b 3f
       -64.6439437866211 0.0016761397710070014
000440 00 00 00 e0 f8 07 54 bf 00 00 00 c0 dc 7c 66 40
       -0.0012226038379594684 179.90194702148438
000450 00 00 00 40 d6 ca 2a 3f 00 00 00 00 00 00 00 00
       0.00020440926891751587 0.0
000460 00 00 00 20 89 fd 42 40 00 00 00 60 36 29 50 c0
       37.98074722290039 -64.6439437866211
000470 00 00 00 a0 70 e1 5b 3f 00 00 00 e0 a5 00 50 bf
       0.0017016982892528176 -0.0009767169831320643
000480 00 00 00 c0 dc 7c 66 40 00 00 00 a0 9c 42 1c 3f
       179.90194702148438 0.00010780411685118452
000490 00 00 00 00 00 00 00 00 00 00 00 00 7a fd 42 40
       0.0 37.98028564453125
0004a0 00 00 00 60 36 29 50 c0 00 00 00 80 14 e2 5b 3f
       -64.6439437866211 0.0017018509097397327
0004b0 00 00 00 00 77 0d 47 bf 00 00 00 c0 dc 7c 66 40
       -0.0007035094313323498 179.90194702148438
0004c0 00 00 00 20 5f b2 14 3f 00 00 00 00 00 00 00 00
       7.895188900874928e-05 0.0
0004d0 00 00 00 e0 69 fd 42 40 00 00 00 60 36 29 50 c0
       37.979793548583984 -64.6439437866211
0004e0 00 00 00 a0 1e 31 5c 3f 00 00 00 40 a2 fd 3d bf
       0.0017206954071298242 -0.00045762263471260667
0004f0 00 00 00 c0 dc 7c 66 40 00 00 00 20 1e 6c 08 3f
       179.90194702148438 4.658190664486028e-05
000500 00 00 00 00 00 00 00 00 00 00 00 80 54 fd 42 40
       0.0 37.97914123535156
000510 00 00 00 60 36 29 50 c0 00 00 00 e0 51 70 5c 3f
       -64.6439437866211 0.0017357635078951716
000520 00 00 00 c0 4b 1d 20 bf 00 00 00 c0 dc 7c 66 40
       -0.00012294339830987155 179.90194702148438
000530 00 00 00 a0 d3 20 04 3f 00 00 00 00 00 00 00 00
       3.839155033347197e-05 0.0
000540 00 00 00 00 2e fd 42 40 00 00 00 60 36 29 50 c0
       37.97796630859375 -64.6439437866211
000550 00 00 00 20 85 9f 5b 3f 00 00 00 00 12 75 31 3f
       0.0016859817551448941 0.00026637734845280647
000560 00 00 00 c0 dc 7c 66 40 00 00 00 00 dc a5 1c bd
       179.90194702148438 -2.5444436054650188e-14
000570 00 00 00 00 00 00 00 00 00 00 00 a0 e8 fc 42 40
       0.0 37.97584915161133
000580 00 00 00 60 36 29 50 c0 00 00 00 60 3d 02 5c 3f
       -64.6439437866211 0.0017095183720812201
000590 00 00 00 c0 27 f4 60 3f 00 00 00 c0 dc 7c 66 40
       0.0020695473067462444 179.90194702148438
0005a0 00 00 00 00 dc a5 4c 3d 00 00 00 00 00 00 00 00
       2.035554884372015e-13 0.0
0005b0 00 00 00 00 95 fc 42 40 00 00 00 60 36 29 50 c0
       37.973297119140625 -64.6439437866211
0005c0 00 00 00 00 d7 3b 5c 3f 00 00 00 40 6c 4a 69 3f
       0.0017232513055205345 0.0030872453935444355
0005d0 00 00 00 00 dd 7c 66 40 00 00 00 80 e5 0c e4 3e
       179.9019775390625 9.560764738125727e-06
0005e0 00 00 00 00 00 00 00 00 00 00 00 20 1b fc 42 40
       0.0 37.96957778930664
0005f0 00 00 00 20 36 29 50 c0 00 00 00 a0 70 41 5c 3f
       -64.64392852783203 0.0017245864728465676
000600 00 00 00 60 34 a7 71 3f 00 00 00 c0 ea 7c 66 40
       0.004309849347919226 179.90365600585938
000610 00 00 00 00 dc a5 5c bd 00 00 00 00 00 00 00 00
       -4.07110976874403e-13 0.0
000620 00 00 00 40 6e fb 42 40 00 00 00 00 37 29 50 c0
       37.96430206298828 -64.64398193359375
000630 00 00 00 60 66 1a 5c 3f 00 00 00 e0 ef 34 79 3f
       0.0017152786022052169 0.0061540002934634686
000640 00 00 00 40 a3 7c 66 40 00 00 00 40 ff ff 0f bf
       179.89492797851562 -6.103513442212716e-05
000650 00 00 00 00 00 00 00 00 00 00 00 40 96 fa 42 40
       0.0 37.95771026611328
000660 00 00 00 80 36 29 50 c0 00 00 00 80 c2 e1 5b 3f
       -64.64395141601562 0.0017017745412886143
000670 00 00 00 80 7c dd 7f 3f 00 00 00 40 bd 7c 66 40
       0.00777958519756794 179.89810180664062
000680 00 00 00 a0 ff ff ff be 00 00 00 00 00 00 00 00
       -3.051757266803179e-05 0.0
000690 00 00 00 40 a2 f9 42 40 00 00 00 40 36 29 50 c0
       37.95026397705078 -64.64393615722656
0006a0 00 00 00 20 5c ef 5b 3f 00 00 00 40 c7 b3 82 3f
       0.0017050170572474599 0.009131962433457375
0006b0 00 00 00 60 d7 7c 66 40 00 00 00 00 00 00 10 bf
       179.9012908935547 -6.103515625e-05
0006c0 00 00 00 00 00 00 00 00 00 00 00 80 60 f8 42 40
       0.0 37.94044494628906
0006d0 00 00 00 40 36 29 50 c0 00 00 00 80 14 6e 5b 3f
       -64.64393615722656 0.0016741943545639515
0006e0 00 00 00 a0 4c 8e 85 3f 00 00 00 a0 c5 7c 66 40
       0.010525320656597614 179.8991241455078
0006f0 00 00 00 a0 ff ff 0f bf 00 00 00 00 00 00 00 00
       -6.103514533606358e-05 0.0
000700 00 00 00 80 e8 f6 42 40 00 00 00 80 35 29 50 c0
       37.92897033691406 -64.64389038085938
000710 00 00 00 40 b8 fa 5a 3f 00 00 00 60 46 31 87 3f
       0.0016466903034597635 0.011324453167617321
000720 00 00 00 e0 d4 7c 66 40 00 00 00 80 7f ff 00 3f
       179.90098571777344 3.242118691559881e-05
000730 00 00 00 00 00 00 00 00 00 00 00 e0 88 f5 42 40
       0.0 37.91823959350586
000740 00 00 00 a0 34 29 50 c0 00 00 00 c0 a3 58 5b 3f
       -64.64383697509766 0.0016690825577825308
000750 00 00 00 a0 1f 99 87 3f 00 00 00 00 fd 7c 66 40
       0.01152252871543169 179.9058837890625
000760 00 00 00 00 5f 96 dc 3e 00 00 00 00 00 00 00 00
       6.8157642090227455e-06 0.0
000770 00 00 00 00 eb f3 42 40 00 00 00 20 34 29 50 c0
       37.905609130859375 -64.64380645751953
000780 00 00 00 00 00 6c 5b 3f 00 00 00 40 23 80 89 3f
       0.0016736984252929688 0.012451434507966042
000790 00 00 00 80 07 7d 66 40 00 00 00 00 00 00 00 00
       179.90716552734375 0.0
0007a0 00 00 00 00 00 00 00 00 00 00 00 a0 28 f2 42 40
       0.0 37.89186477661133
0007b0 00 00 00 80 33 29 50 c0 00 00 00 80 99 71 5b 3f
       -64.64376831054688 0.00167503347620368
0007c0 00 00 00 40 c7 a5 8a 3f 00 00 00 20 0b 7d 66 40
       0.013011509552598 179.90760803222656
0007d0 00 00 00 e0 2b 7f e2 3e 00 00 00 00 00 00 00 00
       8.819944014248904e-06 0.0
0007e0 00 00 00 20 21 f0 42 40 00 00 00 e0 32 29 50 c0
       37.87601089477539 -64.64373016357422
0007f0 00 00 00 00 d7 4f 5b 3f 00 00 00 20 2d bd 8d 3f
       0.0016669845208525658 0.014520981349050999
