planning_aware_eval/interactive/data_collection/interactive/10_t1-5_0_b_f_r_1_0/transform/player.npy (npy, 21240 bytes, 1 tensors)

array f8 [377, 7]
00000000: 0000 00c0 0e31 23c0 0000 00c0 4294 5040
00000010: 0000 0060 8f86 5c3f 0000 0040 7edb 1a3f
00000020: 0000 0000 2651 6640 0000 00a0 ffff 0fbf
00000030: 0000 0000 0000 0000 0000 00c0 0e31 23c0
00000040: 0000 00c0 4294 5040 0000 0060 8f86 5c3f
00000050: 0000 0040 7edb 1a3f 0000 0000 2651 6640
00000060: 0000 00a0 ffff 0fbf 0000 0000 0000 0000
00000070: 0000 00c0 0e31 23c0 0000 00c0 4294 5040
00000080: 0000 0060 8f86 5c3f 0000 0040 7edb 1a3f
00000090: 0000 0000 2651 6640 0000 00a0 ffff 0fbf
000000a0: 0000 0000 0000 0000 0000 00c0 0e31 23c0
000000b0: 0000 00c0 4294 5040 0000 0060 8f86 5c3f
000000c0: 0000 0040 7edb 1a3f 0000 0000 2651 6640
000000d0: 0000 00a0 ffff 0fbf 0000 0000 0000 0000
000000e0: 0000 00c0 0e31 23c0 0000 00c0 4294 5040
000000f0: 0000 0080 c271 5c3f 0000 0040 7edb 1a3f
00000100: 0000 0000 2651 6640 0000 00a0 ffff 0fbf
00000110: 0000 0000 0000 0000 0000 00c0 0e31 23c0
00000120: 0000 00c0 4294 5040 0000 0020 8563 5c3f
00000130: 0000 0040 7edb 1a3f 0000 0000 2651 6640
00000140: 0000 00a0 ffff 0fbf 0000 0000 0000 0000
00000150: 0000 00c0 0e31 23c0 0000 00c0 4294 5040
00000160: 0000 0020 8563 5c3f 0000 0040 7edb 1a3f
00000170: 0000 0000 2651 6640 0000 00a0 ffff 0fbf
00000180: 0000 0000 0000 0000 0000 00c0 0e31 23c0
00000190: 0000 00c0 4294 5040 0000 0040 e15e 5c3f
000001a0: 0000 0040 7edb 1a3f 0000 0000 2651 6640
000001b0: 0000 00a0 ffff 0fbf 0000 0000 0000 0000
000001c0: 0000 00c0 0e31 23c0 0000 00c0 4294 5040
000001d0: 0000 0040 e15e 5c3f 0000 0040 7edb 1a3f
000001e0: 0000 0000 2651 6640 0000 00a0 ffff 0fbf
000001f0: 0000 0000 0000 0000 0000 00c0 0e31 23c0
00000200: 0000 00c0 4294 5040 0000 00c0 cc64 5c3f
00000210: 0000 0040 7edb 1a3f 0000 0000 2651 6640
00000220: 0000 00a0 ffff 0fbf 0000 0000 0000 0000
00000230: 0000 00c0 0e31 23c0 0000 00c0 4294 5040
00000240: 0000 0020 5c73 5c3f 0000 0040 7edb 1a3f
00000250: 0000 0000 2651 6640 0000 00a0 ffff 0fbf
00000260: 0000 0000 0000 0000 0000 00c0 0e31 23c0
00000270: 0000 00c0 4294 5040 0000 00c0 cc88 5c3f
00000280: 0000 0040 7edb 1a3f 0000 0000 2651 6640
00000290: 0000 00a0 ffff 0fbf 0000 0000 0000 0000
000002a0: 0000 00c0 0e31 23c0 0000 00c0 4294 5040
000002b0: 0000 0060 8f82 5c3f 0000 0040 7edb 1a3f
000002c0: 0000 0000 2651 6640 0000 00a0 ffff 0fbf
000002d0: 0000 0000 0000 0000 0000 00c0 0e31 23c0
000002e0: 0000 00c0 4294 5040 0000 0060 8f82 5c3f
000002f0: 0000 0040 7edb 1a3f 0000 0000 2651 6640
00000300: 0000 00a0 ffff 0fbf 0000 0000 0000 0000
00000310: 0000 00c0 0e31 23c0 0000 00c0 4294 5040
00000320: 0000 0000 0088 5c3f 0000 0040 7edb 1a3f
00000330: 0000 0000 2651 6640 0000 00a0 ffff 0fbf
00000340: 0000 0000 0000 0000 0000 00c0 0e31 23c0
00000350: 0000 00c0 4294 5040 0000 0060 8f62 5c3f
00000360: 0000 0040 7edb 1a3f 0000 0000 2651 6640
00000370: 0000 00a0 ffff 0fbf 0000 0000 0000 0000
00000380: 0000 00c0 0e31 23c0 0000 00c0 4294 5040
00000390: 0000 0060 3d7a 5c3f 0000 0040 7edb 1a3f
000003a0: 0000 0000 2651 6640 0000 00a0 ffff 0fbf
000003b0: 0000 0000 0000 0000 0000 00c0 0e31 23c0
000003c0: 0000 00c0 4294 5040 0000 0000 d763 5c3f
000003d0: 0000 0040 7edb 1a3f 0000 0000 2651 6640
000003e0: 0000 00a0 ffff 0fbf 0000 0000 0000 0000
000003f0: 0000 0020 1431 23c0 0000 00a0 4394 5040
00000400: 0000 0060 6696 5b3f 0000 0040 7edb 1a3f
00000410: 0000 0000 4c51 6640 0000 0040 61e4 ef3e
00000420: 0000 0000 0000 0000 0000 0040 1c31 23c0
00000430: 0000 0000 4494 5040 0000 0080 eb09 5c3f
00000440: 0000 0080 a9e7 213f 0000 00c0 5651 6640
00000450: 0000 00c0 bc80 f13e 0000 0000 0000 0000
00000460: 0000 0020 3031 23c0 0000 0060 4494 5040
00000470: 0000 0040 b852 5c3f 0000 0040 e38f 303f
00000480: 0000 00a0 5551 6640 0000 0040 f1dd de3e
00000490: 0000 0000 0000 0000 0000 00c0 4031 23c0
000004a0: 0000 00c0 4694 5040 0000 00e0 2850 5c3f
000004b0: 0000 0020 adc0 3b3f 0000 00c0 e751 6640
000004c0: 0000 0080 9fc0 223f 0000 0000 0000 0000
000004d0: 0000 0060 df31 23c0 0000 00e0 4594 5040
000004e0: 0000 0020 5c2f 5c3f 0000 0080 0e72 5f3f
000004f0: 0000 0000 9b51 6640 0000 00c0 ffff 23bf
00000500: 0000 0000 0000 0000 0000 00e0 4233 23c0
00000510: 0000 0060 4594 5040 0000 0060 660e 5c3f
00000520: 0000 00e0 f8f2 6f3f 0000 0060 5e51 6640
00000530: 0000 00a0 ffff 2fbf 0000 0000 0000 0000
00000540: 0000 00a0 1c36 23c0 0000 0040 4794 5040
00000550: 0000 0000 00b8 5b3f 0000 0060 3492 7d3f
00000560: 0000 0040 be51 6640 0000 0080 ffff 3dbf
00000570: 0000 0000 0000 0000 0000 00c0 893a 23c0
00000580: 0000 0060 4894 5040 0000 0040 b86a 5b3f
00000590: 0000 00e0 d35f 873f 0000 00e0 b951 6640
000005a0: 0000 0000 0000 48bf 0000 0000 0000 0000
000005b0: 0000 00c0 9740 23c0 0000 0020 4b94 5040
000005c0: 0000 0000 ae0f 5b3f 0000 0020 640b 903f
000005d0: 0000 00a0 fd51 6640 0000 0060 0000 4dbf
000005e0: 0000 0000 0000 0000 0000 0000 8648 23c0
000005f0: 0000 00e0 4e94 5040 0000 00a0 47a9 5a3f
00000600: 0000 0000 205c 943f 0000 0060 6d52 6640
00000610: 0000 0000 0080 51bf 0000 0000 0000 0000
00000620: 0000 0020 4b52 23c0 0000 00a0 5194 5040
00000630: 0000 00c0 cc34 5a3f 0000 0000 e578 973f
00000640: 0000 0080 8952 6640 0000 0000 0080 55bf
00000650: 0000 0000 0000 0000 0000 0000 9d5d 23c0
00000660: 0000 0080 5594 5040 0000 0000 d7f7 593f
00000670: 0000 00c0 54d4 9a3f 0000 00c0 cd52 6640
00000680: 0000 00e0 ff7f 57bf 0000 0000 0000 0000
00000690: 0000 00e0 d06a 23c0 0000 0040 5994 5040
000006a0: 0000 0080 c2b5 593f 0000 0060 3492 9d3f
000006b0: 0000 0080 0153 6640 0000 0080 ffff 5abf
000006c0: 0000 0000 0000 0000 0000 0000 ec79 23c0
000006d0: 0000 0060 5d94 5040 0000 0000 d777 593f
000006e0: 0000 0040 2216 a03f 0000 0020 2a53 6640
000006f0: 0000 00a0 ffff 5cbf 0000 0000 0000 0000
00000700: 0000 00a0 ad8a 23c0 0000 00e0 6294 5040
00000710: 0000 00c0 f550 593f 0000 0040 dc18 a13f
00000720: 0000 0080 ba53 6640 0000 0040 0080 5ebf
00000730: 0000 0000 0000 0000 0000 0080 5d9d 23c0
00000740: 0000 0020 6894 5040 0000 00a0 9929 593f
00000750: 0000 0060 71d8 a13f 0000 00e0 3854 6640
00000760: 0000 00c0 ff3f 61bf 0000 0000 0000 0000
00000770: 0000 0080 feb1 23c0 0000 00c0 6d94 5040
00000780: 0000 0060 3d02 593f 0000 0060 d3aa a23f
00000790: 0000 0060 d654 6640 0000 00a0 ff7f 62bf
000007a0: 0000 0000 0000 0000 0000 0040 82c8 23c0
000007b0: 0000 0040 7494 5040 0000 00a0 70e1 583f
000007c0: 0000 0040 2986 a33f 0000 0000 a355 6640
000007d0: 0000 0000 0080 63bf 0000 0000 0000 0000
000007e0: 0000 00c0 1ae1 23c0 0000 0020 7b94 5040
000007f0: 0000 0060 66be 583f 0000 00e0 0e43 a43f
-9.595815658569336 66.31657409667969 0.0017410659929737449 0.00010245283192489296 178.535888671875 -6.103514533606358e-05 0.0 -9.595815658569336
66.31657409667969 0.0017410659929737449 0.00010245283192489296 178.535888671875 -6.103514533606358e-05 0.0 -9.595815658569336 66.31657409667969
0.0017410659929737449 0.00010245283192489296 178.535888671875 -6.103514533606358e-05 0.0 -9.595815658569336 66.31657409667969 0.0017410659929737449
0.00010245283192489296 178.535888671875 -6.103514533606358e-05 0.0 -9.595815658569336 66.31657409667969 0.0017361068166792393 0.00010245283192489296
178.535888671875 -6.103514533606358e-05 0.0 -9.595815658569336 66.31657409667969 0.0017327117966488004 0.00010245283192489296 178.535888671875
-6.103514533606358e-05 0.0 -9.595815658569336 66.31657409667969 0.0017327117966488004 0.00010245283192489296 178.535888671875 -6.103514533606358e-05
0.0 -9.595815658569336 66.31657409667969 0.001731605501845479 0.00010245283192489296 178.535888671875 -6.103514533606358e-05 0.0
-9.595815658569336 66.31657409667969 0.001731605501845479 0.00010245283192489296 178.535888671875 -6.103514533606358e-05 0.0 -9.595815658569336
66.31657409667969 0.0017330169212073088 0.00010245283192489296 178.535888671875 -6.103514533606358e-05 0.0 -9.595815658569336 66.31657409667969
0.0017364883096888661 0.00010245283192489296 178.535888671875 -6.103514533606358e-05 0.0 -9.595815658569336 66.31657409667969 0.001741599990054965
0.00010245283192489296 178.535888671875 -6.103514533606358e-05 0.0 -9.595815658569336 66.31657409667969 0.0017401123186573386 0.00010245283192489296
178.535888671875 -6.103514533606358e-05 0.0 -9.595815658569336 66.31657409667969 0.0017401123186573386 0.00010245283192489296 178.535888671875
-6.103514533606358e-05 0.0 -9.595815658569336 66.31657409667969 0.0017414093017578125 0.00010245283192489296 178.535888671875 -6.103514533606358e-05
0.0 -9.595815658569336 66.31657409667969 0.0017324829241260886 0.00010245283192489296 178.535888671875 -6.103514533606358e-05 0.0
-9.595815658569336 66.31657409667969 0.0017381286015734076 0.00010245283192489296 178.535888671875 -6.103514533606358e-05 0.0 -9.595815658569336
66.31657409667969 0.001732788048684597 0.00010245283192489296 178.535888671875 -6.103514533606358e-05 0.0 -9.595856666564941 66.3166275024414
0.0016838073497638106 0.00010245283192489296 178.54052734375 1.5207342585199513e-05 0.0 -9.595918655395508 66.316650390625 0.001711349468678236
0.00013660377589985728 178.54183959960938 1.669204721110873e-05 0.0 -9.596070289611816 66.3166732788086 0.001728706294670701 0.0002527169999666512
178.5417022705078 7.359257324424107e-06 0.0 -9.596197128295898 66.31681823730469 0.0017280959291383624 0.0004234717052895576 178.55953979492188
0.0001430697157047689 0.0 -9.597407341003418 66.31676483154297 0.0017202758463099599 0.00191928306594491 178.5501708984375 -0.00015258786152116954
0.0 -9.600119590759277 66.31673431396484 0.0017124175792559981 0.003900037845596671 178.5427703857422 -0.00024414058134425431 0.0
-9.605687141418457 66.31684875488281 0.0016918182373046875 0.0072195096872746944 178.55447387695312 -0.0004577635554596782 0.0 -9.61433219909668
66.3169174194336 0.0016733931843191385 0.01141324546188116 178.55393981933594 -0.000732421875 0.0 -9.626157760620117 66.31708526611328
0.0016516875475645065 0.01566845364868641 178.5622100830078 -0.0008850099402479827 0.0 -9.641647338867188 66.31731414794922 0.001627273508347571
0.019882678985595703 178.5758514404297 -0.001068115234375 0.0 -9.66072940826416 66.3174819946289 0.0015995025169104338 0.02292211353778839
178.57928466796875 -0.001312255859375 0.0 -9.682838439941406 66.31771850585938 0.0015849685296416283 0.02620060369372368 178.58761596679688
-0.0014343260554596782 0.0 -9.708624839782715 66.31794738769531 0.0015692138113081455 0.028878038749098778 178.59393310546875 -0.0016479487530887127
0.0 -9.738128662109375 66.31819915771484 0.0015544509515166283 0.03141886740922928 178.59889221191406 -0.0017700191820040345 0.0
-9.770855903625488 66.31853485107422 0.0015451812651008368 0.03339279443025589 178.61651611328125 -0.0018615724984556437 0.0 -9.807353973388672
66.31885528564453 0.0015357971424236894 0.034854453057050705 178.63194274902344 -0.0021057124249637127 0.0 -9.847644805908203 66.31919860839844
0.0015264129033312201 0.0364595465362072 178.6511688232422 -0.002258300082758069 0.0 -9.891618728637695 66.31959533691406 0.0015185928205028176
0.03813294321298599 178.6761474609375 -0.00238037109375 0.0 -9.939657211303711 66.32001495361328 0.0015102386241778731 0.03957411274313927
