planning_aware_eval/interactive/data_collection/interactive/10_i-1_1_c_r_l_1_0/transform/player.npy (npy, 16424 bytes, 1 tensors)

array f8 [291, 7]
000000 00 00 00 60 ab 98 46 c0 00 00 00 60 aa b1 45 40
       -45.19272994995117 43.38801193237305
000010 00 00 00 e0 51 4c 5c 3f 00 00 00 c0 4b 1d 10 3f
       0.0017271804390475154 6.147169915493578e-05
000020 00 00 00 80 e0 d6 56 c0 00 00 00 00 00 00 28 bf
       -91.35745239257812 -0.00018310546875
000030 00 00 00 00 00 00 00 00 00 00 00 60 ab 98 46 c0
       0.0 -45.19272994995117
000040 00 00 00 60 aa b1 45 40 00 00 00 80 eb 69 5c 3f
       43.38801193237305 0.001734237652271986
000050 00 00 00 c0 4b 1d 10 3f 00 00 00 80 e0 d6 56 c0
       6.147169915493578e-05 -91.35745239257812
000060 00 00 00 00 00 00 28 bf 00 00 00 00 00 00 00 00
       -0.00018310546875 0.0
000070 00 00 00 60 ab 98 46 c0 00 00 00 60 aa b1 45 40
       -45.19272994995117 43.38801193237305
000080 00 00 00 80 eb 69 5c 3f 00 00 00 c0 4b 1d 10 3f
       0.001734237652271986 6.147169915493578e-05
000090 00 00 00 80 e0 d6 56 c0 00 00 00 00 00 00 28 bf
       -91.35745239257812 -0.00018310546875
0000a0 00 00 00 00 00 00 00 00 00 00 00 80 ab 98 46 c0
       0.0 -45.19273376464844
0000b0 00 00 00 60 aa b1 45 40 00 00 00 a0 47 69 5c 3f
       43.38801193237305 0.001734085031785071
0000c0 00 00 00 c0 4b 1d 10 3f 00 00 00 00 e1 d6 56 c0
       6.147169915493578e-05 -91.35748291015625
0000d0 00 00 00 e0 ff ff 17 bf 00 00 00 00 00 00 00 00
       -9.155272709904239e-05 0.0
0000e0 00 00 00 00 ac 98 46 c0 00 00 00 60 aa b1 45 40
       -45.1927490234375 43.38801193237305
0000f0 00 00 00 80 c2 75 5c 3f 00 00 00 00 dc a5 0c 3f
       0.0017370604909956455 5.464151035994291e-05
000100 00 00 00 60 e9 d6 56 c0 00 00 00 00 00 00 00 bf
       -91.35799407958984 -3.0517578125e-05
000110 00 00 00 00 00 00 00 00 00 00 00 e0 ac 98 46 c0
       0.0 -45.19277572631836
000120 00 00 00 60 aa b1 45 40 00 00 00 a0 47 a5 5b 3f
       43.38801193237305 0.0016873549902811646
000130 00 00 00 00 dc a5 0c 3f 00 00 00 60 92 d6 56 c0
       5.464151035994291e-05 -91.3526840209961
000140 00 00 00 a0 ff ff 0f bf 00 00 00 00 00 00 00 00
       -6.103514533606358e-05 0.0
000150 00 00 00 c0 ac 98 46 c0 00 00 00 60 aa b1 45 40
       -45.192771911621094 43.38801193237305
000160 00 00 00 80 99 f1 5b 3f 00 00 00 c0 4b 1d 10 3f
       0.00170555105432868 6.147169915493578e-05
000170 00 00 00 80 a0 d6 56 c0 00 00 00 e0 ff ff 0f bf
       -91.35354614257812 -6.103515261202119e-05
000180 00 00 00 00 00 00 00 00 00 00 00 c0 ac 98 46 c0
       0.0 -45.192771911621094
000190 00 00 00 60 aa b1 45 40 00 00 00 e0 28 f8 5b 3f
       43.38801193237305 0.001707115094177425
0001a0 00 00 00 c0 4b 1d 10 3f 00 00 00 80 a0 d6 56 c0
       6.147169915493578e-05 -91.35354614257812
0001b0 00 00 00 e0 ff ff 0f bf 00 00 00 00 00 00 00 00
       -6.103515261202119e-05 0.0
0001c0 00 00 00 c0 ac 98 46 c0 00 00 00 60 aa b1 45 40
       -45.192771911621094 43.38801193237305
0001d0 00 00 00 80 14 02 5c 3f 00 00 00 c0 4b 1d 10 3f
       0.0017094803042709827 6.147169915493578e-05
0001e0 00 00 00 80 a0 d6 56 c0 00 00 00 e0 ff ff 0f bf
       -91.35354614257812 -6.103515261202119e-05
0001f0 00 00 00 00 00 00 00 00 00 00 00 c0 ac 98 46 c0
       0.0 -45.192771911621094
000200 00 00 00 60 aa b1 45 40 00 00 00 a0 1e ed 5b 3f
       43.38801193237305 0.001704482943750918
000210 00 00 00 c0 4b 1d 10 3f 00 00 00 80 a0 d6 56 c0
       6.147169915493578e-05 -91.35354614257812
000220 00 00 00 e0 ff ff 0f bf 00 00 00 00 00 00 00 00
       -6.103515261202119e-05 0.0
000230 00 00 00 c0 ac 98 46 c0 00 00 00 60 aa b1 45 40
       -45.192771911621094 43.38801193237305
000240 00 00 00 c0 f5 fc 5b 3f 00 00 00 c0 4b 1d 10 3f
       0.0017082595732063055 6.147169915493578e-05
000250 00 00 00 80 a0 d6 56 c0 00 00 00 e0 ff ff 0f bf
       -91.35354614257812 -6.103515261202119e-05
000260 00 00 00 00 00 00 00 00 00 00 00 60 ab 98 46 c0
       0.0 -45.19272994995117
000270 00 00 00 60 aa b1 45 40 00 00 00 c0 a3 dc 5b 3f
       43.38801193237305 0.001700553810223937
000280 00 00 00 00 dc a5 0c 3f 00 00 00 60 d3 d6 56 c0
       5.464151035994291e-05 -91.35665130615234
000290 00 00 00 c0 ff ff 23 bf 00 00 00 00 00 00 00 00
       -0.00015258786152116954 0.0
0002a0 00 00 00 00 ab 98 46 c0 00 00 00 00 aa b1 45 40
       -45.192718505859375 43.38800048828125
0002b0 00 00 00 40 e1 06 5c 3f 00 00 00 00 dc a5 0c 3f
       0.0017106246668845415 5.464151035994291e-05
0002c0 00 00 00 60 d3 d6 56 c0 00 00 00 c0 ff ff 23 bf
       -91.35665130615234 -0.00015258786152116954
0002d0 00 00 00 00 00 00 00 00 00 00 00 a0 aa 98 46 c0
       0.0 -45.19270706176758
0002e0 00 00 00 e0 a8 b1 45 40 00 00 00 80 c2 01 5c 3f
       43.38796615600586 0.0017094039358198643
0002f0 00 00 00 00 dc a5 1c 3f 00 00 00 00 d8 d6 56 c0
       0.00010928302071988583 -91.35693359375
000300 00 00 00 00 00 00 18 bf 00 00 00 00 00 00 00 00
       -9.1552734375e-05 0.0
000310 00 00 00 60 aa 98 46 c0 00 00 00 a0 a5 b1 45 40
       -45.19269943237305 43.38786697387695
000320 00 00 00 a0 70 11 5c 3f 00 00 00 00 dc a5 1c 3f
       0.0017131423810496926 0.00010928302071988583
000330 00 00 00 00 d8 d6 56 c0 00 00 00 00 00 00 18 bf
       -91.35693359375 -9.1552734375e-05
000340 00 00 00 00 00 00 00 00 00 00 00 c0 a9 98 46 c0
       0.0 -45.19268035888672
000350 00 00 00 e0 9c b1 45 40 00 00 00 00 d7 cb 5b 3f
       43.38759994506836 0.0016965484246611595
000360 00 00 00 c0 c2 46 37 3f 00 00 00 a0 d6 d6 56 c0
       0.00035516981733962893 -91.35684967041016
000370 00 00 00 20 00 00 24 bf 00 00 00 00 00 00 00 00
       -0.00015258790517691523 0.0
000380 00 00 00 40 a9 98 46 c0 00 00 00 00 87 b1 45 40
       -45.192665100097656 43.386932373046875
000390 00 00 00 a0 1e fd 5b 3f 00 00 00 c0 4b 1d 50 3f
       0.001708297641016543 0.0009835471864789724
0003a0 00 00 00 e0 18 d7 56 c0 00 00 00 40 00 00 10 bf
       -91.36089324951172 -6.103517080191523e-05
0003b0 00 00 00 00 00 00 00 00 00 00 00 80 aa 98 46 c0
       0.0 -45.19270324707031
0003c0 00 00 00 a0 38 b1 45 40 00 00 00 60 3d d2 5b 3f
       43.38454055786133 0.0016980742802843451
0003d0 00 00 00 a0 7a f4 68 3f 00 00 00 80 ce d6 56 c0
       0.003046264173462987 -91.35635375976562
0003e0 00 00 00 80 fe ff 2b bf 00 00 00 00 00 00 00 00
       -0.00021362287225201726 0.0
0003f0 00 00 00 c0 ab 98 46 c0 00 00 00 40 95 b0 45 40
       -45.19274139404297 43.379554748535156
000400 00 00 00 60 3d 92 5b 3f 00 00 00 c0 cb 0b 7a 3f
       0.0016828154912218451 0.00635890569537878
000410 00 00 00 e0 a4 d6 56 c0 00 00 00 80 ff ff 3d bf
       -91.35381317138672 -0.0004577635554596782
000420 00 00 00 00 00 00 00 00 00 00 00 a0 ad 98 46 c0
       0.0 -45.19279861450195
000430 00 00 00 00 b0 af 45 40 00 00 00 e0 7a 6c 5b 3f
       43.37255859375 0.0016738128615543246
000440 00 00 00 c0 f0 ba 82 3f 00 00 00 80 73 d6 56 c0
       0.009145623072981834 -91.35079956054688
000450 00 00 00 a0 ff ff 43 bf 00 00 00 00 00 00 00 00
       -0.0006103513878770173 0.0
000460 00 00 00 a0 ad 98 46 c0 00 00 00 c0 7a ae 45 40
       -45.19279861450195 43.363121032714844
000470 00 00 00 00 d7 3b 5b 3f 00 00 00 40 e3 81 88 3f
       0.0016622161492705345 0.011966491118073463
000480 00 00 00 80 b8 d6 56 c0 00 00 00 c0 ff ff 4a bf
       -91.35501098632812 -0.0008239744929596782
000490 00 00 00 00 00 00 00 00 00 00 00 c0 b0 98 46 c0
       0.0 -45.192893981933594
0004a0 00 00 00 a0 e3 ac 45 40 00 00 00 c0 cc e8 5a 3f
       43.3506965637207 0.001642417861148715
0004b0 00 00 00 40 a3 75 8f 3f 00 00 00 00 22 d6 56 c0
       0.01536109484732151 -91.3458251953125
0004c0 00 00 00 60 00 00 50 bf 00 00 00 00 00 00 00 00
       -0.0009765628492459655 0.0
0004d0 00 00 00 80 b6 98 46 c0 00 00 00 a0 d5 aa 45 40
       -45.19306945800781 43.33464431762695
0004e0 00 00 00 00 00 84 5a 3f 00 00 00 80 a5 3d 93 3f
       0.0016183853149414062 0.018789850175380707
0004f0 00 00 00 80 db d4 56 c0 00 00 00 a0 ff 7f 54 bf
       -91.32589721679688 -0.0012512203538790345
000500 00 00 00 00 00 00 00 00 00 00 00 c0 bb 98 46 c0
       0.0 -45.19322967529297
000510 00 00 00 c0 57 a8 45 40 00 00 00 60 3d 36 5a 3f
       43.31517791748047 0.0015998458256945014
000520 00 00 00 a0 43 c2 96 3f 00 00 00 e0 a4 d3 56 c0
       0.022225433960556984 -91.30693817138672
000530 00 00 00 c0 ff ff 58 bf 00 00 00 00 00 00 00 00
       -0.0015258786734193563 0.0
000540 00 00 00 a0 c1 98 46 c0 00 00 00 20 53 a5 45 40
       -45.19340896606445 43.29159927368164
000550 00 00 00 80 99 d9 59 3f 00 00 00 c0 d0 2d 9a 3f
       0.0015777586959302425 0.02556539699435234
000560 00 00 00 00 2a d2 56 c0 00 00 00 40 00 00 5f bf
       -91.2838134765625 -0.0018920900765806437
000570 00 00 00 00 00 00 00 00 00 00 00 60 c5 98 46 c0
       0.0 -45.19352340698242
000580 00 00 00 60 cd a1 45 40 00 00 00 20 33 8f 59 3f
       43.26408004760742 0.0015600203769281507
000590 00 00 00 c0 47 5e 9d 3f 00 00 00 80 93 d1 56 c0
       0.02867996320128441 -91.27462768554688
0005a0 00 00 00 40 ff bf 60 bf 00 00 00 00 00 00 00 00
       -0.002044676337391138 0.0
0005b0 00 00 00 60 cd 98 46 c0 00 00 00 80 cf 9d 45 40
       -45.19376754760742 43.23289489746094
0005c0 00 00 00 60 8f 5a 59 3f 00 00 00 40 fb 1f a0 3f
       0.0015474701067432761 0.03149399906396866
0005d0 00 00 00 c0 a6 cf 56 c0 00 00 00 c0 ff ff 61 bf
       -91.24455261230469 -0.0021972651593387127
0005e0 00 00 00 00 00 00 00 00 00 00 00 00 d6 98 46 c0
       0.0 -45.19403076171875
0005f0 00 00 00 a0 37 99 45 40 00 00 00 60 8f 12 59 3f
       43.1970100402832 0.0015303039690479636
000600 00 00 00 80 f9 28 a1 3f 00 00 00 00 5d cd 56 c0
       0.03351573646068573 -91.20880126953125
000610 00 00 00 00 00 c0 63 bf 00 00 00 00 00 00 00 00
       -0.002410888671875 0.0
000620 00 00 00 60 db 98 46 c0 00 00 00 20 28 94 45 40
       -45.19419479370117 43.157474517822266
000630 00 00 00 00 00 e8 58 3f 00 00 00 40 d3 4c a2 3f
       0.0015201568603515625 0.0357423797249794
000640 00 00 00 40 aa cb 56 c0 00 00 00 c0 ff bf 66 bf
       -91.18226623535156 -0.0027770991437137127
000650 00 00 00 00 00 00 00 00 00 00 00 20 df 98 46 c0
       0.0 -45.19430923461914
000660 00 00 00 c0 84 8e 45 40 00 00 00 a0 99 b5 58 3f
       43.113426208496094 0.0015081405872479081
000670 00 00 00 00 97 93 a3 3f 00 00 00 60 e8 c9 56 c0
       0.03823539614677429 -91.1548080444336
000680 00 00 00 e0 ff 7f 69 bf 00 00 00 00 00 00 00 00
       -0.0031127927359193563 0.0
000690 00 00 00 00 e4 98 46 c0 00 00 00 20 23 88 45 40
       -45.1944580078125 43.06357192993164
0006a0 00 00 00 a0 70 71 58 3f 00 00 00 c0 07 6e a4 3f
       0.0014918899396434426 0.039901964366436005
0006b0 00 00 00 c0 17 c7 56 c0 00 00 00 80 00 80 6c bf
       -91.11082458496094 -0.0034790048375725746
0006c0 00 00 00 00 00 00 00 00 00 00 00 c0 e5 98 46 c0
       0.0 -45.19451141357422
0006d0 00 00 00 20 91 81 45 40 00 00 00 00 00 7c 58 3f
       43.01224136352539 0.0014944076538085938
0006e0 00 00 00 a0 05 19 a5 3f 00 00 00 e0 6c c4 56 c0
       0.04120652750134468 -91.06914520263672
0006f0 00 00 00 60 ff 7f 6f bf 00 00 00 00 00 00 00 00
       -0.0038452136795967817 0.0
000700 00 00 00 40 e6 98 46 c0 00 00 00 c0 42 7a 45 40
       -45.19452667236328 42.955162048339844
000710 00 00 00 00 00 5c 58 3f 00 00 00 e0 bc ac a5 3f
       0.0014867782592773438 0.042333509773015976
000720 00 00 00 e0 5b c1 56 c0 00 00 00 40 00 e0 70 bf
       -91.02123260498047 -0.004119873978197575
000730 00 00 00 00 00 00 00 00 00 00 00 40 e4 98 46 c0
       0.0 -45.19446563720703
000740 00 00 00 40 91 72 45 40 00 00 00 40 e1 56 58 3f
       42.895057678222656 0.0014855575282126665
000750 00 00 00 60 df 3c a6 3f 00 00 00 e0 51 be 56 c0
       0.04343317076563835 -90.97374725341797
000760 00 00 00 60 00 e0 71 bf 00 00 00 00 00 00 00 00
       -0.004364015068858862 0.0
000770 00 00 00 40 e0 98 46 c0 00 00 00 80 47 6a 45 40
       -45.19434356689453 42.83030700683594
000780 00 00 00 80 c2 45 58 3f 00 00 00 c0 c9 bd a6 3f
       0.0014814757741987705 0.04441671818494797
000790 00 00 00 20 12 bb 56 c0 00 00 00 80 00 a0 72 bf
       -90.92298126220703 -0.004547121003270149
0007a0 00 00 00 00 00 00 00 00 00 00 00 c0 d8 98 46 c0
       0.0 -45.194114685058594
0007b0 00 00 00 80 e0 5f 45 40 00 00 00 c0 f5 60 57 3f
       42.74903869628906 0.0014269256498664618
0007c0 00 00 00 40 cc ce a6 3f 00 00 00 e0 fd b6 56 c0
       0.04454649239778519 -90.85924530029297
0007d0 00 00 00 e0 ff 1f 73 bf 00 00 00 00 00 00 00 00
       -0.004669188987463713 0.0
0007e0 00 00 00 00 d0 98 46 c0 00 00 00 60 9f 56 45 40
       -45.19384765625 42.67673873901367
0007f0 00 00 00 a0 47 c9 57 3f 00 00 00 c0 e9 3c a7 3f
       0.001451797434128821 0.045386604964733124
