planning_aware_eval/obstacle/data_collection/obstacle/10_s-3_1_f_sr/transform/player.npy (npy, 9760 bytes, 1 tensors)

array f8 [172, 7]
-7.51568078994751 69.70223999023438 0.0018245696555823088 -0.013339358381927013 1.4389610290527344 -0.00018310546875 0.0 -7.51568078994751
69.70223999023438 0.0018245696555823088 -0.013339358381927013 1.4389610290527344 -0.00018310546875 0.0 -7.514891147613525 69.70226287841797
0.0016478347824886441 -0.010040377266705036 1.4389710426330566 -0.00015258786152116954 0.0 -7.514220237731934 69.7022705078125 0.001618881244212389
-0.008571887388825417 1.4389631748199463 -0.00012207029067212716 0.0 -7.513683319091797 69.70227813720703 0.0015527724754065275 -0.00707607576623559
1.4389675855636597 -0.00012207029067212716 0.0 -7.513184070587158 69.70230102539062 0.0015456771943718195 -0.005771509371697903 1.4389705657958984
-9.1552734375e-05 0.0 -7.51271390914917 69.70231628417969 0.0015670013381168246 -0.004699169658124447 1.4389734268188477 -9.1552734375e-05
0.0 -7.512258529663086 69.70232391357422 0.0016026687808334827 -0.0038453962188214064 1.4389777183532715 -9.1552734375e-05 0.0
-7.511837482452393 69.70233917236328 0.0016276550013571978 -0.003114566206932068 1.4389870166778564 -6.103515261202119e-05 0.0 -7.511405944824219
69.70234680175781 0.0016630172031000257 -0.0025339999701827765 1.4390003681182861 -9.1552734375e-05 0.0 -7.511004447937012 69.70235443115234
0.0016786574851721525 -0.0020490565802901983 1.4390087127685547 -9.155274165095761e-05 0.0 -7.51063346862793 69.7023696899414 0.0016767119523137808
-0.0016187547007575631 1.438989281654358 -6.103515261202119e-05 0.0 -7.510212421417236 69.70238494873047 0.001696357736364007 -0.001249924534931779
1.4389837980270386 -6.103515261202119e-05 0.0 -7.509793758392334 69.702392578125 0.0016970443539321423 -0.0009493962279520929 1.438973069190979
-6.103515261202119e-05 0.0 -7.509517192840576 69.702392578125 0.0017168807098641992 -0.0011611321242526174 1.4389675855636597 -6.103514533606358e-05
0.0 -7.508866310119629 69.7024154663086 0.0017033385811373591 -0.0008537736139260232 1.4389622211456299 -6.103515261202119e-05 0.0
-7.5081915855407715 69.70243835449219 0.001702117850072682 -0.0006147170206531882 1.438941240310669 -6.103514533606358e-05 0.0 -7.507452011108398
69.70245361328125 0.0017067717853933573 -0.0003961509501095861 1.4389426708221436 -6.103514533606358e-05 0.0 -7.506622791290283 69.70247650146484
0.001720008789561689 -0.00015709434228483588 1.4389593601226807 -9.1552734375e-05 0.0 -7.505259990692139 69.7024917602539 0.0017193221719935536
0.000594226410612464 1.4428787231445312 -6.103514533606358e-05 0.0 -7.502482891082764 69.70256042480469 0.0017163848970085382 0.0026023020036518574
1.4402880668640137 -3.0517576306010596e-05 0.0 -7.498958110809326 69.70266723632812 0.0017062377883121371 0.004084452986717224 1.4382621049880981
-9.1552734375e-05 0.0 -7.494232654571533 69.70281219482422 0.0016952896257862449 0.005320717114955187 1.4338215589523315 -9.155274165095761e-05
0.0 -7.488102912902832 69.70291137695312 0.0016773605020716786 0.0065979622304439545 1.4418306350708008 -6.103515625e-05 0.0
-7.479633808135986 69.70314025878906 0.0016328048659488559 0.008025472052395344 1.4388959407806396 -9.1552734375e-05 0.0 -7.471062660217285
69.70338439941406 0.0016550063155591488 0.009220754727721214 1.436631202697754 -0.00015258787607308477 0.0 -7.46103572845459 69.70361328125
0.0016638946253806353 0.010340905748307705 1.4430874586105347 -0.00015258787607308477 0.0 -7.448192596435547 69.70394897460938 0.001638336107134819
0.011734263971447945 1.4382416009902954 1.0328242751711514e-05 0.0 -7.434776306152344 69.70415496826172 0.0016378021100535989 0.012103094719350338
1.4531903266906738 7.926144462544471e-05 0.0 -7.4207048416137695 69.70451354980469 0.0016506194369867444 0.012389962561428547 1.4559204578399658
-0.00012207030522404239 0.0 -7.403411865234375 69.70503234863281 0.001623878488317132 0.012868075631558895 1.450035572052002 -0.00030517575214616954
0.0 -7.385775089263916 69.70550537109375 0.001634788466617465 0.014077018946409225 1.4479155540466309 -0.00015258790517691523 0.0
-7.366309642791748 69.7059326171875 0.0016408538212999701 0.01536792516708374 1.4627022743225098 -0.0001220703125 0.0 -7.344912528991699
69.70637512207031 0.0016399383312091231 0.01598947122693062 1.4792107343673706 -9.155274165095761e-05 0.0 -7.320156574249268 69.70706176757812
0.0016189956804737449 0.016590528190135956 1.4706202745437622 -6.103516352595761e-05 0.0 -7.294942378997803 69.70771026611328 0.0016246795421466231
0.01792241632938385 1.4636996984481812 6.241447408683598e-05 0.0 -7.2679009437561035 69.70836639404297 0.001625976525247097 0.01801120862364769
00000000: 0000 00a0 0e10 1ec0 0000 0080 f16c 5140
00000010: 0000 00c0 cce4 5d3f 0000 0060 aa51 8bbf
00000020: 0000 0000 fc05 f73f 0000 0000 0000 28bf
00000030: 0000 0000 0000 0000 0000 00a0 0e10 1ec0
00000040: 0000 0080 f16c 5140 0000 00c0 cce4 5d3f
00000050: 0000 0060 aa51 8bbf 0000 0000 fc05 f73f
00000060: 0000 0000 0000 28bf 0000 0000 0000 0000
00000070: 0000 00a0 3f0f 1ec0 0000 00e0 f16c 5140
00000080: 0000 0020 85ff 5a3f 0000 00a0 0c90 84bf
00000090: 0000 0080 0606 f73f 0000 00c0 ffff 23bf
000000a0: 0000 0000 0000 0000 0000 00c0 8f0e 1ec0
000000b0: 0000 0000 f26c 5140 0000 0080 1486 5a3f
000000c0: 0000 0040 238e 81bf 0000 0040 fe05 f73f
000000d0: 0000 00a0 ffff 1fbf 0000 0000 0000 0000
000000e0: 0000 0000 030e 1ec0 0000 0020 f26c 5140
000000f0: 0000 00c0 cc70 593f 0000 00a0 cdfb 7cbf
00000100: 0000 00e0 0206 f73f 0000 00a0 ffff 1fbf
00000110: 0000 0000 0000 0000 0000 0020 800d 1ec0
00000120: 0000 0080 f26c 5140 0000 0040 0a53 593f
00000130: 0000 00c0 dda3 77bf 0000 0000 0606 f73f
00000140: 0000 0000 0000 18bf 0000 0000 0000 0000
00000150: 0000 00e0 040d 1ec0 0000 00c0 f26c 5140
00000160: 0000 00e0 7aac 593f 0000 00c0 6f3f 73bf
00000170: 0000 0000 0906 f73f 0000 0000 0000 18bf
00000180: 0000 0000 0000 0000 0000 0080 8d0c 1ec0
00000190: 0000 00e0 f26c 5140 0000 0080 1442 5a3f
000001a0: 0000 0060 6180 6fbf 0000 0080 0d06 f73f
000001b0: 0000 0000 0000 18bf 0000 0000 0000 0000
000001c0: 0000 0020 1f0c 1ec0 0000 0020 f36c 5140
000001d0: 0000 0040 e1aa 5a3f 0000 0000 b883 69bf
000001e0: 0000 0040 1706 f73f 0000 00e0 ffff 0fbf
000001f0: 0000 0000 0000 0000 0000 0000 ae0b 1ec0
00000200: 0000 0040 f36c 5140 0000 0020 333f 5b3f
00000210: 0000 00e0 2ec2 64bf 0000 0040 2506 f73f
00000220: 0000 0000 0000 18bf 0000 0000 0000 0000
00000230: 0000 00c0 440b 1ec0 0000 0060 f36c 5140
00000240: 0000 00c0 cc80 5b3f 0000 00e0 2ec9 60bf
00000250: 0000 0000 2e06 f73f 0000 0020 0000 18bf
00000260: 0000 0000 0000 0000 0000 0080 e30a 1ec0
00000270: 0000 00a0 f36c 5140 0000 00c0 a378 5b3f
00000280: 0000 00a0 8c85 5abf 0000 00a0 1906 f73f
00000290: 0000 00e0 ffff 0fbf 0000 0000 0000 0000
000002a0: 0000 0020 750a 1ec0 0000 00e0 f36c 5140
000002b0: 0000 0040 0acb 5b3f 0000 0040 907a 54bf
000002c0: 0000 00e0 1306 f73f 0000 00e0 ffff 0fbf
000002d0: 0000 0000 0000 0000 0000 0060 070a 1ec0
000002e0: 0000 0000 f46c 5140 0000 0080 ebcd 5b3f
000002f0: 0000 00e0 1c1c 4fbf 0000 00a0 0806 f73f
00000300: 0000 00e0 ffff 0fbf 0000 0000 0000 0000
00000310: 0000 00e0 be09 1ec0 0000 0000 f46c 5140
00000320: 0000 00a0 1e21 5c3f 0000 0020 2406 53bf
00000330: 0000 00e0 0206 f73f 0000 00a0 ffff 0fbf
00000340: 0000 0000 0000 0000 0000 0040 1409 1ec0
00000350: 0000 0060 f46c 5140 0000 00e0 51e8 5b3f
00000360: 0000 00e0 f8f9 4bbf 0000 0040 fd05 f73f
00000370: 0000 00e0 ffff 0fbf 0000 0000 0000 0000
00000380: 0000 0060 6308 1ec0 0000 00c0 f46c 5140
00000390: 0000 0020 33e3 5b3f 0000 00c0 9e24 44bf
000003a0: 0000 0040 e705 f73f 0000 00a0 ffff 0fbf
000003b0: 0000 0000 0000 0000 0000 0080 a107 1ec0
000003c0: 0000 0000 f56c 5140 0000 0040 b8f6 5b3f
000003d0: 0000 0060 4ff6 39bf 0000 00c0 e805 f73f
000003e0: 0000 00a0 ffff 0fbf 0000 0000 0000 0000
000003f0: 0000 0020 c806 1ec0 0000 0060 f56c 5140
00000400: 0000 0060 3d2e 5c3f 0000 0020 3697 24bf
00000410: 0000 0040 fa05 f73f 0000 0000 0000 18bf
00000420: 0000 0000 0000 0000 0000 00e0 6205 1ec0
00000430: 0000 00a0 f56c 5140 0000 0020 5c2b 5c3f
00000440: 0000 0080 bb78 433f 0000 0000 0816 f73f
00000450: 0000 00a0 ffff 0fbf 0000 0000 0000 0000
00000460: 0000 00e0 8a02 1ec0 0000 00c0 f66c 5140
00000470: 0000 0040 0a1f 5c3f 0000 0040 6c51 653f
00000480: 0000 0080 6b0b f73f 0000 00e0 ffff ffbe
00000490: 0000 0000 0000 0000 0000 00e0 eefe 1dc0
000004a0: 0000 0080 f86c 5140 0000 00e0 7af4 5b3f
000004b0: 0000 0000 dcba 703f 0000 0020 1f03 f73f
000004c0: 0000 0000 0000 18bf 0000 0000 0000 0000
000004d0: 0000 0020 18fa 1dc0 0000 00e0 fa6c 5140
000004e0: 0000 0060 8fc6 5b3f 0000 0020 2dcb 753f
000004f0: 0000 00e0 eef0 f63f 0000 0020 0000 18bf
00000500: 0000 0000 0000 0000 0000 0040 d1f3 1dc0
00000510: 0000 0080 fc6c 5140 0000 0020 5c7b 5b3f
00000520: 0000 0000 7706 7b3f 0000 0000 bd11 f73f
00000530: 0000 0000 0000 10bf 0000 0000 0000 0000
00000540: 0000 0020 25eb 1dc0 0000 0040 006d 5140
00000550: 0000 00e0 7ac0 5a3f 0000 00a0 a86f 803f
00000560: 0000 00c0 b705 f73f 0000 0000 0000 18bf
00000570: 0000 0000 0000 0000 0000 0040 5ee2 1dc0
00000580: 0000 0040 046d 5140 0000 0080 991d 5b3f
00000590: 0000 00c0 54e2 823f 0000 0000 71fc f63f
000005a0: 0000 00e0 ffff 23bf 0000 0000 0000 0000
000005b0: 0000 00c0 19d8 1dc0 0000 0000 086d 5140
000005c0: 0000 0040 e142 5b3f 0000 00e0 9c2d 853f
000005d0: 0000 00e0 e216 f73f 0000 00e0 ffff 23bf
000005e0: 0000 0000 0000 0000 0000 0000 f3ca 1dc0
000005f0: 0000 0080 0d6d 5140 0000 0000 aed7 5a3f
00000600: 0000 0040 2208 883f 0000 00a0 0903 f73f
00000610: 0000 00e0 eea8 e53e 0000 0000 0000 0000
00000620: 0000 0000 36bd 1dc0 0000 00e0 106d 5140
00000630: 0000 00a0 70d5 5a3f 0000 00e0 81c9 883f
00000640: 0000 0080 4440 f73f 0000 0040 25c7 143f
00000650: 0000 0000 0000 0000 0000 0040 cdae 1dc0
00000660: 0000 00c0 166d 5140 0000 0020 330b 5b3f
00000670: 0000 00a0 e85f 893f 0000 0040 734b f73f
00000680: 0000 00e0 ffff 1fbf 0000 0000 0000 0000
00000690: 0000 0000 189d 1dc0 0000 0040 1f6d 5140
000006a0: 0000 0040 0a9b 5a3f 0000 00e0 935a 8a3f
000006b0: 0000 0080 5833 f73f 0000 00e0 ffff 33bf
000006c0: 0000 0000 0000 0000 0000 00a0 088b 1dc0
000006d0: 0000 0000 276d 5140 0000 00c0 ccc8 5a3f
000006e0: 0000 0080 69d4 8c3f 0000 0080 a92a f73f
000006f0: 0000 0020 0000 24bf 0000 0000 0000 0000
00000700: 0000 00e0 1977 1dc0 0000 0000 2e6d 5140
00000710: 0000 0060 3de2 5a3f 0000 0000 3879 8f3f
00000720: 0000 0080 3a67 f73f 0000 0000 0000 20bf
00000730: 0000 0000 0000 0000 0000 00c0 3061 1dc0
00000740: 0000 0040 356d 5140 0000 0060 66de 5a3f
00000750: 0000 0040 8b5f 903f 0000 00e0 d8aa f73f
00000760: 0000 0020 0000 18bf 0000 0000 0000 0000
00000770: 0000 0020 d747 1dc0 0000 0080 406d 5140
00000780: 0000 0060 8f86 5a3f 0000 0080 1bfd 903f
00000790: 0000 0020 a987 f73f 0000 0020 0000 10bf
000007a0: 0000 0000 0000 0000 0000 0060 052e 1dc0
000007b0: 0000 0020 4b6d 5140 0000 0060 669e 5a3f
000007c0: 0000 0000 415a 923f 0000 0060 506b f73f
000007d0: 0000 0080 905c 103f 0000 0000 0000 0000
000007e0: 0000 00a0 5412 1dc0 0000 00e0 556d 5140
000007f0: 0000 0000 d7a3 5a3f 0000 00c0 8771 923f
