planning_aware_eval/interactive/data_collection/interactive/10_i-1_1_c_f_f_1_rl/transform/player.npy (npy, 14800 bytes, 1 tensors)

array f8 [262, 7]
-77.60906219482422 27.98221206665039 0.0017375946044921875 8.879245433490723e-05 -0.0944213792681694 -3.0517578125e-05 0.0 -77.60906219482422
27.98221206665039 0.0017321014311164618 8.879245433490723e-05 -0.0944213792681694 -3.0517578125e-05 0.0 -77.60906219482422 27.98221206665039
0.0017337417230010033 8.879245433490723e-05 -0.0944213792681694 -3.0517578125e-05 0.0 -77.60906219482422 27.98221206665039 0.0017337417230010033
8.879245433490723e-05 -0.0944213792681694 -3.0517578125e-05 0.0 -77.60906219482422 27.98221206665039 0.0017349242698401213 8.879245433490723e-05
-0.0944213792681694 -3.0517578125e-05 0.0 -77.60906219482422 27.98221206665039 0.0017349242698401213 8.879245433490723e-05 -0.0944213792681694
-3.0517578125e-05 0.0 -77.60906219482422 27.98221206665039 0.0017272948753088713 8.879245433490723e-05 -0.0944213792681694 -3.0517578125e-05
0.0 -77.60906219482422 27.98221206665039 0.0017272948753088713 8.879245433490723e-05 -0.0944213792681694 -3.0517578125e-05 0.0
-77.60906219482422 27.98221206665039 0.0017333984142169356 8.879245433490723e-05 -0.0944213792681694 -3.0517578125e-05 0.0 -77.60906219482422
27.98221206665039 0.0017310333205386996 8.879245433490723e-05 -0.0944213792681694 -3.0517578125e-05 0.0 -77.60906219482422 27.98221206665039
0.0017322158673778176 8.879245433490723e-05 -0.0944213792681694 -3.0517578125e-05 0.0 -77.60906219482422 27.98221206665039 0.0017353057628497481
8.879245433490723e-05 -0.0944213792681694 -3.0517578125e-05 0.0 -77.6094970703125 27.982248306274414 0.0017335510347038507 -0.00045762263471260667
-0.100189208984375 -6.103516352595761e-05 0.0 -77.60982513427734 27.98225212097168 0.0017358016921207309 -0.0005532453069463372 -0.10064697265625
-6.103515625e-05 0.0 -77.610107421875 27.98226547241211 0.0017385863466188312 -0.0004917735932394862 -0.10125732421875 -9.155272709904239e-05
0.0 -77.61001586914062 27.982269287109375 0.0017378234770148993 0.00012294339830987155 -0.09820556640625 -0.00018310546875 0.0
-77.60856628417969 27.9822940826416 0.0017226791242137551 0.001912452862598002 -0.0981750562787056 -0.00018310546875 0.0 -77.60382843017578
27.982328414916992 0.0017037963261827826 0.006099358666688204 -0.1009216234087944 -0.00015258784696925431 0.0 -77.59528350830078 27.982421875
0.001671218778938055 0.011003433726727962 -0.10736083984375 -0.0003662109375 0.0 -77.58162689208984 27.98246192932129 0.001634521409869194
0.01783362217247486 -0.09124755859375 -0.0007324219332076609 0.0 -77.56217956542969 27.982555389404297 0.0015899657737463713 0.025148754939436913
-0.072540283203125 -0.0010986329289153218 0.0 -77.53785705566406 27.982770919799805 0.0015567779773846269 0.031733058393001556 -0.0615844689309597
-0.0014038084773346782 0.0 -77.50769805908203 27.982988357543945 0.0015233230078592896 0.037176717072725296 -0.046051025390625 -0.00146484375
0.0 -77.46987915039062 27.983234405517578 0.0014794921735301614 0.042852602899074554 -0.02224731259047985 -0.001617431640625 0.0
-77.42776489257812 27.983598709106445 0.0014564513694494963 0.04807087033987045 -0.009704588912427425 -0.001739501953125 0.0 -77.378662109375
27.983999252319336 0.0014307021629065275 0.052496831864118576 0.011848264373838902 -0.0019226073054596782 0.0 -77.32337951660156 27.98450469970703
0.0014085005968809128 0.05660177394747734 0.030524764209985733 -0.0021362302359193563 0.0 -77.26193237304688 27.9851016998291 0.001389999408274889
0.060092002153396606 0.04820306971669197 -0.002288818359375 0.0 -77.19338989257812 27.985782623291016 0.0013715361710637808 0.0629265308380127
0.06904329359531403 -0.0024414060171693563 0.0 -77.1178970336914 27.98653793334961 0.0013554763281717896 0.06512585282325745 0.09354892373085022
-0.0025634763296693563 0.0 -77.03836822509766 27.987356185913086 0.0013504408998414874 0.06676509231328964 0.12091442942619324 -0.0026550290640443563
0.0 -76.95111846923828 27.98827362060547 0.001341972267255187 0.06786475330591202 0.15172907710075378 -0.0028076171875 0.0
-76.85682678222656 27.98931884765625 0.0013341521844267845 0.06854777783155441 0.18509630858898163 -0.0029602048452943563 0.0 -76.75997161865234
27.990436553955078 0.0013379286974668503 0.06897124648094177 0.21957440674304962 -0.0031433100812137127 0.0 -76.65631866455078 27.99169158935547
0.0013379668816924095 0.06912834197282791 0.2561173439025879 -0.0033264155499637127 0.0 -76.54603576660156 27.993093490600586 0.0013373947003856301
0.06897807866334915 0.2948008179664612 -0.003479003207758069 0.0 -76.42710876464844 27.994680404663086 0.0013330840738490224 0.06849313527345657
00000000: 0000 00e0 fa66 53c0 0000 0040 72fb 3b40
00000010: 0000 0000 0078 5c3f 0000 00c0 c246 173f
00000020: 0000 00e0 ff2b b8bf 0000 0000 0000 00bf
00000030: 0000 0000 0000 0000 0000 00e0 fa66 53c0
00000040: 0000 0040 72fb 3b40 0000 00c0 f560 5c3f
00000050: 0000 00c0 c246 173f 0000 00e0 ff2b b8bf
00000060: 0000 0000 0000 00bf 0000 0000 0000 0000
00000070: 0000 00e0 fa66 53c0 0000 0040 72fb 3b40
00000080: 0000 0000 d767 5c3f 0000 00c0 c246 173f
00000090: 0000 00e0 ff2b b8bf 0000 0000 0000 00bf
000000a0: 0000 0000 0000 0000 0000 00e0 fa66 53c0
000000b0: 0000 0040 72fb 3b40 0000 0000 d767 5c3f
000000c0: 0000 00c0 c246 173f 0000 00e0 ff2b b8bf
000000d0: 0000 0000 0000 00bf 0000 0000 0000 0000
000000e0: 0000 00e0 fa66 53c0 0000 0040 72fb 3b40
000000f0: 0000 00c0 cc6c 5c3f 0000 00c0 c246 173f
00000100: 0000 00e0 ff2b b8bf 0000 0000 0000 00bf
00000110: 0000 0000 0000 0000 0000 00e0 fa66 53c0
00000120: 0000 0040 72fb 3b40 0000 00c0 cc6c 5c3f
00000130: 0000 00c0 c246 173f 0000 00e0 ff2b b8bf
00000140: 0000 0000 0000 00bf 0000 0000 0000 0000
00000150: 0000 00e0 fa66 53c0 0000 0040 72fb 3b40
00000160: 0000 00c0 cc4c 5c3f 0000 00c0 c246 173f
00000170: 0000 00e0 ff2b b8bf 0000 0000 0000 00bf
00000180: 0000 0000 0000 0000 0000 00e0 fa66 53c0
00000190: 0000 0040 72fb 3b40 0000 00c0 cc4c 5c3f
000001a0: 0000 00c0 c246 173f 0000 00e0 ff2b b8bf
000001b0: 0000 0000 0000 00bf 0000 0000 0000 0000
000001c0: 0000 00e0 fa66 53c0 0000 0040 72fb 3b40
000001d0: 0000 0060 6666 5c3f 0000 00c0 c246 173f
000001e0: 0000 00e0 ff2b b8bf 0000 0000 0000 00bf
000001f0: 0000 0000 0000 0000 0000 00e0 fa66 53c0
00000200: 0000 0040 72fb 3b40 0000 00e0 7a5c 5c3f
00000210: 0000 00c0 c246 173f 0000 00e0 ff2b b8bf
00000220: 0000 0000 0000 00bf 0000 0000 0000 0000
00000230: 0000 00e0 fa66 53c0 0000 0040 72fb 3b40
00000240: 0000 00a0 7061 5c3f 0000 00c0 c246 173f
00000250: 0000 00e0 ff2b b8bf 0000 0000 0000 00bf
00000260: 0000 0000 0000 0000 0000 00e0 fa66 53c0
00000270: 0000 0040 72fb 3b40 0000 0060 666e 5c3f
00000280: 0000 00c0 c246 173f 0000 00e0 ff2b b8bf
00000290: 0000 0000 0000 00bf 0000 0000 0000 0000
000002a0: 0000 0000 0267 53c0 0000 00a0 74fb 3b40
000002b0: 0000 0040 0a67 5c3f 0000 0040 a2fd 3dbf
000002c0: 0000 0000 00a6 b9bf 0000 0020 0000 10bf
000002d0: 0000 0000 0000 0000 0000 0060 0767 53c0
000002e0: 0000 00e0 74fb 3b40 0000 00e0 7a70 5c3f
000002f0: 0000 0040 f520 42bf 0000 0000 00c4 b9bf
00000300: 0000 0000 0000 10bf 0000 0000 0000 0000
00000310: 0000 0000 0c67 53c0 0000 00c0 75fb 3b40
00000320: 0000 00e0 287c 5c3f 0000 00c0 4b1d 40bf
00000330: 0000 0000 00ec b9bf 0000 00e0 ffff 17bf
00000340: 0000 0000 0000 0000 0000 0080 0a67 53c0
00000350: 0000 0000 76fb 3b40 0000 00c0 f578 5c3f
00000360: 0000 00c0 4b1d 203f 0000 0000 0024 b9bf
00000370: 0000 0000 0000 28bf 0000 0000 0000 0000
00000380: 0000 00c0 f266 53c0 0000 00a0 77fb 3b40
00000390: 0000 00a0 7039 5c3f 0000 00a0 6855 5f3f
000003a0: 0000 0020 0022 b9bf 0000 0000 0000 28bf
000003b0: 0000 0000 0000 0000 0000 0020 a566 53c0
000003c0: 0000 00e0 79fb 3b40 0000 0060 3dea 5b3f
000003d0: 0000 0020 a4fb 783f 0000 00e0 ffd5 b9bf
000003e0: 0000 00a0 ffff 23bf 0000 0000 0000 0000
000003f0: 0000 0020 1966 53c0 0000 0000 80fb 3b40
00000400: 0000 0080 9961 5b3f 0000 00e0 f788 863f
00000410: 0000 0000 007c bbbf 0000 0000 0000 38bf
00000420: 0000 0000 0000 0000 0000 0060 3965 53c0
00000430: 0000 00a0 82fb 3b40 0000 0000 aec7 5a3f
00000440: 0000 0020 fa42 923f 0000 0000 005c b7bf
00000450: 0000 0020 0000 48bf 0000 0000 0000 0000
00000460: 0000 00c0 fa63 53c0 0000 00c0 88fb 3b40
00000470: 0000 00c0 cc0c 5a3f 0000 0060 98c0 993f
00000480: 0000 0000 0092 b2bf 0000 0020 0000 52bf
00000490: 0000 0000 0000 0000 0000 0040 6c62 53c0
000004a0: 0000 00e0 96fb 3b40 0000 00a0 9981 593f
000004b0: 0000 00c0 503f a03f 0000 00e0 ff87 afbf
000004c0: 0000 00e0 ffff 56bf 0000 0000 0000 0000
000004d0: 0000 0020 7e60 53c0 0000 0020 a5fb 3b40
000004e0: 0000 00a0 47f5 583f 0000 00a0 d308 a33f
000004f0: 0000 0000 0094 a7bf 0000 0000 0000 58bf
00000500: 0000 0000 0000 0000 0000 0080 125e 53c0
00000510: 0000 0040 b5fb 3b40 0000 00a0 703d 583f
00000520: 0000 00c0 c6f0 a53f 0000 00e0 ffc7 96bf
00000530: 0000 0000 0080 5abf 0000 0000 0000 0000
00000540: 0000 0080 605b 53c0 0000 0020 cdfb 3b40
00000550: 0000 00c0 ccdc 573f 0000 00c0 be9c a83f
00000560: 0000 00e0 ffdf 83bf 0000 0000 0080 5cbf
00000570: 0000 0000 0000 0000 0000 0000 3c58 53c0
00000580: 0000 0060 e7fb 3b40 0000 00c0 cc70 573f
00000590: 0000 0060 dde0 aa3f 0000 0020 e743 883f
000005a0: 0000 00e0 ff7f 5fbf 0000 0000 0000 0000
000005b0: 0000 0040 b254 53c0 0000 0080 08fc 3b40
000005c0: 0000 0000 ae13 573f 0000 0060 e8fa ac3f
000005d0: 0000 0040 e241 9f3f 0000 00e0 ff7f 61bf
000005e0: 0000 0000 0000 0000 0000 0080 c350 53c0
000005f0: 0000 00a0 2ffc 3b40 0000 0080 14c6 563f
00000600: 0000 0000 61c4 ae3f 0000 00a0 12ae a83f
00000610: 0000 0000 00c0 62bf 0000 0000 0000 0000
00000620: 0000 0080 604c 53c0 0000 0040 5cfc 3b40
00000630: 0000 00c0 a378 563f 0000 0000 f41b b03f
00000640: 0000 0040 d2ac b13f 0000 00e0 ffff 63bf
00000650: 0000 0000 0000 0000 0000 00a0 8b47 53c0
00000660: 0000 00c0 8dfc 3b40 0000 00a0 4735 563f
00000670: 0000 0080 16ac b03f 0000 0080 d2f2 b73f
00000680: 0000 00e0 ffff 64bf 0000 0000 0000 0000
00000690: 0000 00a0 7442 53c0 0000 0060 c3fc 3b40
000006a0: 0000 00e0 2820 563f 0000 0060 8417 b13f
000006b0: 0000 0080 3ff4 be3f 0000 00e0 ffbf 65bf
000006c0: 0000 0000 0000 0000 0000 0020 df3c 53c0
000006d0: 0000 0080 fffc 3b40 0000 00c0 a3fc 553f
000006e0: 0000 00a0 955f b13f 0000 00c0 db6b c33f
000006f0: 0000 0000 0000 67bf 0000 0000 0000 0000
00000700: 0000 0040 d636 53c0 0000 0000 44fd 3b40
00000710: 0000 0000 d7db 553f 0000 00e0 588c b13f
00000720: 0000 0060 3cb1 c73f 0000 00e0 ff3f 68bf
00000730: 0000 0000 0000 0000 0000 0060 a330 53c0
00000740: 0000 0040 8dfd 3b40 0000 0000 aeeb 553f
00000750: 0000 0080 19a8 b13f 0000 00a0 031b cc3f
00000760: 0000 00c0 ffbf 69bf 0000 0000 0000 0000
00000770: 0000 0020 012a 53c0 0000 0080 dffd 3b40
00000780: 0000 0000 d7eb 553f 0000 0020 65b2 b13f
00000790: 0000 0000 3a64 d03f 0000 00c0 ff3f 6bbf
000007a0: 0000 0000 0000 0000 0000 0040 f222 53c0
000007b0: 0000 0060 3bfe 3b40 0000 00a0 70e9 553f
000007c0: 0000 0020 8ca8 b13f 0000 0040 04de d23f
000007d0: 0000 00a0 ff7f 6cbf 0000 0000 0000 0000
000007e0: 0000 00c0 551b 53c0 0000 0060 a3fe 3b40
000007f0: 0000 0020 5cd7 553f 0000 0020 c488 b13f
