planning_aware_eval/obstacle/data_collection/obstacle/10_s-4_2_f_sl/transform/player.npy (npy, 10936 bytes, 1 tensors)

array f8 [193, 7]
00000000: 0000 0040 3947 4a40 0000 0000 476d 3c40
00000010: 0000 0060 3d4e 5c3f 0000 00c0 4b1d 30bf
00000020: 0000 0060 0a4f f53f 0000 00e0 ffff 0fbf
00000030: 0000 0000 0000 0000 0000 0040 3947 4a40
00000040: 0000 0000 476d 3c40 0000 0060 3d4e 5c3f
00000050: 0000 00c0 4b1d 30bf 0000 0060 0a4f f53f
00000060: 0000 00e0 ffff 0fbf 0000 0000 0000 0000
00000070: 0000 0040 3947 4a40 0000 0000 476d 3c40
00000080: 0000 0060 3d4e 5c3f 0000 00c0 4b1d 30bf
00000090: 0000 0060 0a4f f53f 0000 00e0 ffff 0fbf
000000a0: 0000 0000 0000 0000 0000 0040 3947 4a40
000000b0: 0000 0000 476d 3c40 0000 0060 3d4e 5c3f
000000c0: 0000 00c0 4b1d 30bf 0000 0060 0a4f f53f
000000d0: 0000 00e0 ffff 0fbf 0000 0000 0000 0000
000000e0: 0000 0040 3947 4a40 0000 0000 476d 3c40
000000f0: 0000 0060 3d4e 5c3f 0000 00c0 4b1d 30bf
00000100: 0000 0060 0a4f f53f 0000 00e0 ffff 0fbf
00000110: 0000 0000 0000 0000 0000 00a0 4e47 4a40
00000120: 0000 0000 486d 3c40 0000 00e0 7a28 5a3f
00000130: 0000 0020 3697 443f 0000 0000 144f f53f
00000140: 0000 0000 0000 10bf 0000 0000 0000 0000
00000150: 0000 00e0 6047 4a40 0000 00e0 486d 3c40
00000160: 0000 00c0 f540 593f 0000 0020 adc0 4b3f
00000170: 0000 0060 0f4f f53f 0000 00a0 ffff 0fbf
00000180: 0000 0000 0000 0000 0000 0060 7247 4a40
00000190: 0000 0080 496d 3c40 0000 0060 3d5a 593f
000001a0: 0000 0020 adc0 4b3f 0000 0060 0f4f f53f
000001b0: 0000 00a0 ffff 0fbf 0000 0000 0000 0000
000001c0: 0000 00c0 8147 4a40 0000 0040 4a6d 3c40
000001d0: 0000 0000 009c 593f 0000 0020 adc0 4b3f
000001e0: 0000 0060 0f4f f53f 0000 00a0 ffff 0fbf
000001f0: 0000 0000 0000 0000 0000 00e0 8e47 4a40
00000200: 0000 00e0 4a6d 3c40 0000 0080 ebad 593f
00000210: 0000 00c0 9e24 443f 0000 0060 024f f53f
00000220: 0000 00e0 ffff 0fbf 0000 0000 0000 0000
00000230: 0000 0060 9b47 4a40 0000 0080 4b6d 3c40
00000240: 0000 0060 66fe 593f 0000 00c0 9e24 443f
00000250: 0000 0060 024f f53f 0000 00e0 ffff 0fbf
00000260: 0000 0000 0000 0000 0000 00a0 a747 4a40
00000270: 0000 0020 4c6d 3c40 0000 00c0 cc74 5a3f
00000280: 0000 00e0 0a8b 3d3f 0000 0000 034f f53f
00000290: 0000 00e0 ffff 0fbf 0000 0000 0000 0000
000002a0: 0000 0000 b347 4a40 0000 00c0 4c6d 3c40
000002b0: 0000 0040 0abf 5a3f 0000 00e0 0a8b 3d3f
000002c0: 0000 0000 034f f53f 0000 00e0 ffff 0fbf
000002d0: 0000 0000 0000 0000 0000 0000 bf47 4a40
000002e0: 0000 0060 4d6d 3c40 0000 0020 5c33 5b3f
000002f0: 0000 00e0 0a8b 3d3f 0000 0000 034f f53f
00000300: 0000 00e0 ffff 0fbf 0000 0000 0000 0000
00000310: 0000 00a0 ca47 4a40 0000 0000 4e6d 3c40
00000320: 0000 0060 666a 5b3f 0000 00e0 0a8b 3d3f
00000330: 0000 0000 034f f53f 0000 00e0 ffff 0fbf
00000340: 0000 0000 0000 0000 0000 0080 d547 4a40
00000350: 0000 0060 4e6d 3c40 0000 0060 665e 5b3f
00000360: 0000 0000 657c 353f 0000 0040 fe4e f53f
00000370: 0000 0000 0000 18bf 0000 0000 0000 0000
00000380: 0000 0020 e047 4a40 0000 0000 4f6d 3c40
00000390: 0000 0060 661a 5b3f 0000 0000 657c 353f
000003a0: 0000 0040 fe4e f53f 0000 0000 0000 18bf
000003b0: 0000 0000 0000 0000 0000 0040 ed47 4a40
000003c0: 0000 00a0 4f6d 3c40 0000 0060 3d5a 5b3f
000003d0: 0000 0000 657c 353f 0000 0040 fe4e f53f
000003e0: 0000 0000 0000 18bf 0000 0000 0000 0000
000003f0: 0000 00e0 e547 4a40 0000 0000 4f6d 3c40
00000400: 0000 00c0 f5ec 5a3f 0000 0040 a2fd 3dbf
00000410: 0000 0020 1b4f f53f 0000 00e0 ffff 0fbf
00000420: 0000 0000 0000 0000 0000 00c0 eb47 4a40
00000430: 0000 0060 4f6d 3c40 0000 0020 33bb 5b3f
00000440: 0000 0040 a2fd 3dbf 0000 0020 1b4f f53f
00000450: 0000 00e0 ffff 0fbf 0000 0000 0000 0000
00000460: 0000 0040 f847 4a40 0000 0000 506d 3c40
00000470: 0000 00a0 1e1d 5c3f 0000 0000 dca5 2cbf
00000480: 0000 0020 154f f53f 0000 00e0 ffff ffbe
00000490: 0000 0000 0000 0000 0000 0020 0b48 4a40
000004a0: 0000 00c0 506d 3c40 0000 00a0 4759 5c3f
000004b0: 0000 0040 7edb 1a3f 0000 00e0 214f f53f
000004c0: 0000 00e0 ffff 0fbf 0000 0000 0000 0000
000004d0: 0000 0040 2848 4a40 0000 00e0 516d 3c40
000004e0: 0000 0060 3d9a 5c3f 0000 00c0 9e24 443f
000004f0: 0000 0000 0352 f53f 0000 0000 0000 00bf
00000500: 0000 0000 0000 0000 0000 00c0 6d48 4a40
00000510: 0000 0020 576d 3c40 0000 0020 8593 5c3f
00000520: 0000 00c0 c24d 633f 0000 0000 ec3c f53f
00000530: 0000 00a0 ffff 0fbf 0000 0000 0000 0000
00000540: 0000 00c0 c848 4a40 0000 0080 5a6d 3c40
00000550: 0000 0000 0044 5c3f 0000 00e0 6f31 6b3f
00000560: 0000 00a0 7e3c f53f 0000 0060 fe07 f43e
00000570: 0000 0000 0000 0000 0000 0080 7449 4a40
00000580: 0000 00c0 656d 3c40 0000 0060 3d8e 5b3f
00000590: 0000 00c0 666c 783f 0000 0080 3823 f53f
000005a0: 0000 0000 0000 18bf 0000 0000 0000 0000
000005b0: 0000 00c0 434a 4a40 0000 0040 6c6d 3c40
000005c0: 0000 0060 e106 5b3f 0000 00e0 ef2d 7d3f
000005d0: 0000 00e0 e145 f53f 0000 00e0 ffff 0fbf
000005e0: 0000 0000 0000 0000 0000 0020 154b 4a40
000005f0: 0000 0020 756d 3c40 0000 0000 5274 5a3f
00000600: 0000 0020 5b3f 813f 0000 00c0 b138 f53f
00000610: 0000 0020 623d 193f 0000 0000 0000 0000
00000620: 0000 0000 064c 4a40 0000 0060 7e6d 3c40
00000630: 0000 0020 d703 5b3f 0000 0060 2a63 813f
00000640: 0000 00c0 f93d f53f 0000 0060 6072 053f
00000650: 0000 0000 0000 0000 0000 00c0 1b4d 4a40
00000660: 0000 0080 8a6d 3c40 0000 00e0 cc74 5b3f
00000670: 0000 00c0 7983 833f 0000 0060 413d f53f
00000680: 0000 00a0 ffff ffbe 0000 0000 0000 0000
00000690: 0000 0060 7b4e 4a40 0000 0040 986d 3c40
000006a0: 0000 0060 0a5b 5b3f 0000 0080 45b9 853f
000006b0: 0000 0040 2048 f53f 0000 00e0 6c89 023f
000006c0: 0000 0000 0000 0000 0000 0000 ec4f 4a40
000006d0: 0000 0080 a66d 3c40 0000 00e0 f588 5b3f
000006e0: 0000 0080 7ceb 873f 0000 00e0 cb67 f53f
000006f0: 0000 00e0 ffff 1fbf 0000 0000 0000 0000
00000700: 0000 0080 8c51 4a40 0000 00a0 b66d 3c40
00000710: 0000 0060 e19a 5b3f 0000 0060 ebce 893f
00000720: 0000 00c0 078e f53f 0000 0000 0000 20bf
00000730: 0000 0000 0000 0000 0000 0040 d253 4a40
00000740: 0000 0080 d46d 3c40 0000 00a0 c271 5a3f
00000750: 0000 00c0 7975 8b3f 0000 00c0 a679 f53f
00000760: 0000 00e0 ffff 23bf 0000 0000 0000 0000
00000770: 0000 00c0 e955 4a40 0000 0080 ef6d 3c40
00000780: 0000 0020 d7af 5a3f 0000 0020 64f6 8b3f
00000790: 0000 0080 bc60 f53f 0000 0000 0000 20bf
000007a0: 0000 0000 0000 0000 0000 00e0 3658 4a40
000007b0: 0000 0000 076e 3c40 0000 0060 e1d2 5a3f
000007c0: 0000 0040 d06a 8d3f 0000 0060 ed80 f53f
000007d0: 0000 0000 ffff ffbe 0000 0000 0000 0000
000007e0: 0000 0060 835a 4a40 0000 0020 246e 3c40
000007f0: 0000 0020 292c 5b3f 0000 0000 a56c 8e3f
52.556434631347656 28.426864624023438 0.001727638184092939 -0.0002458867966197431 1.3317970037460327 -6.103515261202119e-05 0.0 52.556434631347656
28.426864624023438 0.001727638184092939 -0.0002458867966197431 1.3317970037460327 -6.103515261202119e-05 0.0 52.556434631347656 28.426864624023438
0.001727638184092939 -0.0002458867966197431 1.3317970037460327 -6.103515261202119e-05 0.0 52.556434631347656 28.426864624023438 0.001727638184092939
-0.0002458867966197431 1.3317970037460327 -6.103515261202119e-05 0.0 52.556434631347656 28.426864624023438 0.001727638184092939 -0.0002458867966197431
1.3317970037460327 -6.103515261202119e-05 0.0 52.55708694458008 28.4268798828125 0.0015965652419254184 0.0006283773691393435 1.3318061828613281
-6.103515625e-05 0.0 52.55764389038086 28.42689323425293 0.0015413665678352118 0.0008469434105791152 1.3318017721176147 -6.103514533606358e-05
0.0 52.55817794799805 28.426902770996094 0.0015473937382921576 0.0008469434105791152 1.3318017721176147 -6.103514533606358e-05 0.0
52.55864715576172 28.42691421508789 0.0015630722045898438 0.0008469434105791152 1.3318017721176147 -6.103514533606358e-05 0.0 52.55904769897461
28.426923751831055 0.0015673446469008923 0.0006147170206531882 1.3317893743515015 -6.103515261202119e-05 0.0 52.55942916870117 28.42693328857422
0.0015865325694903731 0.0006147170206531882 1.3317893743515015 -6.103515261202119e-05 0.0 52.5598030090332 28.426942825317383 0.0016147613059729338
0.00045079246046952903 1.3317899703979492 -6.103515261202119e-05 0.0 52.560150146484375 28.426952362060547 0.0016324615571647882 0.00045079246046952903
1.3317899703979492 -6.103515261202119e-05 0.0 52.560516357421875 28.42696189880371 0.0016601943643763661 0.00045079246046952903 1.3317899703979492
-6.103515261202119e-05 0.0 52.56087112426758 28.426971435546875 0.0016733169322833419 0.00045079246046952903 1.3317899703979492 -6.103515261202119e-05
0.0 52.56120300292969 28.426977157592773 0.0016704559093341231 0.0003278490621596575 1.3317854404449463 -9.1552734375e-05 0.0
52.561527252197266 28.426986694335938 0.0016542434459552169 0.0003278490621596575 1.3317854404449463 -9.1552734375e-05 0.0 52.561927795410156
28.4269962310791 0.0016694640507921576 0.0003278490621596575 1.3317854404449463 -9.1552734375e-05 0.0 52.561702728271484 28.426986694335938
0.0016434097196906805 -0.00045762263471260667 1.3318129777908325 -6.103515261202119e-05 0.0 52.56188201904297 28.426992416381836 0.0016925811069086194
-0.00045762263471260667 1.3318129777908325 -6.103515261202119e-05 0.0 52.56226348876953 28.427001953125 0.001715927035547793 -0.00021856604143977165
1.331807255744934 -3.0517576306010596e-05 0.0 52.56283950805664 28.427013397216797 0.001730270334519446 0.00010245283192489296 1.3318194150924683
-6.103515261202119e-05 0.0 52.56372833251953 28.427030563354492 0.0017457579961046576 0.0006147170206531882 1.3325223922729492 -3.0517578125e-05
0.0 52.56584930419922 28.42711067199707 0.0017441558884456754 0.0023564151488244534 1.3273735046386719 -6.103514533606358e-05 0.0
52.568626403808594 28.427162170410156 0.0017251968383789062 0.0033194718416780233 1.327269196510315 1.910326500365045e-05 0.0 52.57386779785156
28.42733383178711 0.001681861816905439 0.005962754599750042 1.321098804473877 -9.1552734375e-05 0.0 52.58019256591797 28.427433013916016
0.0016495896270498633 0.007123887073248625 1.3295611143112183 -6.103515261202119e-05 0.0 52.58658218383789 28.427568435668945 0.0016146469861268997
0.008421623148024082 1.3263413906097412 9.628211410017684e-05 0.0 52.59393310546875 28.427709579467773 0.0016488648252561688 0.008489924483001232
1.3276307582855225 4.0906492358772084e-05 0.0 52.60240936279297 28.427894592285156 0.0016757965786382556 0.009528113529086113 1.327454924583435
-3.051757266803179e-05 0.0 52.61314010620117 28.428104400634766 0.0016696549719199538 0.010607283562421799 1.330108880996704 3.535617361194454e-05
0.0 52.6243896484375 28.428321838378906 0.001680603134445846 0.011679623275995255 1.3378409147262573 -0.00012207030522404239 0.0
52.63710021972656 28.42856788635254 0.0016848755767568946 0.012601698748767376 1.3471753597259521 -0.0001220703125 0.0 52.65485382080078
28.42902374267578 0.001614036620594561 0.013407660648226738 1.3422000408172607 -0.00015258787607308477 0.0 52.67119598388672 28.42943572998047
0.0016288376646116376 0.013653547503054142 1.3361172676086426 -0.0001220703125 0.0 52.68917465209961 28.429794311523438 0.001637191860936582
0.014363886788487434 1.343976378440857 -3.051756357308477e-05 0.0 52.70713424682617 28.430238723754883 0.0016584779368713498 0.014855660498142242
