planning_aware_eval/obstacle/data_collection/obstacle/10_s-2_2_f_sr/velocity/player.npy (npy, 4400 bytes, 1 tensors)

array f8 [178, 3]
0.0010593573097139597 6.735743681929307e-06 0.0008389235008507967 0.0010824865894392133 -0.00010880955233005807 -0.0006477260612882674 0.001071310369297862 1.71104784385534e-05
-0.00017287253285758197 0.0010647004237398505 3.1488882086705416e-05 -0.0003853702510241419 8.000381967576686e-06 1.2193873772048391e-05 7.009506134636467e-06 6.222408410394564e-05
1.664957744651474e-05 -0.00013667106395587325 9.783341374713928e-05 1.9547978808986954e-05 -0.00024138450680766255 0.0004980069352313876 -0.0007844596984796226 0.0003227233828511089
0.002129946369677782 -0.0005762784276157618 1.789093039405998e-05 0.007894249632954597 -0.00010516660404391587 0.0010471009882166982 0.02578442543745041 -0.0006921029416844249
-0.0003982162452302873 0.1260032206773758 0.004330707713961601 -0.0003522109764162451 0.20764783024787903 0.005706292111426592 -0.0001968765282072127 0.29007992148399353
0.007499571889638901 -0.00026322362828068435 0.3868542015552521 0.009385714307427406 3.4294127544853836e-05 0.5349847674369812 0.011976746842265129 6.355285586323589e-05
0.6622331142425537 0.015678174793720245 0.0008326053502969444 0.8131611943244934 0.01956949010491371 -0.0006029414944350719 0.916100263595581 0.020182907581329346
-0.0004038047627545893 1.0287436246871948 0.02476821281015873 -6.208419654285535e-05 1.1698682308197021 0.029524924233555794 9.069442603504285e-05 1.2780663967132568
0.0330258347094059 -6.271362508414313e-05 1.4144535064697266 0.03589802607893944 3.164291410939768e-05 1.5448979139328003 0.03978632390499115 0.00015472411178052425
1.672644019126892 0.0432511605322361 5.543708539335057e-05 1.8106454610824585 0.04747825488448143 -0.0003188991395290941 1.933501958847046 0.05152343213558197
0.00016525268438272178 2.053699254989624 0.0553211010992527 0.00012345313734840602 2.1816492080688477 0.059338830411434174 2.904891880461946e-05 2.302668809890747
0.06333674490451813 -0.00014993667718954384 2.429598569869995 0.0676489844918251 0.00029769897810183465 2.551351547241211 0.07200533151626587 0.00016538619820494205
2.6691393852233887 0.07646588236093521 -7.350921805482358e-05 2.7858617305755615 0.08112383633852005 -7.815360731910914e-05 2.902764320373535 0.08598686754703522
0.00012344360584393144 3.015047550201416 0.09095055609941483 -0.0001398086460540071 3.127305507659912 0.09615404903888702 -6.059646329958923e-05 3.2772231101989746
0.10337080806493759 0.0001509952562628314 3.38560152053833 0.10901592671871185 -0.00016673088248353451 3.4893407821655273 0.11470901221036911 0.00022838592121843249
3.5931715965270996 0.12073978036642075 -0.0002322959917364642 3.6935484409332275 0.12678197026252747 5.8460234868107364e-05 3.804232597351074 0.1336836814880371
0.000801897025667131 3.9039146900177 0.14023683965206146 -0.0006066036294214427 3.999642848968506 0.14685778319835663 -0.0002899169921875 4.100007057189941
0.1541374772787094 0.000779972062446177 4.188124179840088 0.16080202162265778 -0.0003482246247585863 4.277270317077637 0.16806142032146454 -0.0003721427929122001
4.379410743713379 0.17759206891059875 0.0002656269061844796 4.466266632080078 0.18925444781780243 -0.0003581905330065638 4.552487373352051 0.2059938907623291
-0.00019474982400424778 4.638693332672119 0.22546318173408508 -0.00011379241914255545 4.720942974090576 0.24889232218265533 0.0002748584665823728 4.8033599853515625
0.27353084087371826 0.00010484694939805195 4.885735511779785 0.2968309819698334 3.8871763536008075e-05 4.969307899475098 0.31910592317581177 -0.00010973930329782888
5.048941135406494 0.3408319056034088 0.005687236785888672 5.125128746032715 0.36589470505714417 0.0025312805082648993 5.113806247711182 0.3859054446220398
0.0008262157207354903 5.082385063171387 0.40244394540786743 -4.711151177616557e-06 5.071619987487793 0.4233265519142151 -0.00035820959601551294 5.058618068695068
0.4478563666343689 -0.0004278278211131692 5.046804904937744 0.4751186668872833 -0.0004081344523001462 5.047372341156006 0.5018507838249207 -0.0003686714044306427
5.060041904449463 0.5271491408348083 -0.0003113841812592 5.066775321960449 0.5506471395492554 -0.0002881336258724332 5.15132999420166 0.5922659635543823
-0.0003874444810207933 5.1557464599609375 0.6159918308258057 -0.0002544402959756553 5.1586594581604 0.6382237672805786 -0.00015234947204589844 5.155559062957764
0.6595956087112427 -0.00011726379307219759 5.1608195304870605 0.6812276840209961 -6.396293611032888e-05 5.16192626953125 0.7028236389160156 -5.110740676173009e-05
5.154387474060059 0.7204017639160156 -0.00019555090693756938 5.115111827850342 0.7352228164672852 -4.50706465926487e-05 5.0830488204956055 0.7520775198936462
5.5847165640443563e-05 5.0198493003845215 0.7633801102638245 9.669303835835308e-05 4.963154315948486 0.7760388255119324 6.381988350767642e-05 4.947987079620361
0.8042898178100586 0.000999717740342021 4.936879634857178 0.8328045606613159 0.0011574458330869675 4.897566795349121 0.847909152507782 -0.004505071323364973
4.852469444274902 0.8635314106941223 -0.0020197199191898108 4.796750068664551 0.8740949034690857 -0.0004740810254588723 4.730042457580566 0.8825327754020691
-0.0003399276756681502 4.662758827209473 0.8888190984725952 0.0005241870530880988 4.588354587554932 0.8941699266433716 3.4246444556629285e-05 4.512077331542969
00000000: 0000 0040 445b 513f 0000 0020 7340 dc3e
00000010: 0000 0080 667d 4b3f 0000 0020 47bc 513f
00000020: 0000 00e0 1586 1cbf 0000 0020 8539 45bf
00000030: 0000 00c0 668d 513f 0000 0020 0ff1 f13e
00000040: 0000 00c0 a3a8 26bf 0000 0060 ad71 513f
00000050: 0000 00c0 5d82 003f 0000 00a0 7041 39bf
00000060: 0000 0020 2cc7 e03e 0000 0040 8992 e93e
00000070: 0000 0060 6666 dd3e 0000 00a0 c94f 103f
00000080: 0000 0040 5675 f13e 0000 0080 ebe9 21bf
00000090: 0000 0040 7da5 193f 0000 00e0 5e7f f43e
000000a0: 0000 0020 85a3 2fbf 0000 00c0 9551 403f
000000b0: 0000 0060 86b4 49bf 0000 0060 6626 353f
000000c0: 0000 0040 d272 613f 0000 0080 2ce2 42bf
000000d0: 0000 0060 8fc2 f23e 0000 0040 dc2a 803f
000000e0: 0000 0080 9c91 1bbf 0000 0020 dc27 513f
000000f0: 0000 0080 3b67 9a3f 0000 00c0 c7ad 46bf
00000100: 0000 00c0 f518 3abf 0000 00a0 df20 c03f
00000110: 0000 0080 13bd 713f 0000 00a0 1e15 37bf
00000120: 0000 0040 3494 ca3f 0000 0020 7b5f 773f
00000130: 0000 0080 14ce 29bf 0000 0060 ab90 d23f
00000140: 0000 0000 dfb7 7e3f 0000 00e0 2840 31bf
00000150: 0000 0020 38c2 d83f 0000 0040 d138 833f
00000160: 0000 0040 e1fa 013f 0000 0060 981e e13f
00000170: 0000 00c0 4387 883f 0000 00c0 f5a8 103f
00000180: 0000 0080 0331 e53f 0000 0080 f00d 903f
00000190: 0000 0060 6648 4b3f 0000 00a0 6a05 ea3f
000001a0: 0000 0040 060a 943f 0000 0000 d7c1 43bf
000001b0: 0000 0080 b150 ed3f 0000 0000 d4aa 943f
000001c0: 0000 0040 b876 3abf 0000 00e0 bb75 f03f
000001d0: 0000 00a0 d65c 993f 0000 0060 6646 10bf
000001e0: 0000 00c0 c7b7 f23f 0000 0020 c83b 9e3f
000001f0: 0000 0060 66c6 173f 0000 00c0 f572 f43f
00000200: 0000 0020 c3e8 a03f 0000 00e0 a370 10bf
00000210: 0000 0000 9aa1 f63f 0000 00e0 3961 a23f
00000220: 0000 0040 0a97 003f 0000 00e0 e6b7 f83f
00000230: 0000 0080 df5e a43f 0000 0000 ae47 243f
00000240: 0000 0060 26c3 fa3f 0000 0020 0425 a63f
00000250: 0000 00c0 a310 0d3f 0000 0060 67f8 fc3f
00000260: 0000 00e0 114f a83f 0000 0060 3de6 34bf
00000270: 0000 00c0 9fef fe3f 0000 0080 4761 aa3f
00000280: 0000 00c0 f5a8 253f 0000 00e0 f96d 0040
00000290: 0000 0020 0c53 ac3f 0000 0060 662e 203f
000002a0: 0000 0080 0474 0140 0000 00c0 a861 ae3f
000002b0: 0000 0080 c275 fe3e 0000 00a0 dd6b 0240
000002c0: 0000 0040 d636 b03f 0000 0040 0aa7 23bf
000002d0: 0000 0060 d16f 0340 0000 00a0 7151 b13f
000002e0: 0000 0060 8f82 333f 0000 0000 2b69 0440
000002f0: 0000 0000 f16e b23f 0000 00a0 70ad 253f
00000300: 0000 00c0 655a 0540 0000 00a0 4493 b33f
00000310: 0000 00c0 1e45 13bf 0000 00e0 7149 0640
00000320: 0000 0020 88c4 b43f 0000 00c0 cc7c 14bf
00000330: 0000 0080 dc38 0740 0000 0040 3c03 b63f
00000340: 0000 0080 142e 203f 0000 0040 d11e 0840
00000350: 0000 0020 8948 b73f 0000 0020 3353 22bf
00000360: 0000 00c0 b804 0940 0000 0040 8d9d b83f
00000370: 0000 00a0 1ec5 0fbf 0000 00c0 c037 0a40
00000380: 0000 0060 8276 ba3f 0000 0060 8fca 233f
00000390: 0000 0040 b615 0b40 0000 00c0 77e8 bb3f
000003a0: 0000 0060 8fda 25bf 0000 0080 2bea 0b40
000003b0: 0000 00e0 915d bd3f 0000 0020 5cef 2d3f
000003c0: 0000 00c0 d0be 0c40 0000 0060 cde8 be3f
000003d0: 0000 0060 8f72 2ebf 0000 0020 638c 0d40
000003e0: 0000 0040 643a c03f 0000 0060 66a6 0e3f
000003f0: 0000 0080 116f 0e40 0000 0000 8c1c c13f
00000400: 0000 00c0 cc46 4a3f 0000 00a0 373b 0f40
00000410: 0000 00e0 47f3 c13f 0000 0060 8fe0 43bf
00000420: 0000 00c0 44ff 0f40 0000 0060 3ccc c23f
00000430: 0000 0000 0000 33bf 0000 0040 6866 1040
00000440: 0000 00e0 c6ba c33f 0000 0040 e18e 493f
00000450: 0000 00a0 a3c0 1040 0000 0020 2995 c43f
00000460: 0000 0060 3dd2 36bf 0000 00c0 ec1b 1140
00000470: 0000 0060 0983 c53f 0000 0020 8563 38bf
00000480: 0000 0040 8484 1140 0000 0040 56bb c63f
00000490: 0000 00e0 7a68 313f 0000 0000 75dd 1140
000004a0: 0000 0060 7d39 c83f 0000 00a0 7079 37bf
000004b0: 0000 0040 bf35 1240 0000 0000 025e ca3f
000004c0: 0000 0040 b886 29bf 0000 00a0 058e 1240
000004d0: 0000 0040 fadb cc3f 0000 00e0 7ad4 1dbf
000004e0: 0000 00e0 3ee2 1240 0000 0020 b4db cf3f
000004f0: 0000 0020 5c03 323f 0000 0000 a436 1340
00000500: 0000 0080 8781 d13f 0000 00e0 287c 1b3f
00000510: 0000 0040 fe8a 1340 0000 0060 47ff d23f
00000520: 0000 00a0 4761 043f 0000 0040 92e0 1340
00000530: 0000 0040 3b6c d43f 0000 00e0 7ac4 1cbf
00000540: 0000 00a0 1d32 1440 0000 00a0 30d0 d53f
00000550: 0000 0000 804b 773f 0000 00c0 2180 1440
00000560: 0000 00a0 d16a d73f 0000 00e0 7abc 643f
00000570: 0000 00a0 8974 1440 0000 00c0 acb2 d83f
00000580: 0000 00c0 cc12 4b3f 0000 00c0 5c54 1440
00000590: 0000 0040 a4c1 d93f 0000 0060 8fc2 d3be
000005a0: 0000 00c0 5649 1440 0000 0040 c817 db3f
000005b0: 0000 0080 c279 37bf 0000 0060 063c 1440
000005c0: 0000 00c0 ada9 dc3f 0000 0080 c209 3cbf
000005d0: 0000 00a0 ed2f 1440 0000 0020 5868 de3f
000005e0: 0000 0020 5cbf 3abf 0000 0060 8230 1440
000005f0: 0000 0060 290f e03f 0000 00a0 4729 38bf
00000600: 0000 00a0 7b3d 1440 0000 00e0 67de e03f
00000610: 0000 00e0 2868 34bf 0000 00c0 6044 1440
00000620: 0000 00c0 e69e e13f 0000 0080 14e2 32bf
00000630: 0000 0040 f69a 1440 0000 00c0 d7f3 e23f
00000640: 0000 0060 3d64 39bf 0000 0000 7c9f 1440
00000650: 0000 0080 34b6 e33f 0000 00c0 ccac 30bf
00000660: 0000 00a0 77a2 1440 0000 0040 546c e43f
00000670: 0000 0000 00f8 23bf 0000 00e0 4a9f 1440
00000680: 0000 0040 681b e53f 0000 00a0 70bd 1ebf
00000690: 0000 00e0 ada4 1440 0000 0000 9ecc e53f
000006a0: 0000 00e0 7ac4 10bf 0000 0000 d0a5 1440
000006b0: 0000 0000 887d e63f 0000 0020 85cb 0abf
000006c0: 0000 00c0 179e 1440 0000 0000 880d e73f
000006d0: 0000 0080 99a1 29bf 0000 00e0 df75 1440
000006e0: 0000 0000 f286 e73f 0000 00a0 47a1 07bf
000006f0: 0000 00c0 0a55 1440 0000 00e0 0411 e83f
00000700: 0000 0000 ae47 0d3f 0000 0060 5314 1440
00000710: 0000 0020 9c6d e83f 0000 00c0 f558 193f
00000720: 0000 0020 45da 1340 0000 0060 4fd5 e83f
00000730: 0000 0040 e1ba 103f 0000 0020 bdca 1340
00000740: 0000 0000 bebc e93f 0000 00c0 1e61 503f
00000750: 0000 0060 5dbf 1340 0000 00c0 55a6 ea3f
00000760: 0000 0000 aef6 523f 0000 00c0 1b97 1340
00000770: 0000 0060 1222 eb3f 0000 00e0 e873 72bf
00000780: 0000 00c0 ed68 1340 0000 00a0 0ca2 eb3f
00000790: 0000 00e0 a88b 60bf 0000 0040 df2f 1340
000007a0: 0000 00e0 95f8 eb3f 0000 0080 c211 3fbf
000007b0: 0000 0040 90eb 1240 0000 0060 b53d ec3f
000007c0: 0000 0040 0a47 36bf 0000 0040 aaa6 1240
000007d0: 0000 00c0 3471 ec3f 0000 0020 332d 413f
000007e0: 0000 00a0 795a 1240 0000 0040 0a9d ec3f
000007f0: 0000 00e0 7af4 013f 0000 0000 5e0c 1240
