planning_aware_eval/interactive/data_collection/interactive/10_t3-6_1_b_u_l_1_rl/transform/player.npy (npy, 19504 bytes, 1 tensors)

array f8 [346, 7]
-22.060338973999023 -64.70836639404297 0.0017510222969576716 6.147169915493578e-05 -176.34567260742188 -3.051757266803179e-05 0.0 -22.060344696044922
-64.70831298828125 0.0017344665247946978 5.464151035994291e-05 -176.34307861328125 8.656967111164704e-05 0.0 -22.06035041809082 -64.70830535888672
0.001721878070384264 6.147169915493578e-05 -176.34059143066406 -3.0517578125e-05 0.0 -22.060359954833984 -64.70829010009766 0.0017038345104083419
7.51320767449215e-05 -176.33828735351562 -6.103514533606358e-05 0.0 -22.060375213623047 -64.70829772949219 0.001692924415692687 8.879245433490723e-05
-176.3396759033203 -9.1552734375e-05 0.0 -22.060407638549805 -64.70829010009766 0.0016912078717723489 0.00010245283192489296 -176.33804321289062
-9.1552734375e-05 0.0 -22.060455322265625 -64.70829772949219 0.0016925811069086194 0.00012294339830987155 -176.33953857421875 -9.1552734375e-05
0.0 -22.060537338256836 -64.70829010009766 0.0017004393739625812 0.00016392453107982874 -176.33816528320312 -9.155271254712716e-05 0.0
-22.060653686523438 -64.70830535888672 0.0017055892385542393 0.00022539623023476452 -176.33981323242188 -9.155272709904239e-05 0.0 -22.060653686523438
-64.70830535888672 0.0017055892385542393 0.00022539623023476452 -176.33981323242188 -9.155272709904239e-05 0.0 -22.06084442138672 -64.7083511352539
0.0016987990820780396 0.0003756603691726923 -176.3433837890625 -0.00012207027612021193 0.0 -22.061275482177734 -64.70833587646484 0.0016896056476980448
0.0008879245724529028 -176.33694458007812 -6.103514533606358e-05 0.0 -22.06302261352539 -64.70846557617188 0.0016871643019840121 0.0026774341240525246
-176.33712768554688 -0.00015258784696925431 0.0 -22.066509246826172 -64.70870971679688 0.0016670607728883624 0.0051636225543916225 -176.33619689941406
-0.00021362306142691523 0.0 -22.071441650390625 -64.70905303955078 0.001658973633311689 0.007567849010229111 -176.33944702148438 -0.00012207029067212716
0.0 -22.078842163085938 -64.70947265625 0.0016408920055255294 0.010982943698763847 -176.32937622070312 -0.00015258784696925431 0.0
-22.089069366455078 -64.71007537841797 0.0016149139264598489 0.015176679939031601 -176.31781005859375 -0.00012207030522404239 0.0 -22.102088928222656
-64.71089935302734 0.0015913391252979636 0.019076718017458916 -176.3140869140625 -9.15526834432967e-05 0.0 -22.11748695373535 -64.71195220947266
0.0015706634148955345 0.022348377853631973 -176.32859802246094 9.110719838645309e-05 0.0 -22.13612937927246 -64.71310424804688 0.0015506744384765625
0.026262076571583748 -176.3180389404297 -3.051756357308477e-05 0.0 -22.158554077148438 -64.71454620361328 0.00152587890625 0.030018679797649384
-176.31741333007812 -6.103522900957614e-05 0.0 -22.184553146362305 -64.71627044677734 0.0015048598870635033 0.03421924635767937 -176.3222198486328
-0.0001220703707076609 0.0 -22.215133666992188 -64.71825408935547 0.0014776992611587048 0.03897305577993393 -176.3165740966797 -0.00027465849416330457
0.0 -22.250089645385742 -64.72052001953125 0.0014512252528220415 0.04307800158858299 -176.30870056152344 -0.0003967285738326609 0.0
-22.288829803466797 -64.72306823730469 0.0014309310354292393 0.04664335772395134 -176.29905700683594 -0.000640869140625 0.0 -22.332767486572266
-64.72607421875 0.001405906630679965 0.050065282732248306 -176.30264282226562 -0.0008544920710846782 0.0 -22.38060188293457 -64.72931671142578
0.0013887404929846525 0.052729059010744095 -176.29270935058594 -0.00115966796875 0.0 -22.43153190612793 -64.73283386230469 0.0013810729142278433
0.05491471663117409 -176.2836151123047 -0.0014343259390443563 0.0 -22.488338470458984 -64.73680877685547 0.0013638687087222934 0.05711403861641884
-176.2775115966797 -0.0016784665640443563 0.0 -22.5490665435791 -64.74103546142578 0.0013520431239157915 0.05929286777973175 -176.2601318359375
-0.0018920896109193563 0.0 -22.615854263305664 -64.74574279785156 0.0013348007341846824 0.0612189806997776 -176.2486572265625 -0.0020141606219112873
0.0 -22.68538475036621 -64.75065612792969 0.0013291549403220415 0.06294701993465424 -176.23228454589844 -0.002105712192133069 0.0
-22.75945472717285 -64.75591278076172 0.0013232422061264515 0.06441550701856613 -176.21762084960938 -0.002166748046875 0.0 -22.837570190429688
-64.761474609375 0.0013193130725994706 0.06559713184833527 -176.19989013671875 -0.0021972653921693563 0.0 -22.938236236572266 -64.7686767578125
0.0013406752841547132 0.06695634126663208 -176.1787109375 -0.0022583003155887127 0.0 -23.024686813354492 -64.77488708496094 0.0013311385409906507
0.06757789105176926 -176.1615753173828 -0.0023193361703306437 0.0 -23.115446090698242 -64.78142547607422 0.0013249969342723489 0.0675983801484108
00000000: 0000 0060 720f 36c0 0000 00e0 552d 50c0
00000010: 0000 00e0 51b0 5c3f 0000 00c0 4b1d 103f
00000020: 0000 00c0 0f0b 66c0 0000 00a0 ffff ffbe
00000030: 0000 0000 0000 0000 0000 00c0 720f 36c0
00000040: 0000 0000 552d 50c0 0000 0040 e16a 5c3f
00000050: 0000 0000 dca5 0c3f 0000 0080 fa0a 66c0
00000060: 0000 00a0 97b1 163f 0000 0000 0000 0000
00000070: 0000 0020 730f 36c0 0000 00e0 542d 50c0
00000080: 0000 0080 1436 5c3f 0000 00c0 4b1d 103f
00000090: 0000 0020 e60a 66c0 0000 0000 0000 00bf
000000a0: 0000 0000 0000 0000 0000 00c0 730f 36c0
000000b0: 0000 00a0 542d 50c0 0000 0060 66ea 5b3f
000000c0: 0000 0040 07b2 133f 0000 0040 d30a 66c0
000000d0: 0000 00a0 ffff 0fbf 0000 0000 0000 0000
000000e0: 0000 00c0 740f 36c0 0000 00c0 542d 50c0
000000f0: 0000 00c0 a3bc 5b3f 0000 00c0 c246 173f
00000100: 0000 00a0 de0a 66c0 0000 0000 0000 18bf
00000110: 0000 0000 0000 0000 0000 00e0 760f 36c0
00000120: 0000 00a0 542d 50c0 0000 00a0 70b5 5b3f
00000130: 0000 0040 7edb 1a3f 0000 0040 d10a 66c0
00000140: 0000 0000 0000 18bf 0000 0000 0000 0000
00000150: 0000 0000 7a0f 36c0 0000 00c0 542d 50c0
00000160: 0000 0020 33bb 5b3f 0000 00c0 4b1d 203f
00000170: 0000 0080 dd0a 66c0 0000 0000 0000 18bf
00000180: 0000 0000 0000 0000 0000 0060 7f0f 36c0
00000190: 0000 00a0 542d 50c0 0000 00e0 28dc 5b3f
000001a0: 0000 0000 657c 253f 0000 0040 d20a 66c0
000001b0: 0000 00a0 ffff 17bf 0000 0000 0000 0000
000001c0: 0000 0000 870f 36c0 0000 00e0 542d 50c0
000001d0: 0000 0080 c2f1 5b3f 0000 00e0 0a8b 2d3f
000001e0: 0000 00c0 df0a 66c0 0000 00e0 ffff 17bf
000001f0: 0000 0000 0000 0000 0000 0000 870f 36c0
00000200: 0000 00e0 542d 50c0 0000 0080 c2f1 5b3f
00000210: 0000 00e0 0a8b 2d3f 0000 00c0 df0a 66c0
00000220: 0000 00e0 ffff 17bf 0000 0000 0000 0000
00000230: 0000 0080 930f 36c0 0000 00a0 552d 50c0
00000240: 0000 00a0 47d5 5b3f 0000 0000 899e 383f
00000250: 0000 0000 fd0a 66c0 0000 0060 ffff 1fbf
00000260: 0000 0000 0000 0000 0000 00c0 af0f 36c0
00000270: 0000 0060 552d 50c0 0000 0040 b8ae 5b3f
00000280: 0000 0080 7318 4d3f 0000 0040 c80a 66c0
00000290: 0000 00a0 ffff 0fbf 0000 0000 0000 0000
000002a0: 0000 0040 2210 36c0 0000 0080 572d 50c0
000002b0: 0000 00e0 7aa4 5b3f 0000 0080 fcee 653f
000002c0: 0000 00c0 c90a 66c0 0000 00a0 ffff 23bf
000002d0: 0000 0000 0000 0000 0000 00c0 0611 36c0
000002e0: 0000 0080 5b2d 50c0 0000 00e0 2850 5b3f
000002f0: 0000 0060 7326 753f 0000 0020 c20a 66c0
00000300: 0000 0020 0000 2cbf 0000 0000 0000 0000
00000310: 0000 0000 4a12 36c0 0000 0020 612d 50c0
00000320: 0000 0060 3d2e 5b3f 0000 0000 77ff 7e3f
00000330: 0000 00c0 dc0a 66c0 0000 00a0 ffff 1fbf
00000340: 0000 0000 0000 0000 0000 0000 2f14 36c0
00000350: 0000 0000 682d 50c0 0000 0060 66e2 5a3f
00000360: 0000 00c0 397e 863f 0000 0040 8a0a 66c0
00000370: 0000 00a0 ffff 23bf 0000 0000 0000 0000
00000380: 0000 0040 cd16 36c0 0000 00e0 712d 50c0
00000390: 0000 00a0 7075 5a3f 0000 0080 f314 8f3f
000003a0: 0000 0080 2b0a 66c0 0000 00e0 ffff 1fbf
000003b0: 0000 0000 0000 0000 0000 0080 221a 36c0
000003c0: 0000 0060 7f2d 50c0 0000 0060 8f12 5a3f
000003d0: 0000 00e0 d888 933f 0000 0000 0d0a 66c0
000003e0: 0000 0020 ffff 17bf 0000 0000 0000 0000
000003f0: 0000 00a0 131e 36c0 0000 00a0 902d 50c0
00000400: 0000 0000 d7bb 593f 0000 0040 7ee2 963f
00000410: 0000 00e0 830a 66c0 0000 00c0 19e2 173f
00000420: 0000 0000 0000 0000 0000 0060 d922 36c0
00000430: 0000 0080 a32d 50c0 0000 0000 0068 593f
00000440: 0000 0020 72e4 9a3f 0000 0060 2d0a 66c0
00000450: 0000 0000 ffff ffbe 0000 0000 0000 0000
00000460: 0000 0000 9728 36c0 0000 0020 bb2d 50c0
00000470: 0000 0000 0000 593f 0000 0080 37bd 9e3f
00000480: 0000 0040 280a 66c0 0000 0040 0100 10bf
00000490: 0000 0000 0000 0000 0000 00e0 3e2f 36c0
000004a0: 0000 0060 d72d 50c0 0000 0000 d7a7 583f
000004b0: 0000 0060 2f85 a13f 0000 00a0 4f0a 66c0
000004c0: 0000 0080 0000 20bf 0000 0000 0000 0000
000004d0: 0000 0000 1337 36c0 0000 00e0 f72d 50c0
000004e0: 0000 0080 eb35 583f 0000 00c0 46f4 a33f
000004f0: 0000 0060 210a 66c0 0000 0040 0100 32bf
00000500: 0000 0000 0000 0000 0000 00e0 0540 36c0
00000510: 0000 0000 1d2e 50c0 0000 0040 e1c6 573f
00000520: 0000 00e0 510e a63f 0000 00e0 e009 66c0
00000530: 0000 0040 0000 3abf 0000 0000 0000 0000
00000540: 0000 00c0 f049 36c0 0000 00c0 462e 50c0
00000550: 0000 0080 c271 573f 0000 0060 a3e1 a73f
00000560: 0000 00e0 9109 66c0 0000 0000 0000 45bf
00000570: 0000 0000 0000 0000 0000 0040 3055 36c0
00000580: 0000 0000 782e 50c0 0000 00c0 cc08 573f
00000590: 0000 0020 28a2 a93f 0000 0040 af09 66c0
000005a0: 0000 00c0 ffff 4bbf 0000 0000 0000 0000
000005b0: 0000 0020 6f61 36c0 0000 0020 ad2e 50c0
000005c0: 0000 00c0 ccc0 563f 0000 00a0 4dff aa3f
000005d0: 0000 00e0 5d09 66c0 0000 0000 0000 53bf
000005e0: 0000 0000 0000 0000 0000 00e0 786e 36c0
000005f0: 0000 00c0 e62e 50c0 0000 00c0 a3a0 563f
00000600: 0000 0020 c81d ac3f 0000 0060 1309 66c0
00000610: 0000 00c0 ff7f 57bf 0000 0000 0000 0000
00000620: 0000 00c0 037d 36c0 0000 00e0 272f 50c0
00000630: 0000 00e0 7a58 563f 0000 0020 0d3e ad3f
00000640: 0000 0060 e108 66c0 0000 00c0 ff7f 5bbf
00000650: 0000 0000 0000 0000 0000 00a0 8f8c 36c0
00000660: 0000 0020 6d2f 50c0 0000 0040 e126 563f
00000670: 0000 0080 a25b ae3f 0000 0000 5308 66c0
00000680: 0000 00c0 ffff 5ebf 0000 0000 0000 0000
00000690: 0000 00a0 a89d 36c0 0000 0040 ba2f 50c0
000006a0: 0000 0060 8fde 553f 0000 0020 1858 af3f
000006b0: 0000 0000 f507 66c0 0000 0040 0080 60bf
000006c0: 0000 0000 0000 0000 0000 0060 75af 36c0
000006d0: 0000 00c0 0a30 50c0 0000 0040 e1c6 553f
000006e0: 0000 00c0 4b1d b03f 0000 00e0 6e07 66c0
000006f0: 0000 00a0 ff3f 61bf 0000 0000 0000 0000
00000700: 0000 00a0 6bc2 36c0 0000 00e0 6030 50c0
00000710: 0000 0080 14ae 553f 0000 00e0 887d b03f
00000720: 0000 00c0 f606 66c0 0000 0000 00c0 61bf
00000730: 0000 0000 0000 0000 0000 0000 6bd6 36c0
00000740: 0000 0000 bc30 50c0 0000 00a0 999d 553f
00000750: 0000 0040 f9ca b03f 0000 0080 6506 66c0
00000760: 0000 00e0 ffff 61bf 0000 0000 0000 0000
00000770: 0000 0040 30f0 36c0 0000 0000 3231 50c0
00000780: 0000 0020 33f7 553f 0000 0000 0d24 b13f
00000790: 0000 0000 b805 66c0 0000 00c0 ff7f 62bf
000007a0: 0000 0000 0000 0000 0000 00e0 5106 37c0
000007b0: 0000 00c0 9731 50c0 0000 0020 33cf 553f
000007c0: 0000 00e0 c84c b13f 0000 00a0 2b05 66c0
000007d0: 0000 0020 0000 63bf 0000 0000 0000 0000
000007e0: 0000 00e0 8d1d 37c0 0000 00e0 0232 50c0
000007f0: 0000 00a0 70b5 553f 0000 00a0 204e b13f
