planning_aware_eval/obstacle/data_collection/obstacle/10_t2-4_0_r_sr/velocity/player.npy (npy, 6464 bytes, 1 tensors)

array f8 [264, 3]
00000000: 0000 0000 0000 0000 0000 0000 0000 0000
00000010: 0000 0000 0000 0000 0000 0000 0000 0000
00000020: 0000 0000 0000 0000 0000 0000 0000 0000
00000030: 0000 0000 0000 0000 0000 0000 0000 0000
00000040: 0000 0000 0000 0000 0000 0000 0000 0000
00000050: 0000 0000 0000 0000 0000 0000 0000 0000
00000060: 0000 00c0 29e1 afbf 0000 00a0 7225 3fbf
00000070: 0000 0060 3d94 68bf 0000 0060 03ae adbf
00000080: 0000 00e0 b126 3dbf 0000 0040 e18c 41bf
00000090: 0000 0040 5c5a acbf 0000 0080 2a21 3cbf
000000a0: 0000 00e0 28b4 363f 0000 0080 4e84 abbf
000000b0: 0000 00e0 5438 3bbf 0000 00a0 47b9 433f
000000c0: 0000 0000 4753 abbf 0000 00a0 8ca0 3abf
000000d0: 0000 0000 d737 3b3f 0000 00a0 972e abbf
000000e0: 0000 0060 f779 3abf 0000 00c0 f530 363f
000000f0: 0000 0040 12ed a9bf 0000 0020 c98f 39bf
00000100: 0000 00c0 7528 513f 0000 00a0 13b4 a9bf
00000110: 0000 0040 3262 39bf 0000 0040 b852 4b3f
00000120: 0000 0000 53d3 a9bf 0000 0060 376c 39bf
00000130: 0000 0060 3d7b 413f 0000 0040 6a83 abbf
00000140: 0000 0060 8ae5 3abf 0000 0000 0066 41bf
00000150: 0000 0040 8dc0 a9bf 0000 00c0 2316 39bf
00000160: 0000 0020 b31d 543f 0000 0080 8429 abbf
00000170: 0000 0060 b1b5 3abf 0000 00a0 702d 273f
00000180: 0000 0020 4974 abbf 0000 0000 6bd5 3abf
00000190: 0000 0040 b8de 393f 0000 0020 a9d0 acbf
000001a0: 0000 0080 a540 3cbf 0000 0000 aef7 10bf
000001b0: 0000 00a0 bab0 adbf 0000 0080 2afa 3cbf
000001c0: 0000 0060 3dc2 2a3f 0000 0000 a63d afbf
000001d0: 0000 0040 e476 3ebf 0000 0000 ae8f 233f
000001e0: 0000 0060 0db4 b0bf 0000 0060 1958 40bf
000001f0: 0000 0020 338b 243f 0000 0020 1b98 b3bf
00000200: 0000 00c0 454e 43bf 0000 00c0 f598 2f3f
00000210: 0000 00c0 705f b3bf 0000 00a0 27f9 49bf
00000220: 0000 0060 66a2 2c3f 0000 0020 7c14 bebf
00000230: 0000 00e0 516a 55bf 0000 00e0 51c0 20bf
00000240: 0000 0040 ce28 c4bf 0000 00e0 96ff 59bf
00000250: 0000 0040 e16c 383f 0000 00a0 fcef c9bf
00000260: 0000 0060 7203 55bf 0000 00e0 2808 34bf
00000270: 0000 0020 e689 d0bf 0000 00e0 64f9 61bf
00000280: 0000 0040 0af7 283f 0000 0040 4a66 cebf
00000290: 0000 00e0 86a1 62bf 0000 0040 e142 1a3f
000002a0: 0000 0020 c0b8 d3bf 0000 00a0 88b7 62bf
000002b0: 0000 00e0 7a58 3bbf 0000 0060 6712 d8bf
000002c0: 0000 00c0 bd3f 68bf 0000 0060 3d00 363f
000002d0: 0000 0040 c2c2 dabf 0000 00c0 74fc 6bbf
000002e0: 0000 00e0 280c 103f 0000 0020 cc02 ddbf
000002f0: 0000 0020 538e 6abf 0000 00c0 f5d0 49bf
00000300: 0000 0040 010b ddbf 0000 00c0 60c3 6cbf
00000310: 0000 00e0 5126 473f 0000 00c0 e10d e2bf
00000320: 0000 0000 70ba 72bf 0000 0040 b87e 033f
00000330: 0000 00c0 cf07 e2bf 0000 0040 2aab 72bf
00000340: 0000 0040 0a54 403f 0000 00a0 7b57 e4bf
00000350: 0000 0060 a7f2 72bf 0000 00e0 28dc 00bf
00000360: 0000 00c0 4d04 e6bf 0000 0000 6803 73bf
00000370: 0000 00c0 1ed1 30bf 0000 00a0 1f07 e7bf
00000380: 0000 0080 970c 76bf 0000 0060 8f82 1cbf
00000390: 0000 0040 adc8 e9bf 0000 00a0 9185 77bf
000003a0: 0000 00e0 7a64 37bf 0000 00a0 f3a3 ebbf
000003b0: 0000 0000 df03 7cbf 0000 0060 66fe 2c3f
000003c0: 0000 0020 bfb3 edbf 0000 0060 e7f9 80bf
000003d0: 0000 0060 6666 123f 0000 00e0 0a60 f0bf
000003e0: 0000 0080 5224 80bf 0000 00c0 f5b4 393f
000003f0: 0000 0020 bf83 f1bf 0000 0060 1f17 81bf
00000400: 0000 00c0 f5fe 303f 0000 0000 1cb1 f2bf
00000410: 0000 00e0 3f1f 82bf 0000 00a0 1e83 49bf
00000420: 0000 00c0 2cef f3bf 0000 0080 cc4f 83bf
00000430: 0000 0000 aef7 213f 0000 0080 bc33 f5bf
00000440: 0000 0000 e389 84bf 0000 00a0 707d 353f
00000450: 0000 00e0 6182 f6bf 0000 0080 08cc 85bf
00000460: 0000 0020 854b 1dbf 0000 0000 3bce f7bf
00000470: 0000 0080 030c 87bf 0000 0080 c241 413f
00000480: 0000 0020 fc26 f9bf 0000 0020 6759 88bf
00000490: 0000 0020 5caf 04bf 0000 00a0 bc8b fabf
000004a0: 0000 00c0 b5b0 89bf 0000 00c0 ccac 34bf
000004b0: 0000 0000 60f6 fbbf 0000 00c0 2713 8bbf
000004c0: 0000 00a0 1e85 debe 0000 0040 b675 fdbf
000004d0: 0000 0040 7c85 8cbf 0000 0040 e112 38bf
000004e0: 0000 0020 a9f1 febf 0000 0060 82f3 8dbf
000004f0: 0000 0060 8f5a 2b3f 0000 0020 6639 00c0
00000500: 0000 0060 0369 8fbf 0000 00a0 7011 2f3f
00000510: 0000 0040 fefc 00c0 0000 00e0 6f71 90bf
00000520: 0000 0080 eb29 223f 0000 0000 eac2 01c0
00000530: 0000 0060 5031 91bf 0000 00e0 5198 113f
00000540: 0000 0040 c686 02c0 0000 0080 ebef 91bf
00000550: 0000 00e0 51b8 13bf 0000 0020 de20 03c0
00000560: 0000 0040 6084 92bf 0000 0000 ae83 30bf
00000570: 0000 0060 93e1 03c0 0000 0000 a13f 93bf
00000580: 0000 0040 0aab 2f3f 0000 0020 e5a9 04c0
00000590: 0000 00a0 6a02 94bf 0000 00c0 f500 1d3f
000005a0: 0000 00e0 cd7a 05c0 0000 0060 69cc 94bf
000005b0: 0000 0040 b84e 033f 0000 00c0 7450 06c0
000005c0: 0000 0020 209b 95bf 0000 00a0 4751 51bf
000005d0: 0000 0000 e640 07c0 0000 0060 dd83 96bf
000005e0: 0000 0080 146a 32bf 0000 0060 973d 08c0
000005f0: 0000 0080 f377 97bf 0000 0060 3d2a 09bf
00000600: 0000 0060 8742 09c0 0000 0000 4374 98bf
00000610: 0000 0000 007c 4b3f 0000 0080 3847 0ac0
00000620: 0000 00c0 0471 99bf 0000 0000 0088 363f
00000630: 0000 00a0 1e5e 0bc0 0000 0020 0b7f 9abf
00000640: 0000 0080 c2df 4abf 0000 0060 a354 0cc0
00000650: 0000 0020 516d 9bbf 0000 0080 eb4e 513f
00000660: 0000 00c0 cb5d 0dc0 0000 00e0 4d6e 9cbf
00000670: 0000 0060 663e 213f 0000 0060 6f71 0ec0
00000680: 0000 00c0 af78 9dbf 0000 00c0 f5d8 28bf
00000690: 0000 0000 d05e 0fc0 0000 0080 be88 bfbf
000006a0: 0000 0080 1498 463f 0000 00a0 d121 10c0
000006b0: 0000 00a0 1e71 cdbf 0000 00c0 f502 4e3f
000006c0: 0000 0080 469a 10c0 0000 00a0 2864 d2bf
000006d0: 0000 0080 99fe 4d3f 0000 0080 6620 11c0
000006e0: 0000 0000 5030 d5bf 0000 0020 3373 293f
000006f0: 0000 0060 faa5 11c0 0000 0000 5293 d7bf
00000700: 0000 00a0 9951 333f 0000 0020 d42c 12c0
00000710: 0000 00a0 a6e6 d9bf 0000 0060 3d92 263f
00000720: 0000 0000 99a0 12c0 0000 0060 e747 e1bf
00000730: 0000 0040 b8be 2b3f 0000 00e0 ee0d 13c0
00000740: 0000 00a0 750f e6bf 0000 00a0 1e31 463f
00000750: 0000 00e0 0685 13c0 0000 00c0 d966 e9bf
00000760: 0000 0060 1418 4e3f 0000 0020 e901 14c0
00000770: 0000 0020 a34d ecbf 0000 00a0 b952 753f
00000780: 0000 00c0 3a8e 14c0 0000 00a0 8451 efbf
00000790: 0000 0040 612c 663f 0000 0020 a8d9 14c0
000007a0: 0000 00c0 69c4 f0bf 0000 00c0 1e48 533f
000007b0: 0000 0080 d3f2 14c0 0000 0040 8bd3 f2bf
000007c0: 0000 00c0 f5d2 373f 0000 0020 30f7 14c0
000007d0: 0000 00c0 0485 f5bf 0000 0060 8f12 343f
000007e0: 0000 0000 3b29 15c0 0000 0040 41f3 f7bf
000007f0: 0000 00e0 7a68 363f 0000 00e0 7871 15c0
0.0 0.0 0.0 0.0 0.0 0.0 0.0 0.0
0.0 0.0 0.0 0.0 -0.062264733016490936 -0.0004752545210067183 -0.0030003737192600965 -0.05796824023127556
-0.0004448112740647048 -0.0005355930188670754 -0.055376894772052765 -0.0004292229423299432 0.00034643171238712966 -0.053743794560432434 -0.000415344926295802 0.000601921055931598
-0.053369730710983276 -0.0004062980005983263 0.00041531561873853207 -0.053089845925569534 -0.00040399827412329614 0.0003386116004548967 -0.050636835396289825 -0.00039004001882858574
0.0010472440626472235 -0.05020200088620186 -0.0003873226814903319 0.0008338355692103505 -0.05044040083885193 -0.0003879199211951345 0.0005334901507012546 -0.05373699218034744
-0.00041041019721888006 -0.0005309581756591797 -0.05029717832803726 -0.0003827893524430692 0.0012277840869501233 -0.05305112898349762 -0.0004075582546647638 0.00017683029000181705
-0.0536215640604496 -0.00040944921784102917 0.00039474485674872994 -0.05627945438027382 -0.0004310993244871497 -6.472587119787931e-05 -0.057988960295915604 -0.00044215715024620295
0.00020415305334609002 -0.06101721525192261 -0.0004648501635529101 0.00014924048446118832 -0.06524737924337387 -0.0004987834836356342 0.00015673636517021805 -0.07653970271348953
-0.0005891647888347507 0.00024106979253701866 -0.07567505538463593 -0.0007926410180516541 0.00021846294112037867 -0.11750007420778275 -0.0013070869026705623 -0.00012780188990291208
-0.15749529004096985 -0.0015868161572143435 0.0003727006842382252 -0.20263631641864777 -0.0012825600570067763 -0.0003056621353607625 -0.25841668248176575 -0.002194115659222007
0.00019046783563680947 -0.23749664425849915 -0.0022742876317352057 0.0001001787168206647 -0.3081512749195099 -0.0022847813088446856 -0.00041726112249307334 -0.3761232793331146
-0.0029600816778838634 0.00033570764935575426 -0.4181371331214905 -0.00341627886518836 6.121634942246601e-05 -0.4532957375049591 -0.0032416938338428736 -0.0007878494216129184
-0.4537966847419739 -0.0035111322067677975 0.000706472375895828 -0.5641945600509644 -0.00457233190536499 3.7183759559411556e-05 -0.5634535551071167 -0.004557766951620579
0.0004982996033504605 -0.6356790661811829 -0.0046259439550340176 -3.215789547539316e-05 -0.6880253553390503 -0.004641920328140259 -0.000256605155300349 -0.7196195721626282
-0.005383102223277092 -0.00010875701991608366 -0.8057466745376587 -0.005742615554481745 -0.00035694122198037803 -0.8637636303901672 -0.006839629262685776 0.00022120475478004664
-0.9281917214393616 -0.008289153687655926 7.019042823230848e-05 -1.023447871208191 -0.007881779223680496 0.00039225578075274825 -1.0946646928787231 -0.008344884030520916
0.00025933742290362716 -1.1682395935058594 -0.008848666213452816 -0.0007785701309330761 -1.2458922863006592 -0.009429547935724258 0.00013708113692700863 -1.3251309394836426
-0.010028623044490814 0.00032791137346066535 -1.4068316221237183 -0.010643068701028824 -0.00011175155668752268 -1.487849235534668 -0.01125338301062584 0.0005266380030661821
-1.572017788887024 -0.01188927236944437 -3.9453505451092497e-05 -1.6591154336929321 -0.012544078752398491 -0.0003154754522256553 -1.747650146484375 -0.013220129534602165
-7.276534688571701e-06 -1.841238260269165 -0.01392647810280323 -0.00036733626620844007 -1.9339991807937622 -0.014624613337218761 0.00020869255240540951 -2.028026819229126
-0.015337015502154827 0.00023703098122496158 -2.1235318183898926 -0.016057727858424187 0.00013857841258868575 -2.220172882080078 -0.01678968034684658 6.711959576932713e-05
-2.315807819366455 -0.017516784369945526 -7.522582745878026e-05 -2.3910486698150635 -0.018083099275827408 -0.00025198934599757195 -2.4851443767547607 -0.018797412514686584
0.00024160862085409462 -2.582956552505493 -0.019540468230843544 0.00011064052523579448 -2.6849629878997803 -0.0203110184520483 3.682613169075921e-05 -2.789285182952881
-0.021099569275975227 -0.0010569762671366334 -2.906688690185547 -0.021987399086356163 -0.0002809810684993863 -3.030073881149292 -0.022918514907360077 -4.799842645297758e-05
-3.157484769821167 -0.023881003260612488 0.0008387565612792969 -3.284775733947754 -0.024845194071531296 0.0003437995910644531 -3.42095685005188 -0.025875257328152657
-0.0008201312739402056 -3.5413272380828857 -0.026784198358654976 0.0010564136318862438 -3.6707987785339355 -0.02776452712714672 0.00013155936903785914 -3.8053882122039795
-0.02878069505095482 -0.00018957137945108116 -3.921295166015625 -0.12318029999732971 0.0006895160768181086 -4.033026218414307 -0.2300146371126175 0.0009158801985904574
-4.150659561157227 -0.287363201379776 0.0009153604041785002 -4.281641006469727 -0.3310737609863281 0.00019416808208916336 -4.412087917327881 -0.36836671829223633
0.00029478073702193797 -4.543777942657471 -0.4047028124332428 0.00017220496374648064 -4.656833648681641 -0.5400273203849792 0.00021167754312045872 -4.763606548309326
-0.6893871426582336 0.0006772422348149121 -4.879909038543701 -0.7938050031661987 0.0009183978545479476 -5.001865863800049 -0.8844771981239319 0.0052058459259569645
-5.1388959884643555 -0.9787009358406067 0.0027067088522017 -5.212555408477783 -1.04795241355896 0.001176862744614482 -5.23713493347168 -1.1766464710235596
0.00036352634197100997 -5.241394519805908 -1.344975233078003 0.0003062820469494909 -5.290264129638672 -1.4968883991241455 0.0003419208514969796 -5.360812664031982
