planning_aware_eval/interactive/data_collection/interactive/10_t3-7_1_t_u_f_1_0/velocity/player.npy (npy, 8504 bytes, 1 tensors)

array f8 [349, 3]
0	0xbe69e05560000000	-4.8198369739793634e-08
1	0x3e52168f40000000	1.6845877581772584e-08
2	0x3f33598520000000	0.0002952528011519462
3	0xbe3f6d0e00000000	-7.316934613754711e-09
4	0xbe4a2a9840000000	-1.2184672826265341e-08
5	0x3f280f5c20000000	0.00018356322834733874
6	0x3e5eae1720000000	2.8573014176913603e-08
7	0x3e2cb9cf60000000	3.3441256430677413e-09
8	0x3f3471ae00000000	0.0003119516186416149
9	0x3e69abb720000000	4.7815522208338734e-08
10	0xbe75b1bf60000000	-8.081766367240562e-08
11	0x3efbb47ae0000000	2.642154686327558e-05
12	0xbe5446fa40000000	-1.888466627519847e-08
13	0xbe4cbf75c0000000	-1.3386779684765315e-08
14	0x3ef2ea3d60000000	1.803874874894973e-05
15	0x3e470965c0000000	1.0727303489943552e-08
16	0xbe4edba820000000	-1.4369391898583217e-08
17	0xbf29a947a0000000	-0.00019577979401219636
18	0xbe69b5e1e0000000	-4.788949681255872e-08
19	0xbe65e14440000000	-4.0754578378709994e-08
20	0xbeda6b8520000000	-6.299018878053175e-06
21	0xbe0b17a3c0000000	-7.884909392075201e-10
22	0xbe59990120000000	-2.383969111008355e-08
23	0x3ee4f5c280000000	9.994506399380043e-06
24	0xbe60a169e0000000	-3.097676071206479e-08
25	0x3e36f76ce0000000	5.3473061534248245e-09
26	0xbf1973d700000000	-9.709357982501388e-05
27	0xbded8cc280000000	-2.1500340396940487e-10
28	0x3e41b2a820000000	8.241216598037227e-09
29	0x3f184a8f60000000	9.26637658267282e-05
30	0x3e70991a80000000	6.183259415593056e-08
31	0xbe1691ae00000000	-1.3136922660805794e-09
32	0xbf1b52e140000000	-0.00010423183266539127
33	0xbe60d91560000000	-3.138181270401219e-08
34	0x3e4d233bc0000000	1.356826651033316e-08
35	0x3f011999a0000000	3.261566234868951e-05
36	0xbf568d5000000000	-0.0013764649629592896
37	0x3fa196c860000000	0.034353505820035934
38	0xbf12f80000000000	-7.236003875732422e-05
39	0xbf56693ae0000000	-0.0013678622199222445
40	0x3fa18352e0000000	0.03420504555106163
41	0x3f21728f60000000	0.0001331138628302142
42	0xbf5751b7a0000000	-0.0014232915127649903
43	0x3fa238bce0000000	0.035589125007390976
44	0xbef01851e0000000	-1.534938746772241e-05
45	0xbf58b4f240000000	-0.0015079847071319818
46	0x3fa3535920000000	0.03774527087807655
47	0x3ee60f5c20000000	1.0519027455302421e-05
48	0xbf5b9a3800000000	-0.001684717833995819
49	0x3fa597d160000000	0.042173903435468674
50	0xbf07c8f5c0000000	-4.536628694040701e-05
51	0xbf6141da40000000	-0.0021065962500870228
52	0x3fab1916a0000000	0.05292578414082527
53	0xbf01051ec0000000	-3.2463074603583664e-05
54	0xbf7078c0a0000000	-0.004021408502012491
55	0x3fb38522c0000000	0.07625024020671844
56	0x3f2012b840000000	0.00012262820382602513
57	0xbf78549040000000	-0.005940021015703678
58	0x3fc19b8c80000000	0.13755947351455688
59	0xbee2ca3d60000000	-8.959769729699474e-06
60	0xbf7dab4e60000000	-0.007243448402732611
61	0x3fc9979420000000	0.1999383121728897
62	0x3f07c00000000000	4.5299530029296875e-05
63	0xbf852ba540000000	-0.01033715344965458
64	0x3fd2f62660000000	0.296273797750473
65	0xbf0bef5c20000000	-5.328178303898312e-05
66	0xbf8ad9ae00000000	-0.013110503554344177
67	0x3fd70ae000000000	0.36003875732421875
68	0xbeefd70a40000000	-1.5182495189947076e-05
69	0xbf92b60ae0000000	-0.018272561952471733
70	0x3fddc5c600000000	0.4651961326599121
71	0x3f0a3a3d60000000	5.0024984375340864e-05
72	0xbf96415880000000	-0.02173364907503128
73	0x3fe159dea0000000	0.542220413684845
74	0x3eff2f5c20000000	2.9740333047811873e-05
75	0xbf99ee6ca0000000	-0.02532357908785343
76	0x3fe4135640000000	0.627360463142395
77	0xbf0f233320000000	-5.9390065871411934e-05
78	0xbf9b6ba920000000	-0.026777880266308784
79	0x3fe62debc0000000	0.6931055784225464
80	0xbef51851e0000000	-2.011775904975366e-05
81	0xbfa06bd580000000	-0.03207270801067352
82	0x3fe977a0c0000000	0.7958530187606812
83	0x3ef3eb8520000000	1.8997192455572076e-05
84	0xbfa2196080000000	-0.03534986078739166
85	0x3fec311a00000000	0.8809938430786133
86	0x3f16975c20000000	8.617877756478265e-05
87	0xbfa44c6a20000000	-0.039645496755838394
88	0x3fef4be4e0000000	0.9780144095420837
89	0x3eebe8f5c0000000	1.3308525012689643e-05
90	0xbfa6654c20000000	-0.04374158754944801
91	0x3ff13a55e0000000	1.0767420530319214
92	0xbf50b7e140000000	-0.001020402880385518
93	0xbfa8917c80000000	-0.04798497259616852
94	0x3ff2ce2bc0000000	1.1753346920013428
95	0x3f46f5e140000000	0.0007006978848949075
96	0xbfaab96960000000	-0.05219582840800285
97	0x3ff45f23a0000000	1.273227334022522
98	0x3f35c48f60000000	0.00033215046278201044
99	0xbface762e0000000	-0.05645283684134483
100	0x3ff5f58a60000000	1.3724464178085327
101	0x3f25aa6660000000	0.00016529559798073024
102	0xbfaf273ce0000000	-0.0608462356030941
103	0x3ff794b200000000	1.4738025665283203
104	0xbf03c999a0000000	-3.7741661799373105e-05
105	0xbfb0a2bfe0000000	-0.06498336046934128
106	0x3ff9376a80000000	1.5760293006896973
107	0x3f0b528f60000000	5.211353345657699e-05
108	0xbfb1969820000000	-0.06870413571596146
109	0x3ffade5200000000	1.6792774200439453
110	0x3f17f0a3c0000000	9.132384730037302e-05
111	0xbfb268c3a0000000	-0.07191107422113419
112	0x3ffc84dd20000000	1.7824374437332153
113	0x3f2324ccc0000000	0.0001460552157368511
114	0xbfb318a6e0000000	-0.0745949074625969
115	0x3ffe30dd40000000	1.8869297504425049
116	0x3ef127ae00000000	1.6360281733796e-05
117	0xbfb393db80000000	-0.0764748752117157
118	0x3fffe84760000000	1.9942086935043335
119	0xbf24311ec0000000	-0.00015405178419314325
120	0xbfb3627ec0000000	-0.07572166621685028
121	0x400055e5a0000000	2.0419418811798096
122	0xbf5dac6660000000	-0.001811122871004045
123	0xbfb3ae70e0000000	-0.07688050717115402
124	0x40015e0160000000	2.17090106010437
125	0x3f498847a0000000	0.0007791852694936097
126	0xbfb3960340000000	-0.07650776207447052
127	0x400229aa40000000	2.2703442573547363
128	0x3f410dc280000000	0.0005204391200095415
129	0xbfb3738000000000	-0.07598114013671875
130	0x4002e7b0a0000000	2.3631298542022705
131	0x3f3aabae00000000	0.00040696142241358757
132	0xbfb357bf00000000	-0.0755576491355896
133	0x40039f0c20000000	2.452659845352173
134	0x3f2988f5c0000000	0.00019481658819131553
135	0xbfb3609da0000000	-0.07569298893213272
136	0x40044e6a80000000	2.5382890701293945
137	0x3f0b0e1480000000	5.16033178428188e-05
138	0xbfb35bb320000000	-0.07561797648668289
139	0x4004f47840000000	2.6193699836730957
140	0xbeeee3d700000000	-1.4729499525856227e-05
141	0xbfb3577800000000	-0.07555341720581055
142	0x40059093a0000000	2.695594072341919
143	0x3f162d1ec0000000	8.459568198304623e-05
144	0xbfb33cbcc0000000	-0.07514552772045135
145	0x40062071c0000000	2.7658419609069824
146	0xbefe5d70a0000000	-2.8958320399397053e-05
147	0xbfb32b2020000000	-0.07487679272890091
148	0x4006a6eaa0000000	2.8315021991729736
149	0xbf1aed70a0000000	-0.00010272025974700227
150	0xbfb31e9aa0000000	-0.0746857300400734
151	0x4007274480000000	2.8941736221313477
152	0x3f18cdc280000000	9.461879380978644e-05
153	0xbfb32474c0000000	-0.07477502524852753
154	0x40079fcea0000000	2.953030824661255
155	0xbefb03d700000000	-2.5763511075638235e-05
156	0xbfb32fe040000000	-0.07494927942752838
157	0x400812eba0000000	3.0092384815216064
158	0xbf14d999a0000000	-7.953643944347277e-05
159	0xbfb32aa340000000	-0.07486934959888458
160	0x40087f4280000000	3.062138557434082
161	0xbf075ae140000000	-4.4546126446221024e-05
162	0xbfb3209600000000	-0.07471597194671631
163	0x4008e548a0000000	3.111954927444458
164	0xbee90f5c20000000	-1.1949538929911796e-05
165	0xbfb30f71a0000000	-0.0744544044137001
166	0x40094598c0000000	3.158982753753662
167	0x3efb970a40000000	2.631187453516759e-05
168	0xbfb2f64400000000	-0.07407021522521973
169	0x4009a070e0000000	3.2033402919769287
170	0xbf17df0a40000000	-9.106159268412739e-05
171	0xbfb2d4e7a0000000	-0.0735611692070961
172	0x4009f4c760000000	3.244520902633667
173	0x3f1fc851e0000000	0.00012124061322538182
174	0xbfb2af7280000000	-0.07298961281776428
175	0x400a448940000000	3.2834649085998535
176	0xbf15470a40000000	-8.116722165141255e-05
177	0xbfb28df3e0000000	-0.0724785253405571
178	0x400a900420000000	3.3203203678131104
179	0xbf059cccc0000000	-4.1222570871468633e-05
180	0xbfb2703ec0000000	-0.07202522456645966
181	0x400ad8abc0000000	3.3557963371276855
182	0xbf2bde8f60000000	-0.0002126264589605853
183	0xbfb24ef720000000	-0.07151741534471512
184	0x400b1ebb80000000	3.3900060653686523
185	0x3f06d999a0000000	4.3582916987361386e-05
186	0xbfb2467e60000000	-0.07138814777135849
187	0x400b6320e0000000	3.4234025478363037
188	0xbf42775c20000000	-0.0005635452107526362
189	0xbfb25d8d60000000	-0.07173999398946762
190	0x400ba78520000000	3.456796884536743
191	0x3f3128a3e0000000	0.0002618217549752444
192	0xbfb284c400000000	-0.07233834266662598
193	0x400be80940000000	3.4882988929748535
194	0x3f3057ae00000000	0.00024936674162745476
195	0xbfb2b1ada0000000	-0.07302365452051163
196	0x400c259240000000	3.518345355987549
197	0x3f293c51e0000000	0.0001925325341289863
198	0xbfb2e6c840000000	-0.07383395731449127
199	0x400c606520000000	3.547067880630493
200	0x3f1e666660000000	0.00011596679541980848
201	0xbfb31edc60000000	-0.07468964904546738
202	0x400c982dc0000000	3.574306011199951
203	0x3f15da8f60000000	8.336544124176726e-05
204	0xbfb34521a0000000	-0.07527361065149307
205	0x400cc94640000000	3.598278522491455
206	0xbf5c4c0000000000	-0.0017271041870117188
207	0xbfb35f2620000000	-0.07567060738801956
208	0x400cfb52a0000000	3.622716188430786
209	0x3f44253d60000000	0.0006147908861748874
210	0xbfb3635180000000	-0.0757342278957367
211	0x400d29d200000000	3.6454200744628906
212	0x3f44c747a0000000	0.0006341075641103089
213	0xbfb36250a0000000	-0.07571891695261002
214	0x400d56f6e0000000	3.6674630641937256
215	0x3f1f761460000000	0.00012001513823634014
216	0xbfb362b9a0000000	-0.07572517544031143
217	0x400d7e5dc0000000	3.686702251434326
218	0x3f3316a3c0000000	0.0002912664203904569
219	0xbfb35ca520000000	-0.07563240081071854
220	0x400da3b5e0000000	3.7049367427825928
221	0x3eeccf5c20000000	1.3737678273173515e-05
222	0xbfb34cd560000000	-0.07539113610982895
223	0x400dc580a0000000	3.7214367389678955
224	0x3f05000000000000	4.00543212890625e-05
225	0xbfb32a5ea0000000	-0.07486525923013687
226	0x400de4de00000000	3.7367515563964844
227	0xbf206fd700000000	-0.00012540339957922697
228	0xbfb3015fc0000000	-0.07423971593379974
229	0x400e00b180000000	3.750338554382324
230	0x3f1070f5c0000000	6.271839083638042e-05
231	0xbfb2d2b3a0000000	-0.07352755218744278
232	0x400e1b7ba0000000	3.7634193897247314
233	0xbf240547a0000000	-0.00015274524048436433
234	0xbfb2a29520000000	-0.07279331237077713
235	0x400e33c4c0000000	3.775277614593506
236	0x3efdb33320000000	2.8324126105871983e-05
237	0xbfb20f5d20000000	-0.07054693251848221
238	0x400e34e860000000	3.77583384513855
239	0xbf72a12cc0000000	-0.004548239521682262
240	0xbfb16ce2e0000000	-0.06806772202253342
241	0x400e4dd800000000	3.7880096435546875
242	0xbf6a604a40000000	-0.0032197427935898304
243	0xbfb1759aa0000000	-0.0682007446885109
244	0x400e677920000000	3.8005239963531494
245	0xbf5e965700000000	-0.001866898499429226
246	0xbfb17c92e0000000	-0.06830709427595139
247	0x400e81ec40000000	3.813438892364502
248	0xbf4e321460000000	-0.000921497296076268
249	0xbfb16d3ae0000000	-0.06807296723127365
250	0x400e9e1260000000	3.827183485031128
251	0xbf3b14b840000000	-0.00041322229662910104
252	0xbfb14d2080000000	-0.0675831139087677
253	0x400ebcafa0000000	3.8421318531036377
254	0xbf2c2428e0000000	-0.0002147006889572367
255	0xbfb1240080000000	-0.06695559620857239
