planning_aware_eval/obstacle/data_collection/obstacle/10_t1-2_0_r_sr/velocity/player.npy (npy, 5864 bytes, 1 tensors)

array f8 [239, 3]
0.0 0.0 0.0 0.0 0.0 0.0 0.0 0.0
0.0 0.0 0.0 0.0 0.0 0.0 0.0 -0.0006460642907768488
0.058999914675951004 -0.002547302283346653 -0.0005905883153900504 0.057279057800769806 -0.0011679744347929955 -0.0005719395121559501 0.05542425438761711 -0.0002245330688310787
-0.0005810288712382317 0.05574896186590195 -0.00022142409579828382 -0.0005879476084373891 0.05520250275731087 0.00012118339509470388 -0.000548850919585675 0.05157313868403435
0.0013360881712287664 -0.0005540340789593756 0.0507197305560112 0.0011321210768073797 -0.0005548527115024626 0.05055387318134308 0.0007837676675990224 -0.0005860557430423796
0.05253351479768753 -6.871223013149574e-05 -0.0005702189519070089 0.05121099203824997 0.0006430149078369141 -0.0005759851192124188 0.05096088722348213 0.0007746839546598494
-0.0006027552881278098 0.05298852175474167 0.00012640953355003148 -0.0006105235079303384 0.05372221767902374 0.00030079841963015497 -0.0006268343422561884 0.05466809123754501
0.0005169677897356451 -0.0006674867472611368 0.05800822749733925 -4.446029561222531e-05 -0.0006994741270318627 0.060426805168390274 0.00025671481853350997 -0.0007525124819949269
0.06507580727338791 0.00011909008026123047 -0.0008784203673712909 0.07575428485870361 0.00010924816160695627 -0.0011536972597241402 0.1016455590724945 7.890701090218499e-05
-0.0019592363387346268 0.1375030279159546 -5.7945249864133075e-05 -0.0015259600477293134 0.16494637727737427 -0.00028293608920648694 -0.0016143466345965862 0.16750870645046234
-0.0001453781151212752 -0.0028296022210270166 0.22913196682929993 0.00018857479153666645 -0.0037012894172221422 0.28766560554504395 -0.0009645938407629728 -0.0028887223452329636
0.30401718616485596 0.0002638912119437009 -0.004294680431485176 0.34385946393013 0.00047646521124988794 -0.004340047482401133 0.35585567355155945 0.00046974659198895097
-0.0045770606957376 0.41767382621765137 0.0005746555398218334 -0.005536727141588926 0.47017011046409607 -0.0008061885600909591 -0.005871914327144623 0.5294013619422913
0.0004917716723866761 -0.006485619582235813 0.5937644243240356 0.00013161658716853708 -0.007854033261537552 0.6260632872581482 5.6552886235294864e-05 -0.008385572582483292
0.6684800386428833 0.00019741058349609375 -0.00884696003049612 0.7154205441474915 -6.476401904365048e-05 -0.009323357604444027 0.773645281791687 0.00017762184143066406
-0.00999552570283413 0.838703989982605 4.57715977972839e-05 -0.01074773259460926 0.8999895453453064 -2.7580261303228326e-05 -0.011564986780285835 0.9685428142547607
9.851932554738596e-05 -0.012387317605316639 1.0376745462417603 -8.373260061489418e-05 -0.013159524649381638 1.1092809438705444 -0.0007495117024518549 -0.014202671125531197
1.1914006471633911 0.00038764477358199656 -0.015105295926332474 1.2656939029693604 -0.0003284454287495464 -0.016121963039040565 1.3506654500961304 0.00014594077947549522
-0.01714457757771015 1.4358991384506226 0.000176067347638309 -0.0181796383112669 1.522713303565979 0.00016648769087623805 -0.019233431667089462 1.6109646558761597
0.00018662928778212517 -0.020289722830057144 1.6993181705474854 -4.749298022943549e-05 -0.021387239918112755 1.7911410331726074 1.2049674296576995e-05 -0.02247396484017372
1.8823474645614624 -0.0006106567452661693 -0.023700585588812828 1.985312819480896 0.0007199096726253629 -0.024812443181872368 2.0783026218414307 -0.0005911350017413497
-0.0260844137519598 2.1847751140594482 1.2874603271484375e-05 -0.10129749774932861 2.2863128185272217 9.241104271495715e-05 -0.1605355590581894 2.381377696990967
-0.00044924733811058104 -0.1920735388994217 2.474991798400879 0.0009482764871791005 -0.21419063210487366 2.5773348808288574 0.0001688194170128554 -0.23252157866954803
2.681785821914673 0.0009920262964442372 -0.25143659114837646 2.7904765605926514 0.0003854942333418876 -0.3470727205276489 2.885023832321167 0.0002805042313411832
-0.4450893998146057 2.976820707321167 0.0005541944410651922 -0.5022771954536438 3.0794687271118164 0.0005376291228458285 -0.549298882484436 3.1858339309692383
0.00040707585867494345 -0.6019524931907654 3.3076000213623047 -0.001078433939255774 -0.6502942442893982 3.4208459854125977 0.0006787872407585382 -0.7801491618156433
3.5053634643554688 0.0004359245067462325 -0.9280733466148376 3.5916454792022705 0.00022411346435546875 -1.0275155305862427 3.688411235809326 0.0008949565817601979
-1.1190866231918335 3.7922661304473877 0.0004938888596370816 -1.207123875617981 3.8941164016723633 0.0005213927943259478 -1.2978333234786987 3.996184825897217
0.0002900123654399067 -1.4867686033248901 4.057061195373535 -0.0002794360916595906 -1.667909860610962 4.106045246124268 0.000864005065523088 -1.8210277557373047
4.174436569213867 0.0008694505668245256 -1.9671626091003418 4.250228404998779 0.0006439399439841509 -2.115640878677368 4.328352451324463 0.0003507709479890764
-2.2832982540130615 4.4123687744140625 -0.0003176784375682473 -2.495314359664917 4.426262378692627 0.0007623290875926614 -2.7399752140045166 4.412684440612793
0.005320319905877113 -2.958610773086548 4.417375564575195 0.003321299562230706 -3.133044481277466 4.3743367195129395 0.0018784331623464823 -3.2257871627807617
00000000: 0000 0000 0000 0000 0000 0000 0000 0000
00000010: 0000 0000 0000 0000 0000 0000 0000 0000
00000020: 0000 0000 0000 0000 0000 0000 0000 0000
00000030: 0000 0000 0000 0000 0000 0000 0000 0000
00000040: 0000 0000 0000 0000 0000 0000 0000 0000
00000050: 0000 0000 0000 0000 0000 0000 0000 0000
00000060: 0000 0000 0000 0000 0000 0000 0000 0000
00000070: 0000 0000 0000 0000 0000 0080 942b 45bf
00000080: 0000 00a0 3c35 ae3f 0000 0080 14de 64bf
00000090: 0000 00c0 365a 43bf 0000 0040 ae53 ad3f
000000a0: 0000 0000 d722 53bf 0000 00c0 c6bd 42bf
000000b0: 0000 0060 9160 ac3f 0000 0060 146e 2dbf
000000c0: 0000 0000 060a 43bf 0000 00c0 208b ac3f
000000d0: 0000 0080 c205 2dbf 0000 00e0 0f44 43bf
000000e0: 0000 00a0 8043 ac3f 0000 00e0 7ac4 1f3f
000000f0: 0000 0060 18fc 41bf 0000 0060 cb67 aa3f
00000100: 0000 00c0 f5e3 553f 0000 0020 9327 42bf
00000110: 0000 00c0 eff7 a93f 0000 00c0 758c 523f
00000120: 0000 0020 712e 42bf 0000 0080 32e2 a93f
00000130: 0000 0040 b8ae 493f 0000 0020 3134 43bf
00000140: 0000 0040 ace5 aa3f 0000 0020 3303 12bf
00000150: 0000 00e0 57af 42bf 0000 00c0 5338 aa3f
00000160: 0000 0000 0012 453f 0000 00a0 b6df 42bf
00000170: 0000 00a0 8b17 aa3f 0000 0020 8562 493f
00000180: 0000 0020 47c0 43bf 0000 00c0 4f21 ab3f
00000190: 0000 00a0 9991 203f 0000 0040 7101 44bf
000001a0: 0000 0080 7a81 ab3f 0000 0060 8fb6 333f
000001b0: 0000 0080 448a 44bf 0000 00c0 74fd ab3f
000001c0: 0000 00e0 a3f0 403f 0000 00e0 48df 45bf
000001d0: 0000 0020 41b3 ad3f 0000 0020 5c4f 07bf
000001e0: 0000 0040 9deb 46bf 0000 0020 43f0 ae3f
000001f0: 0000 00c0 f5d2 303f 0000 0040 88a8 48bf
00000200: 0000 00e0 cea8 b03f 0000 0000 0038 1f3f
00000210: 0000 0060 b9c8 4cbf 0000 0000 a264 b33f
00000220: 0000 0020 85a3 1c3f 0000 0000 f5e6 52bf
00000230: 0000 0080 7105 ba3f 0000 0020 5caf 143f
00000240: 0000 0000 d10c 60bf 0000 0000 b399 c13f
00000250: 0000 00a0 4761 0ebf 0000 0020 5700 59bf
00000260: 0000 0080 f61c c53f 0000 0040 e18a 32bf
00000270: 0000 0080 0f73 5abf 0000 00e0 ec70 c53f
00000280: 0000 0080 140e 23bf 0000 0020 1b2e 67bf
00000290: 0000 0040 3254 cd3f 0000 0020 85b7 283f
000002a0: 0000 00a0 2a52 6ebf 0000 0000 1d69 d23f
000002b0: 0000 0080 999b 4fbf 0000 0000 17aa 67bf
000002c0: 0000 0080 0475 d33f 0000 0020 5c4b 313f
000002d0: 0000 0080 4c97 71bf 0000 0020 cb01 d63f
000002e0: 0000 0080 c239 3f3f 0000 00a0 dec6 71bf
000002f0: 0000 00e0 56c6 d63f 0000 0040 0ac9 3e3f
00000300: 0000 0060 65bf 72bf 0000 0000 2bbb da3f
00000310: 0000 0060 8fd4 423f 0000 00e0 adad 76bf
00000320: 0000 0060 4417 de3f 0000 00c0 cc6a 4abf
00000330: 0000 0000 260d 78bf 0000 0020 dbf0 e03f
00000340: 0000 00a0 471d 403f 0000 0040 aa90 7abf
00000350: 0000 0040 1e00 e33f 0000 00e0 5140 213f
00000360: 0000 0080 c615 80bf 0000 00e0 b508 e43f
00000370: 0000 0060 66a6 0d3f 0000 0080 742c 81bf
00000380: 0000 0040 3064 e53f 0000 0000 00e0 293f
00000390: 0000 00e0 5a1e 82bf 0000 00a0 b9e4 e63f
000003a0: 0000 0060 3dfa 10bf 0000 00e0 1f18 83bf
000003b0: 0000 00c0 b3c1 e83f 0000 0000 0048 273f
000003c0: 0000 00c0 8878 84bf 0000 00c0 a9d6 ea3f
000003d0: 0000 0020 5cff 073f 0000 0040 e802 86bf
000003e0: 0000 00e0 b6cc ec3f 0000 0020 85eb fcbe
000003f0: 0000 0040 62af 87bf 0000 0080 4dfe ee3f
00000400: 0000 0020 85d3 193f 0000 00a0 855e 89bf
00000410: 0000 00a0 509a f03f 0000 0020 33f3 15bf
00000420: 0000 0080 61f3 8abf 0000 0060 9dbf f13f
00000430: 0000 0020 5c8f 48bf 0000 0040 4a16 8dbf
00000440: 0000 0020 fa0f f33f 0000 00a0 9967 393f
00000450: 0000 0080 86ef 8ebf 0000 0040 4840 f43f
00000460: 0000 0060 6686 35bf 0000 00a0 4682 90bf
00000470: 0000 0060 539c f53f 0000 00c0 f520 233f
00000480: 0000 0020 598e 91bf 0000 0060 71f9 f63f
00000490: 0000 0000 d713 273f 0000 00e0 ae9d 92bf
000004a0: 0000 00a0 085d f83f 0000 0060 66d2 253f
000004b0: 0000 00c0 edb1 93bf 0000 00e0 82c6 f93f
000004c0: 0000 0060 3d76 283f 0000 0040 d4c6 94bf
000004d0: 0000 0040 6830 fb3f 0000 0060 66e6 08bf
000004e0: 0000 0060 89e6 95bf 0000 0080 83a8 fc3f
000004f0: 0000 00a0 1e45 e93e 0000 0040 6a03 97bf
00000500: 0000 0060 181e fe3f 0000 0060 8f02 44bf
00000510: 0000 0060 f744 98bf 0000 0060 d7c3 ff3f
00000520: 0000 0040 0a97 473f 0000 00e0 6e68 99bf
00000530: 0000 0020 5da0 0040 0000 00c0 cc5e 43bf
00000540: 0000 0060 dfb5 9abf 0000 0060 6b7a 0140
00000550: 0000 0000 0000 eb3e 0000 0000 a2ee b9bf
00000560: 0000 0060 5e4a 0240 0000 00a0 9939 183f
00000570: 0000 00e0 6d8c c4bf 0000 00c0 0f0d 0340
00000580: 0000 00a0 1e71 3dbf 0000 00a0 dd95 c8bf
00000590: 0000 0080 c8cc 0340 0000 0040 b812 4f3f
000005a0: 0000 0040 996a cbbf 0000 00c0 619e 0440
000005b0: 0000 00c0 a320 263f 0000 0060 44c3 cdbf
000005c0: 0000 0020 4c74 0540 0000 0020 dc40 503f
000005d0: 0000 0080 8917 d0bf 0000 0060 e552 0640
000005e0: 0000 0020 8543 393f 0000 0080 7036 d6bf
000005f0: 0000 0060 8714 0740 0000 0080 1462 323f
00000600: 0000 0040 587c dcbf 0000 0060 87d0 0740
00000610: 0000 0080 eb28 423f 0000 00a0 a712 e0bf
00000620: 0000 0080 c0a2 0840 0000 00c0 f59d 413f
00000630: 0000 0040 db93 e1bf 0000 0080 967c 0940
00000640: 0000 0080 99ad 3a3f 0000 00e0 3143 e3bf
00000650: 0000 0000 f775 0a40 0000 00a0 47ab 51bf
00000660: 0000 00e0 35cf e4bf 0000 0080 e45d 0b40
00000670: 0000 0080 143e 463f 0000 0060 fbf6 e8bf
00000680: 0000 0000 fc0a 0c40 0000 0080 9991 3c3f
00000690: 0000 00e0 c6b2 edbf 0000 00a0 b0bb 0c40
000006a0: 0000 0000 0060 2d3f 0000 0020 b470 f0bf
000006b0: 0000 00c0 dd81 0d40 0000 00a0 7053 4d3f
000006c0: 0000 0060 c7e7 f1bf 0000 00a0 8f56 0e40
000006d0: 0000 0040 0a2f 403f 0000 0020 6150 f3bf
000006e0: 0000 0080 2627 0f40 0000 0080 c215 413f
000006f0: 0000 00e0 ecc3 f4bf 0000 00c0 2ff8 0f40
00000700: 0000 00a0 9901 333f 0000 00e0 cdc9 f7bf
00000710: 0000 0040 6e3a 1040 0000 00e0 2850 32bf
00000720: 0000 0040 c2af fabf 0000 0020 976c 1040
00000730: 0000 00c0 cc4f 4c3f 0000 0000 ee22 fdbf
00000740: 0000 0080 9fb2 1040 0000 00e0 7a7d 4c3f
00000750: 0000 0080 7f79 ffbf 0000 00e0 3b00 1140
00000760: 0000 0080 c219 453f 0000 0020 d5ec 00c0
00000770: 0000 00a0 3b50 1140 0000 00c0 f5fc 363f
00000780: 0000 00e0 3144 02c0 0000 0000 44a6 1140
00000790: 0000 0080 c2d1 34bf 0000 0060 67f6 03c0
000007a0: 0000 0020 7eb4 1140 0000 0040 e1fa 483f
000007b0: 0000 0020 78eb 05c0 0000 00c0 96a6 1140
000007c0: 0000 0080 c2ca 753f 0000 0020 3cab 07c0
000007d0: 0000 0080 64ab 1140 0000 0020 4535 6b3f
000007e0: 0000 00a0 7910 09c0 0000 0020 527f 1140
000007f0: 0000 0040 b8c6 5e3f 0000 0080 69ce 09c0
