planning_aware_eval/interactive/data_collection/interactive/10_i-1_1_t_r_f_1_rl/transform/player.npy (npy, 18328 bytes, 1 tensors)

array f8 [325, 7]
00000000: 0000 0080 6eeb 44c0 0000 0080 de0f 4640
00000010: 0000 00c0 ccc4 5b3f 0000 0080 2011 193f
00000020: 0000 00e0 ee8c 56c0 0000 00e0 ffff 0fbf
00000030: 0000 0000 0000 0000 0000 0080 6eeb 44c0
00000040: 0000 0040 dd0f 4640 0000 0040 b8c2 5b3f
00000050: 0000 0080 2011 193f 0000 00e0 ee8c 56c0
00000060: 0000 00e0 ffff 0fbf 0000 0000 0000 0000
00000070: 0000 00e0 6eeb 44c0 0000 00c0 da0f 4640
00000080: 0000 0020 33d3 5b3f 0000 0060 4ff6 293f
00000090: 0000 0000 f28c 56c0 0000 0040 ffff ffbe
000000a0: 0000 0000 0000 0000 0000 0000 6feb 44c0
000000b0: 0000 00a0 d90f 4640 0000 0080 14ee 5b3f
000000c0: 0000 0060 4ff6 293f 0000 0000 f28c 56c0
000000d0: 0000 0040 ffff ffbe 0000 0000 0000 0000
000000e0: 0000 0020 6feb 44c0 0000 0020 d70f 4640
000000f0: 0000 0080 ebdd 5b3f 0000 0060 4ff6 293f
00000100: 0000 0000 f28c 56c0 0000 0040 ffff ffbe
00000110: 0000 0000 0000 0000 0000 0000 6feb 44c0
00000120: 0000 0040 d60f 4640 0000 00a0 47ad 5b3f
00000130: 0000 0060 4ff6 293f 0000 0000 f28c 56c0
00000140: 0000 0040 ffff ffbe 0000 0000 0000 0000
00000150: 0000 0060 6feb 44c0 0000 0000 d40f 4640
00000160: 0000 00c0 a3d8 5b3f 0000 0060 4ff6 293f
00000170: 0000 0000 f28c 56c0 0000 0040 ffff ffbe
00000180: 0000 0000 0000 0000 0000 0020 6feb 44c0
00000190: 0000 0000 d30f 4640 0000 00c0 a3d0 5b3f
000001a0: 0000 0060 4ff6 293f 0000 0000 f28c 56c0
000001b0: 0000 0040 ffff ffbe 0000 0000 0000 0000
000001c0: 0000 0060 6feb 44c0 0000 0020 d10f 4640
000001d0: 0000 0040 b806 5c3f 0000 0060 4ff6 293f
000001e0: 0000 0000 f28c 56c0 0000 0040 ffff ffbe
000001f0: 0000 0000 0000 0000 0000 0080 6feb 44c0
00000200: 0000 0020 d00f 4640 0000 00c0 cc00 5c3f
00000210: 0000 0040 07b2 133f 0000 0000 f28c 56c0
00000220: 0000 0000 0000 00bf 0000 0000 0000 0000
00000230: 0000 00c0 6feb 44c0 0000 0000 ce0f 4640
00000240: 0000 00a0 4709 5c3f 0000 0000 dca5 1c3f
00000250: 0000 0000 f48c 56c0 0000 0000 0000 00bf
00000260: 0000 0000 0000 0000 0000 00c0 6feb 44c0
00000270: 0000 0040 cd0f 4640 0000 0000 00e8 5b3f
00000280: 0000 0000 dca5 0c3f 0000 0000 f28c 56c0
00000290: 0000 00e0 ffff ffbe 0000 0000 0000 0000
000002a0: 0000 0000 70eb 44c0 0000 0020 cb0f 4640
000002b0: 0000 0080 14da 5b3f 0000 00c0 c246 173f
000002c0: 0000 0000 f58c 56c0 0000 0000 0000 0000
000002d0: 0000 0000 0000 0000 0000 0020 70eb 44c0
000002e0: 0000 0080 ca0f 4640 0000 0020 5cef 5b3f
000002f0: 0000 00c0 c246 173f 0000 0000 f58c 56c0
00000300: 0000 0000 0000 0000 0000 0000 0000 0000
00000310: 0000 0040 70eb 44c0 0000 0000 c80f 4640
00000320: 0000 0000 d79f 5b3f 0000 00c0 c246 173f
00000330: 0000 0000 f58c 56c0 0000 0000 0000 0000
00000340: 0000 0000 0000 0000 0000 0040 70eb 44c0
00000350: 0000 0000 c80f 4640 0000 0000 d79f 5b3f
00000360: 0000 00c0 c246 173f 0000 0000 f58c 56c0
00000370: 0000 0000 0000 0000 0000 0000 0000 0000
00000380: 0000 0080 70eb 44c0 0000 00a0 c00f 4640
00000390: 0000 0080 c2bd 5b3f 0000 0000 657c 353f
000003a0: 0000 00c0 fd8c 56c0 0000 0020 7eb6 f43e
000003b0: 0000 0000 0000 0000 0000 0080 70eb 44c0
000003c0: 0000 00c0 b90f 4640 0000 0080 c2bd 5b3f
000003d0: 0000 00c0 e668 3a3f 0000 00e0 fb8c 56c0
000003e0: 0000 0080 0000 10bf 0000 0000 0000 0000
000003f0: 0000 00e0 70eb 44c0 0000 00a0 ac0f 4640
00000400: 0000 0060 66ce 5b3f 0000 0080 cd09 453f
00000410: 0000 0000 048d 56c0 0000 0000 0000 0000
00000420: 0000 0000 0000 0000 0000 00e0 70eb 44c0
00000430: 0000 00e0 9c0f 4640 0000 00c0 cc9c 5b3f
00000440: 0000 0000 899e 483f 0000 0000 048d 56c0
00000450: 0000 0040 0000 10bf 0000 0000 0000 0000
00000460: 0000 00e0 71eb 44c0 0000 00a0 500f 4640
00000470: 0000 0080 c27d 5b3f 0000 0080 0e79 6b3f
00000480: 0000 0060 168d 56c0 0000 00e0 7f7d 1a3f
00000490: 0000 0000 0000 0000 0000 0000 74eb 44c0
000004a0: 0000 0020 cf0e 4640 0000 0040 0a3b 5b3f
000004b0: 0000 0000 53e4 773f 0000 0060 288d 56c0
000004c0: 0000 0080 95eb 303f 0000 0000 0000 0000
000004d0: 0000 0040 79eb 44c0 0000 00e0 ea0d 4640
000004e0: 0000 00a0 1ec5 5a3f 0000 0040 bee7 833f
000004f0: 0000 0000 ad8c 56c0 0000 00c0 c499 363f
00000500: 0000 0000 0000 0000 0000 0020 7deb 44c0
00000510: 0000 0000 aa0c 4640 0000 0040 b872 5a3f
00000520: 0000 0040 1935 8d3f 0000 0060 b78c 56c0
00000530: 0000 00a0 388b 363f 0000 0000 0000 0000
00000540: 0000 0060 7feb 44c0 0000 0060 e90a 4640
00000550: 0000 0000 00e4 593f 0000 00e0 af3d 943f
00000560: 0000 0000 328d 56c0 0000 00a0 fced 303f
00000570: 0000 0000 0000 0000 0000 00e0 81eb 44c0
00000580: 0000 0080 d408 4640 0000 00a0 4799 593f
00000590: 0000 00c0 d4d7 983f 0000 0060 a68d 56c0
000005a0: 0000 0020 ddf2 2d3f 0000 0000 0000 0000
000005b0: 0000 00a0 85eb 44c0 0000 0060 1e06 4640
000005c0: 0000 00c0 a3f0 583f 0000 0020 91e4 9d3f
000005d0: 0000 00e0 da8d 56c0 0000 00a0 9ae9 1d3f
000005e0: 0000 0000 0000 0000 0000 0060 8aeb 44c0
000005f0: 0000 00c0 1c03 4640 0000 0000 d7b3 583f
00000600: 0000 0020 edd3 a03f 0000 00c0 628d 56c0
00000610: 0000 0080 0800 20bf 0000 0000 0000 0000
00000620: 0000 00a0 8beb 44c0 0000 0060 7aff 4540
00000630: 0000 00c0 cc34 583f 0000 00a0 da7f a23f
00000640: 0000 00c0 d78d 56c0 0000 0000 0700 34bf
00000650: 0000 0000 0000 0000 0000 00c0 8feb 44c0
00000660: 0000 0060 5efb 4540 0000 0020 5cd7 573f
00000670: 0000 0000 6926 a43f 0000 0080 ed8c 56c0
00000680: 0000 00a0 ffff 44bf 0000 0000 0000 0000
00000690: 0000 0020 8feb 44c0 0000 0040 f6f6 4540
000006a0: 0000 0080 ebc1 573f 0000 00e0 4e41 a53f
000006b0: 0000 0080 ec8c 56c0 0000 00a0 ffff 4ebf
000006c0: 0000 0000 0000 0000 0000 00c0 8deb 44c0
000006d0: 0000 00e0 ecf1 4540 0000 00a0 7079 573f
000006e0: 0000 00c0 0d66 a63f 0000 0060 998c 56c0
000006f0: 0000 0020 0100 56bf 0000 0000 0000 0000
00000700: 0000 00a0 8beb 44c0 0000 0040 4eec 4540
00000710: 0000 00a0 1e29 573f 0000 0000 1191 a73f
00000720: 0000 0060 128c 56c0 0000 0000 0280 58bf
00000730: 0000 0000 0000 0000 0000 00c0 88eb 44c0
00000740: 0000 0080 57e6 4540 0000 00c0 cc0c 573f
00000750: 0000 00a0 0c89 a83f 0000 0080 a08b 56c0
00000760: 0000 00c0 ff7f 5abf 0000 0000 0000 0000
00000770: 0000 0040 86eb 44c0 0000 0060 1ee0 4540
00000780: 0000 00c0 f518 573f 0000 00c0 d282 a93f
00000790: 0000 0020 ac8a 56c0 0000 0000 ff7f 5cbf
000007a0: 0000 0000 0000 0000 0000 0020 81eb 44c0
000007b0: 0000 0060 47d9 4540 0000 00a0 9901 573f
000007c0: 0000 0060 5418 aa3f 0000 0020 448a 56c0
000007d0: 0000 00c0 0000 5dbf 0000 0000 0000 0000
000007e0: 0000 00e0 7deb 44c0 0000 00e0 1ad2 4540
000007f0: 0000 0000 aeff 563f 0000 0040 ee9b aa3f
-41.83930969238281 44.12397766113281 0.0016948699485510588 9.56226431299001e-05 -90.20207977294922 -6.103515261202119e-05 0.0 -41.83930969238281
44.123939514160156 0.001694374019280076 9.56226431299001e-05 -90.20207977294922 -6.103515261202119e-05 0.0 -41.83932113647461 44.123863220214844
0.001698303152807057 0.00019807547505479306 -90.2022705078125 -3.051756721106358e-05 0.0 -41.839324951171875 44.12382888793945 0.0017047119326889515
0.00019807547505479306 -90.2022705078125 -3.051756721106358e-05 0.0 -41.83932876586914 44.12375259399414 0.0017008590511977673 0.00019807547505479306
-90.2022705078125 -3.051756721106358e-05 0.0 -41.839324951171875 44.12372589111328 0.0016892623389139771 0.00019807547505479306 -90.2022705078125
-3.051756721106358e-05 0.0 -41.83933639526367 44.1236572265625 0.0016996001359075308 0.00019807547505479306 -90.2022705078125 -3.051756721106358e-05
0.0 -41.83932876586914 44.123626708984375 0.0016976927872747183 0.00019807547505479306 -90.2022705078125 -3.051756721106358e-05 0.0
-41.83933639526367 44.12356948852539 0.0017105864826589823 0.00019807547505479306 -90.2022705078125 -3.051756721106358e-05 0.0 -41.83934020996094
44.123538970947266 0.0017091750632971525 7.51320767449215e-05 -90.2022705078125 -3.0517578125e-05 0.0 -41.83934783935547 44.12347412109375
0.001711196848191321 0.00010928302071988583 -90.202392578125 -3.0517578125e-05 0.0 -41.83934783935547 44.123451232910156 0.0017032623291015625
5.464151035994291e-05 -90.2022705078125 -3.0517576306010596e-05 0.0 -41.83935546875 44.12338638305664 0.0016999435611069202 8.879245433490723e-05
-90.20245361328125 0.0 0.0 -41.839359283447266 44.12336730957031 0.0017050170572474599 8.879245433490723e-05 -90.20245361328125
0.0 0.0 -41.83936309814453 44.123291015625 0.0016860580071806908 8.879245433490723e-05 -90.20245361328125 0.0
0.0 -41.83936309814453 44.123291015625 0.0016860580071806908 8.879245433490723e-05 -90.20245361328125 0.0 0.0
-41.83937072753906 44.12306594848633 0.001693191472440958 0.0003278490621596575 -90.20298767089844 1.9753324522753246e-05 0.0 -41.83937072753906
44.12285614013672 0.001693191472440958 0.00040298112435266376 -90.20287322998047 -6.103518535383046e-05 0.0 -41.83938217163086 44.12245559692383
0.0016971587901934981 0.0006420377176254988 -90.203369140625 0.0 0.0 -41.83938217163086 44.12197494506836 0.0016853332053869963
0.0007513207383453846 -90.203369140625 -6.103517080191523e-05 0.0 -41.839412689208984 44.11964797973633 0.001677932683378458 0.003353622741997242
-90.2044906616211 0.00010105221736012027 0.0 -41.8394775390625 44.11569595336914 0.001662025460973382 0.005832981318235397 -90.2055892944336
0.00025818252470344305 0.0 -41.839637756347656 44.10873031616211 0.0016339110443368554 0.009719358757138252 -90.19805908203125 0.00034485867945477366
0.0 -41.83975601196289 44.09893798828125 0.001614265376701951 0.014261433854699135 -90.19869232177734 0.0003439915890339762 0.0
-41.83982467651367 44.08524703979492 0.0015802383422851562 0.019766567274928093 -90.2061767578125 0.00025832574465312064 0.0 -41.839900970458984
44.06898498535156 0.001562423654831946 0.024260830134153366 -90.2132797241211 0.00022849034576211125 0.0 -41.84001541137695 44.04780197143555
0.0015222167130559683 0.029192226007580757 -90.21648406982422 0.00011410719162086025 0.0 -41.84016036987305 44.024314880371094 0.001507720910012722
0.03286686912178993 -90.20915222167969 -0.00012207130203023553 0.0 -41.8401985168457 43.99592208862305 0.0014774322044104338 0.03613169863820076
-90.21629333496094 -0.0003051774110645056 0.0 -41.84032440185547 43.96381759643555 0.0014551543863490224 0.03935554623603821 -90.20199584960938
-0.0006408689660020173 0.0 -41.84030532836914 43.92938995361328 0.0014500427059829235 0.04151388630270958 -90.20193481445312 -0.0009460447472520173
0.0 -41.84026336669922 43.89004135131836 0.0014327621320262551 0.04374735802412033 -90.19686126708984 -0.0013427744852378964 0.0
-41.8401985168457 43.84613800048828 0.0014136122772470117 0.04602864384651184 -90.1886215209961 -0.0014953631907701492 0.0 -41.840110778808594
43.79954528808594 0.0014068603049963713 0.047920603305101395 -90.18167114257812 -0.0016174314077943563 0.0 -41.84003448486328 43.75092697143555
0.0014097595121711493 0.04982622712850571 -90.16675567626953 -0.0017395010218024254 0.0 -41.83987808227539 43.69749069213867 0.0014041900867596269
0.05096687003970146 -90.16040802001953 -0.001770020229741931 0.0 -41.839778900146484 43.64144515991211 0.0014037322252988815 0.05197090655565262
