planning_aware_eval/obstacle/data_collection/obstacle/10_s-6_2_f_sl-1/transform/player.npy (npy, 10152 bytes, 1 tensors)

array f8 [179, 7]
-52.22724914550781 70.33964538574219 0.0016983413370326161 -0.0020490565802901983 92.02540588378906 -0.00012207023974042386 0.0 -52.22724914550781
70.33964538574219 0.0016983413370326161 -0.0020490565802901983 92.02540588378906 -0.00012207023974042386 0.0 -52.22724914550781 70.33964538574219
0.0016983413370326161 -0.0020490565802901983 92.02540588378906 -0.00012207023974042386 0.0 -52.22724914550781 70.33964538574219 0.0016983413370326161
-0.0020490565802901983 92.02540588378906 -0.00012207023974042386 0.0 -52.22724914550781 70.33964538574219 0.0016983413370326161 -0.0020490565802901983
92.02540588378906 -0.00012207023974042386 0.0 -52.22724914550781 70.33964538574219 0.0016983413370326161 -0.0020490565802901983 92.02540588378906
-0.00012207023974042386 0.0 -52.22727966308594 70.3403091430664 0.001590194646269083 -0.0008537736139260232 92.02540588378906 -0.00012207026884425431
0.0 -52.227298736572266 70.34087371826172 0.001550865126773715 -0.00045762263471260667 92.02540588378906 -9.155271982308477e-05 0.0
-52.22731018066406 70.34136199951172 0.0015316009521484375 -0.00027320755179971457 92.02540588378906 -9.155274165095761e-05 0.0 -52.22732162475586
70.34181213378906 0.001542587298899889 -0.00027320755179971457 92.02540588378906 -9.155274165095761e-05 0.0 -52.227333068847656 70.34222412109375
0.0015631484566256404 -0.00015709434228483588 92.02540588378906 -9.155274892691523e-05 0.0 -52.22734069824219 70.34247589111328 0.0015271758893504739
-0.00015709434228483588 92.02540588378906 -9.155274892691523e-05 0.0 -52.227333068847656 70.3422622680664 0.001544532715342939 -0.0009152452694252133
92.02540588378906 -6.103517080191523e-05 0.0 -52.227333068847656 70.34233856201172 0.001608352642506361 -0.0009152452694252133 92.02540588378906
-6.103517080191523e-05 0.0 -52.227333068847656 70.34247589111328 0.0016476059099659324 -0.0009152452694252133 92.02540588378906 -6.103517080191523e-05
0.0 -52.22733688354492 70.34265899658203 0.001671485835686326 -0.0007035094313323498 92.02555084228516 -0.0001220703125 0.0
-52.227333068847656 70.34300994873047 0.0016577148344367743 -0.0005190943484194577 92.02478790283203 -6.103514533606358e-05 0.0 -52.22732925415039
70.34321594238281 0.0016905212542042136 -0.00045762263471260667 92.02434539794922 -6.103514533606358e-05 0.0 -52.22732925415039 70.34364318847656
0.0016754531534388661 -0.00027320755179971457 92.0234603881836 -1.3027551259980896e-11 0.0 -52.22733688354492 70.34395599365234 0.0017094039358198643
-0.00021856604143977165 92.02330780029297 -9.155274165095761e-05 0.0 -52.22735595703125 70.34439849853516 0.00172252650372684 -6.147169915493578e-05
92.02320861816406 -9.155272709904239e-05 0.0 -52.22737503051758 70.34495544433594 0.001732788048684597 0.00010245283192489296 92.02312469482422
-9.1552734375e-05 0.0 -52.2274055480957 70.34575653076172 0.001717529259622097 0.0003278490621596575 92.02307891845703 -9.155271982308477e-05
0.0 -52.22739791870117 70.34683227539062 0.0017289351671934128 0.0008537736139260232 92.02560424804688 7.850707334000617e-05 0.0
-52.22745895385742 70.34955596923828 0.001713561941869557 0.0029574716463685036 92.02182006835938 0.00012058843276463449 0.0 -52.22760772705078
70.35260772705078 0.0017228698125109076 0.004063962493091822 92.0150375366211 -6.103522173361853e-05 0.0 -52.22773742675781 70.35726165771484
0.0017160414718091488 0.005778339691460133 92.01907348632812 -9.15528362384066e-05 0.0 -52.22791290283203 70.36327362060547 0.0016957854386419058
0.007280981168150902 92.0250015258789 -0.00015258826897479594 0.0 -52.22818374633789 70.3698501586914 0.0017029570881277323 0.008394301868975163
92.02069854736328 -0.00015258784696925431 0.0 -52.22845458984375 70.37738800048828 0.001702270470559597 0.009050000458955765 92.01856994628906
-9.155262523563579e-05 0.0 -52.228816986083984 70.38805389404297 0.0016463088104501367 0.01010184921324253 92.01880645751953 -3.0518236599164084e-05
0.0 -52.22919464111328 70.39766693115234 0.0016700744163244963 0.01038188673555851 92.01373291015625 -9.155262523563579e-05 0.0
-52.2296142578125 70.40940856933594 0.001671485835686326 0.011502037756145 92.01189422607422 -9.155304724117741e-05 0.0 -52.23008346557617
70.42266082763672 0.0016699981642886996 0.012704150751233101 92.01081085205078 -6.103522173361853e-05 0.0 -52.230648040771484 70.43769836425781
0.0016606139251962304 0.013380340300500393 92.00411987304688 -6.103522173361853e-05 0.0 -52.23120880126953 70.45291137695312 0.0016685485607013106
0.013899434357881546 91.99779510498047 -6.103564373916015e-05 0.0 -52.231502532958984 70.47185516357422 0.0016461563063785434 0.015176679939031601
00000000: 0000 0080 161d 4ac0 0000 00c0 bc95 5140
00000010: 0000 0020 5cd3 5b3f 0000 00e0 2ec9 60bf
00000020: 0000 0040 a001 5740 0000 00c0 feff 1fbf
00000030: 0000 0000 0000 0000 0000 0080 161d 4ac0
00000040: 0000 00c0 bc95 5140 0000 0020 5cd3 5b3f
00000050: 0000 00e0 2ec9 60bf 0000 0040 a001 5740
00000060: 0000 00c0 feff 1fbf 0000 0000 0000 0000
00000070: 0000 0080 161d 4ac0 0000 00c0 bc95 5140
00000080: 0000 0020 5cd3 5b3f 0000 00e0 2ec9 60bf
00000090: 0000 0040 a001 5740 0000 00c0 feff 1fbf
000000a0: 0000 0000 0000 0000 0000 0080 161d 4ac0
000000b0: 0000 00c0 bc95 5140 0000 0020 5cd3 5b3f
000000c0: 0000 00e0 2ec9 60bf 0000 0040 a001 5740
000000d0: 0000 00c0 feff 1fbf 0000 0000 0000 0000
000000e0: 0000 0080 161d 4ac0 0000 00c0 bc95 5140
000000f0: 0000 0020 5cd3 5b3f 0000 00e0 2ec9 60bf
00000100: 0000 0040 a001 5740 0000 00c0 feff 1fbf
00000110: 0000 0000 0000 0000 0000 0080 161d 4ac0
00000120: 0000 00c0 bc95 5140 0000 0020 5cd3 5b3f
00000130: 0000 00e0 2ec9 60bf 0000 0040 a001 5740
00000140: 0000 00c0 feff 1fbf 0000 0000 0000 0000
00000150: 0000 0080 171d 4ac0 0000 00a0 c795 5140
00000160: 0000 0080 c20d 5a3f 0000 00e0 f8f9 4bbf
00000170: 0000 0040 a001 5740 0000 0040 ffff 1fbf
00000180: 0000 0000 0000 0000 0000 0020 181d 4ac0
00000190: 0000 00e0 d095 5140 0000 00c0 cc68 593f
000001a0: 0000 0040 a2fd 3dbf 0000 0040 a001 5740
000001b0: 0000 00c0 ffff 17bf 0000 0000 0000 0000
000001c0: 0000 0080 181d 4ac0 0000 00e0 d895 5140
000001d0: 0000 0000 0018 593f 0000 0080 a9e7 31bf
000001e0: 0000 0040 a001 5740 0000 0020 0000 18bf
000001f0: 0000 0000 0000 0000 0000 00e0 181d 4ac0
00000200: 0000 0040 e095 5140 0000 0080 1446 593f
00000210: 0000 0080 a9e7 31bf 0000 0040 a001 5740
00000220: 0000 0020 0000 18bf 0000 0000 0000 0000
00000230: 0000 0040 191d 4ac0 0000 0000 e795 5140
00000240: 0000 00e0 519c 593f 0000 0020 3697 24bf
00000250: 0000 0040 a001 5740 0000 0040 0000 18bf
00000260: 0000 0000 0000 0000 0000 0080 191d 4ac0
00000270: 0000 0020 eb95 5140 0000 00a0 7005 593f
00000280: 0000 0020 3697 24bf 0000 0040 a001 5740
00000290: 0000 0040 0000 18bf 0000 0000 0000 0000
000002a0: 0000 0040 191d 4ac0 0000 00a0 e795 5140
000002b0: 0000 0060 3d4e 593f 0000 0040 a2fd 4dbf
000002c0: 0000 0040 a001 5740 0000 0040 0000 10bf
000002d0: 0000 0000 0000 0000 0000 0040 191d 4ac0
000002e0: 0000 00e0 e895 5140 0000 0080 eb59 5a3f
000002f0: 0000 0040 a2fd 4dbf 0000 0040 a001 5740
00000300: 0000 0040 0000 10bf 0000 0000 0000 0000
00000310: 0000 0040 191d 4ac0 0000 0020 eb95 5140
00000320: 0000 0060 8ffe 5a3f 0000 0040 a2fd 4dbf
00000330: 0000 0040 a001 5740 0000 0040 0000 10bf
00000340: 0000 0000 0000 0000 0000 0060 191d 4ac0
00000350: 0000 0020 ee95 5140 0000 0040 b862 5b3f
00000360: 0000 0000 770d 47bf 0000 00a0 a201 5740
00000370: 0000 0000 0000 20bf 0000 0000 0000 0000
00000380: 0000 0040 191d 4ac0 0000 00e0 f395 5140
00000390: 0000 00c0 f528 5b3f 0000 00a0 7a02 41bf
000003a0: 0000 0020 9601 5740 0000 00a0 ffff 0fbf
000003b0: 0000 0000 0000 0000 0000 0020 191d 4ac0
000003c0: 0000 0040 f795 5140 0000 0060 8fb2 5b3f
000003d0: 0000 0040 a2fd 3dbf 0000 00e0 8e01 5740
000003e0: 0000 00a0 ffff 0fbf 0000 0000 0000 0000
000003f0: 0000 0020 191d 4ac0 0000 0040 fe95 5140
00000400: 0000 0020 5c73 5b3f 0000 0080 a9e7 31bf
00000410: 0000 0060 8001 5740 0000 0000 dca5 acbd
00000420: 0000 0000 0000 0000 0000 0060 191d 4ac0
00000430: 0000 0060 0396 5140 0000 0080 c201 5c3f
00000440: 0000 0000 dca5 2cbf 0000 00e0 7d01 5740
00000450: 0000 0020 0000 18bf 0000 0000 0000 0000
00000460: 0000 0000 1a1d 4ac0 0000 00a0 0a96 5140
00000470: 0000 00c0 cc38 5c3f 0000 00c0 4b1d 10bf
00000480: 0000 0040 7c01 5740 0000 00e0 ffff 17bf
00000490: 0000 0000 0000 0000 0000 00a0 1a1d 4ac0
000004a0: 0000 00c0 1396 5140 0000 0000 d763 5c3f
000004b0: 0000 0040 7edb 1a3f 0000 00e0 7a01 5740
000004c0: 0000 0000 0000 18bf 0000 0000 0000 0000
000004d0: 0000 00a0 1b1d 4ac0 0000 00e0 2096 5140
000004e0: 0000 0000 d723 5c3f 0000 0000 657c 353f
000004f0: 0000 0020 7a01 5740 0000 00c0 ffff 17bf
00000500: 0000 0000 0000 0000 0000 0060 1b1d 4ac0
00000510: 0000 0080 3296 5140 0000 0000 ae53 5c3f
00000520: 0000 00e0 f8f9 4b3f 0000 0080 a301 5740
00000530: 0000 0040 8594 143f 0000 0000 0000 0000
00000540: 0000 0060 1d1d 4ac0 0000 0020 5f96 5140
00000550: 0000 0020 3313 5c3f 0000 0080 443a 683f
00000560: 0000 0080 6501 5740 0000 0080 8d9c 1f3f
00000570: 0000 0000 0000 0000 0000 0040 221d 4ac0
00000580: 0000 0020 9196 5140 0000 0060 3d3a 5c3f
00000590: 0000 00a0 5fa5 703f 0000 0060 f600 5740
000005a0: 0000 0020 0100 10bf 0000 0000 0000 0000
000005b0: 0000 0080 261d 4ac0 0000 0060 dd96 5140
000005c0: 0000 0080 991d 5c3f 0000 0040 07ab 773f
000005d0: 0000 0080 3801 5740 0000 00c0 0100 18bf
000005e0: 0000 0000 0000 0000 0000 0040 2c1d 4ac0
000005f0: 0000 00e0 3f97 5140 0000 00c0 a3c8 5b3f
00000600: 0000 0080 a9d2 7d3f 0000 00a0 9901 5740
00000610: 0000 0040 0300 24bf 0000 0000 0000 0000
00000620: 0000 0020 351d 4ac0 0000 00a0 ab97 5140
00000630: 0000 0040 b8e6 5b3f 0000 0020 0831 813f
00000640: 0000 0020 5301 5740 0000 00a0 ffff 23bf
00000650: 0000 0000 0000 0000 0000 0000 3e1d 4ac0
00000660: 0000 0020 2798 5140 0000 0000 d7e3 5b3f
00000670: 0000 0080 ce88 823f 0000 0040 3001 5740
00000680: 0000 0020 feff 17bf 0000 0000 0000 0000
00000690: 0000 00e0 491d 4ac0 0000 00e0 d598 5140
000006a0: 0000 00a0 1ef9 5a3f 0000 0040 47b0 843f
000006b0: 0000 0020 3401 5740 0000 00a0 1600 00bf
000006c0: 0000 0000 0000 0000 0000 0040 561d 4ac0
000006d0: 0000 0060 7399 5140 0000 00c0 cc5c 5b3f
000006e0: 0000 0040 1943 853f 0000 0000 e100 5740
000006f0: 0000 0020 feff 17bf 0000 0000 0000 0000
00000700: 0000 0000 641d 4ac0 0000 00c0 339a 5140
00000710: 0000 0040 b862 5b3f 0000 0060 618e 873f
00000720: 0000 00e0 c200 5740 0000 0060 0500 18bf
00000730: 0000 0000 0000 0000 0000 0060 731d 4ac0
00000740: 0000 00e0 0c9b 5140 0000 00e0 7a5c 5b3f
00000750: 0000 0040 a204 8a3f 0000 0020 b100 5740
00000760: 0000 0020 0100 10bf 0000 0000 0000 0000
00000770: 0000 00e0 851d 4ac0 0000 0040 039c 5140
00000780: 0000 00a0 1e35 5b3f 0000 00e0 2667 8b3f
00000790: 0000 0080 4300 5740 0000 0020 0100 10bf
000007a0: 0000 0000 0000 0000 0000 0040 981d 4ac0
000007b0: 0000 0080 fc9c 5140 0000 0060 6656 5b3f
000007c0: 0000 0080 4e77 8c3f 0000 00e0 dbff 5640
000007d0: 0000 0060 0800 10bf 0000 0000 0000 0000
000007e0: 0000 00e0 a11d 4ac0 0000 00e0 329e 5140
000007f0: 0000 00e0 7af8 5a3f 0000 0080 f314 8f3f
