planning_aware_eval/interactive/data_collection/interactive/10_t3-7_1_c_f_l_1_0_1/velocity/player.npy (npy, 5936 bytes, 1 tensors)

array f8 [242, 3]
00000000: 0000 00a0 82e3 8fbf 0000 00c0 982d 4b3f
00000010: 0000 00a0 70cd 30bf 0000 0020 5762 6ebf
00000020: 0000 00c0 9c6d 4cbf 0000 00c0 ccec 05bf
00000030: 0000 00e0 7473 8ebf 0000 00c0 2b98 563f
00000040: 0000 00e0 2834 213f 0000 0060 8b4e 7abf
00000050: 0000 0060 b5c5 4abf 0000 0060 8f0a 33bf
00000060: 0000 0000 f32d 93bf 0000 00e0 215a 583f
00000070: 0000 0080 c2d5 1dbf 0000 00c0 4b09 8abf
00000080: 0000 0000 6697 40bf 0000 0000 ae37 113f
00000090: 0000 00c0 beea b4bf 0000 00c0 b76e 573f
000000a0: 0000 0060 8f52 283f 0000 0060 b882 bdbf
000000b0: 0000 00c0 9368 533f 0000 0020 3333 f4be
000000c0: 0000 0060 26c5 cabf 0000 0000 4004 653f
000000d0: 0000 0000 0070 283f 0000 00a0 f9a4 d6bf
000000e0: 0000 0080 6afe 7a3f 0000 00e0 7a94 f53e
000000f0: 0000 00e0 6c0d ddbf 0000 0000 aad3 773f
00000100: 0000 00e0 28d0 353f 0000 0020 62f5 e3bf
00000110: 0000 0080 b917 713f 0000 00e0 7a0e 45bf
00000120: 0000 0020 200f e9bf 0000 0000 0eec 713f
00000130: 0000 00e0 281c 3ebf 0000 0020 0489 ecbf
00000140: 0000 00e0 eafd 693f 0000 0000 00d8 2e3f
00000150: 0000 0020 1554 f1bf 0000 00a0 14c2 753f
00000160: 0000 00a0 4791 203f 0000 00e0 84bb f3bf
00000170: 0000 0060 a391 773f 0000 00c0 cc4c fabe
00000180: 0000 00e0 1409 f6bf 0000 0080 c8de 7c3f
00000190: 0000 00c0 cc9c 2cbf 0000 0040 9efc f8bf
000001a0: 0000 00e0 a000 7e3f 0000 00e0 285c 2d3f
000001b0: 0000 00c0 e8b0 fbbf 0000 00e0 4549 823f
000001c0: 0000 0040 0a5f 23bf 0000 0020 18bc febf
000001d0: 0000 00c0 7514 853f 0000 0080 eb49 2cbf
000001e0: 0000 0020 b7ef 00c0 0000 0000 4e78 873f
000001f0: 0000 0020 5ca7 3c3f 0000 00a0 9b7f 02c0
00000200: 0000 0000 87d9 893f 0000 0040 b89e ec3e
00000210: 0000 0020 2700 04c0 0000 0000 12dd 8c3f
00000220: 0000 0020 85eb d93e 0000 0080 30a6 05c0
00000230: 0000 0080 96cc 903f 0000 00e0 51b8 2e3f
00000240: 0000 0080 a736 07c0 0000 0040 da6a 933f
00000250: 0000 0080 eb71 30bf 0000 00e0 16ee 08c0
00000260: 0000 0080 3cc4 953f 0000 00e0 281c 15bf
00000270: 0000 00e0 f188 0ac0 0000 0060 e3cb 973f
00000280: 0000 00e0 28dc 0bbf 0000 00a0 c815 0cc0
00000290: 0000 00e0 31a9 993f 0000 00e0 51b8 213f
000002a0: 0000 00e0 099b 0dc0 0000 00e0 6067 9b3f
000002b0: 0000 0060 3d6a 06bf 0000 00c0 0f16 0fc0
000002c0: 0000 00c0 94ad 9c3f 0000 00e0 7a94 e7be
000002d0: 0000 0000 7b3d 10c0 0000 00c0 fbad 9d3f
000002e0: 0000 0060 6662 353f 0000 00e0 e9f3 10c0
000002f0: 0000 0080 de41 9e3f 0000 0040 b886 22bf
00000300: 0000 00c0 c8ab 11c0 0000 0000 0273 9e3f
00000310: 0000 00a0 47ed 33bf 0000 0080 675c 12c0
00000320: 0000 0080 e54b 9e3f 0000 00a0 99a9 133f
00000330: 0000 0060 e707 13c0 0000 0000 633d 9e3f
00000340: 0000 0000 d77b 283f 0000 0060 0ab2 13c0
00000350: 0000 0020 c01d 9e3f 0000 0060 3d6a 073f
00000360: 0000 00e0 665d 14c0 0000 0080 1b87 9d3f
00000370: 0000 00e0 fa46 7a3f 0000 0080 d2ff 14c0
00000380: 0000 0080 05fc 9b3f 0000 0080 eb9d 6d3f
00000390: 0000 00c0 1c8d 15c0 0000 00e0 91aa 993f
000003a0: 0000 0080 9920 5f3f 0000 0000 2cad 15c0
000003b0: 0000 0020 0fbf 963f 0000 00c0 a3d8 4a3f
000003c0: 0000 00c0 e7db 15c0 0000 00c0 3331 943f
000003d0: 0000 00c0 f5d0 283f 0000 0060 0e2a 16c0
000003e0: 0000 00e0 2a2b 903f 0000 0020 333b 2abf
000003f0: 0000 0080 5460 16c0 0000 0020 682d 8a3f
00000400: 0000 0000 ae83 39bf 0000 00e0 5cdc 16c0
00000410: 0000 00e0 707f 813f 0000 00c0 f5b0 3ebf
00000420: 0000 0020 683b 17c0 0000 0040 b905 773f
00000430: 0000 0000 d74f 3fbf 0000 0060 39f8 17c0
00000440: 0000 00e0 2084 513f 0000 0040 0abf 3cbf
00000450: 0000 0080 2e83 18c0 0000 00a0 ebbc 68bf
00000460: 0000 0000 ae57 3abf 0000 0080 bef6 18c0
00000470: 0000 00c0 4734 77bf 0000 00c0 cc80 37bf
00000480: 0000 00c0 8f91 19c0 0000 0000 c944 84bf
00000490: 0000 0060 6662 35bf 0000 0060 5114 1ac0
000004a0: 0000 0040 bcf2 89bf 0000 00c0 cc98 31bf
000004b0: 0000 0080 4fba 1ac0 0000 00e0 6f57 91bf
000004c0: 0000 0000 d753 2dbf 0000 0060 ab30 1bc0
000004d0: 0000 00c0 4350 94bf 0000 00a0 47b1 29bf
000004e0: 0000 0080 13d3 1bc0 0000 0000 fff5 98bf
000004f0: 0000 00a0 4721 25bf 0000 0040 524b 1cc0
00000500: 0000 00c0 03fa 9bbf 0000 0040 0a57 22bf
00000510: 0000 00c0 7bea 1cc0 0000 00c0 da36 a0bf
00000520: 0000 0080 99c9 1cbf 0000 0020 8867 1dc0
00000530: 0000 0060 8f4c a1bf 0000 00c0 ccbc 17bf
00000540: 0000 0000 980b 1ec0 0000 00c0 d5e0 a2bf
00000550: 0000 00c0 f568 18bf 0000 00a0 9e80 1ec0
00000560: 0000 00c0 1f4f a3bf 0000 0020 5c7f 13bf
00000570: 0000 00e0 b61e 1fc0 0000 00c0 24aa a3bf
00000580: 0000 00a0 70cd 17bf 0000 00c0 ff90 1fc0
00000590: 0000 0000 5c21 a3bf 0000 00e0 285c 16bf
000005a0: 0000 0000 c418 20c0 0000 0000 b76f a2bf
000005b0: 0000 0000 d703 15bf 0000 00e0 bf7c 20c0
000005c0: 0000 0060 2a95 a1bf 0000 00e0 7a84 14bf
000005d0: 0000 0000 b8d4 20c0 0000 0040 312c a0bf
000005e0: 0000 0080 eb61 15bf 0000 0060 f526 21c0
000005f0: 0000 0020 efb9 9cbf 0000 0020 859b 14bf
00000600: 0000 00c0 9956 21c0 0000 0020 4863 98bf
00000610: 0000 0040 0ab7 0fbf 0000 00c0 9694 21c0
00000620: 0000 0060 86a8 92bf 0000 0080 eb51 d7be
00000630: 0000 0000 74c6 21c0 0000 00c0 6837 88bf
00000640: 0000 00e0 281c fc3e 0000 0080 1c0b 22c0
00000650: 0000 00e0 f26a 66bf 0000 0040 b89e 0e3f
00000660: 0000 0060 0541 22c0 0000 0040 b9a0 7f3f
00000670: 0000 0020 85fb 173f 0000 00e0 d087 22c0
00000680: 0000 00e0 b625 963f 0000 0000 d793 1b3f
00000690: 0000 0020 54c2 22c0 0000 00a0 0d03 a33f
000006a0: 0000 00c0 cca4 213f 0000 0080 8f0c 23c0
000006b0: 0000 00c0 ec76 ad3f 0000 0020 85bb 223f
000006c0: 0000 0060 a14a 23c0 0000 0040 39a8 b43f
000006d0: 0000 00a0 4731 273f 0000 0020 4a96 23c0
000006e0: 0000 00c0 04c6 bb3f 0000 00e0 51d0 2a3f
000006f0: 0000 0080 f2dd 23c0 0000 00c0 9c42 c23f
00000700: 0000 0000 0088 2f3f 0000 0020 4b2e 24c0
00000710: 0000 00e0 8981 c73f 0000 00a0 70dd 313f
00000720: 0000 0000 4072 24c0 0000 00c0 243e cd3f
00000730: 0000 0080 eb85 343f 0000 0040 5abe 24c0
00000740: 0000 0060 21e3 d13f 0000 00e0 2878 363f
00000750: 0000 0060 c500 25c0 0000 00c0 dc5c d53f
00000760: 0000 00c0 a38c 383f 0000 0080 374c 25c0
00000770: 0000 00c0 1b79 d93f 0000 00c0 cc0c 3a3f
00000780: 0000 00e0 449b 25c0 0000 00e0 508c de3f
00000790: 0000 0020 855b 3b3f 0000 00a0 3ddf 25c0
000007a0: 0000 0020 65ac e13f 0000 00c0 a310 3d3f
000007b0: 0000 00e0 7920 26c0 0000 00a0 2b2f e43f
000007c0: 0000 00c0 f5a8 3e3f 0000 0040 d55e 26c0
000007d0: 0000 00e0 42e4 e63f 0000 00c0 cc54 3e3f
000007e0: 0000 0060 7697 26c0 0000 00a0 e7ab e93f
000007f0: 0000 0080 c295 3e3f 0000 0020 ffc5 26c0
-0.01557066012173891 0.0008294101571664214 -0.0002563857997301966 -0.003709001699462533 -0.0008675589924678206 -4.181861731922254e-05 -0.014868653379380703 0.001379053806886077
0.00013125418627168983 -0.006422562059015036 -0.0008170257206074893 -0.0002905464207287878 -0.01872996985912323 0.0014863329706713557 -0.00011381148942746222 -0.01271304301917553
-0.0005063293501734734 6.567954551428556e-05 -0.0817069262266159 0.0014302057679742575 0.00018556595023255795 -0.11527588218450546 0.001184601103886962 -1.9264220100012608e-05
-0.2091415375471115 0.0025655031204223633 0.00018644332885742188 -0.3538192808628082 0.006590286269783974 2.05802916752873e-05 -0.4539444148540497 0.005817092955112457
0.0003328418533783406 -0.6237040162086487 0.0041730161756277084 -0.0006425952888093889 -0.7830963730812073 0.0043755099177360535 -0.0004594421188812703 -0.8917255997657776
0.0031728351023048162 0.0002353191375732422 -1.083027958869934 0.005312042776495218 0.00012639998749364167 -1.2332810163497925 0.0057541257701814175 -2.5081633793888614e-05
-1.377217173576355 0.007048400118947029 -0.00021829604520462453 -1.5616743564605713 0.007324818056076765 0.00022399901354219764 -1.7306907176971436 0.008928819559514523
-0.00014779090997762978 -1.9209214448928833 0.010292930528521538 -0.000215826032217592 -2.117048501968384 0.01145993173122406 0.00043722151895053685 -2.3123085498809814
0.012621931731700897 1.3647078958456405e-05 -2.500074625015259 0.014093533158302307 6.179809588502394e-06 -2.7061471939086914 0.016405440866947174 0.00023437499476131052
-2.901686668395996 0.018962297588586807 -0.0002509307814761996 -3.1162545680999756 0.021256394684314728 -8.052825432969257e-05 -3.3168675899505615 0.023238709196448326
-5.313873043633066e-05 -3.510636568069458 0.025059489533305168 0.00013519286585506052 -3.700702428817749 0.02676154486835003 -4.275321771274321e-05 -3.885772228240967
0.02800590917468071 -1.12438201540499e-05 -4.060039520263672 0.028984006494283676 0.00032629966153763235 -4.238196849822998 0.029548145830631256 -0.00014134406228549778
-4.417757987976074 0.029735594987869263 -0.0003040599694941193 -4.590238571166992 0.029586397111415863 7.500648644054309e-05 -4.757718563079834 0.029531046748161316
0.00018679618369787931 -4.923867702484131 0.029410364106297493 4.466056634555571e-05 -5.091212749481201 0.028835706412792206 0.006415348034352064 -5.249826431274414
0.027328573167324066 0.0036153411492705345 -5.387804985046387 0.025064734742045403 0.0018998621962964535 -5.4191131591796875 0.022213207557797432 0.0008192824898287654
-5.464751243591309 0.019718941301107407 0.0001893329608719796 -5.541070461273193 0.01578967086970806 -0.00020012854656670243 -5.594072341918945 0.012781918980181217
-0.00038931844756007195 -5.715198040008545 0.008543855510652065 -0.0004683113074861467 -5.808014392852783 0.005620692856609821 -0.00047778128646314144 -5.992406368255615
0.0010690995259210467 -0.00043863296741619706 -6.128107070922852 -0.003019771771505475 -0.00040195463225245476 -6.240961074829102 -0.00566509272903204 -0.00035862921504303813
-6.392149925231934 -0.009896822273731232 -0.00032629966153763235 -6.51984167098999 -0.012670012190937996 -0.0002685069921426475 -6.681943893432617 -0.016935108229517937
-0.0002237510634586215 -6.7975287437438965 -0.019837435334920883 -0.00019601821259129792 -6.95612907409668 -0.024375900626182556 -0.0001612091000424698 -7.073555946350098
-0.027320917695760727 -0.00013992309686727822 -7.228987693786621 -0.03166850656270981 -0.0001098155917134136 -7.351105213165283 -0.033787231892347336 -9.055137343239039e-05
-7.511322021484375 -0.03687160462141037 -9.311675967182964e-05 -7.62560510635376 -0.03771304339170456 -7.43770578992553e-05 -7.779994487762451 -0.03840746730566025
-9.079933079192415e-05 -7.891600608825684 -0.03736388683319092 -8.529662591172382e-05 -8.048370361328125 -0.0360085666179657 -8.016586070880294e-05 -8.243651390075684
-0.03434116765856743 -7.826805085642263e-05 -8.41546630859375 -0.031587161123752594 -8.156776311807334e-05 -8.576090812683105 -0.028053032234311104 -7.861137419240549e-05
-8.66914176940918 -0.02381622977554798 -6.049156218068674e-05 -8.790212631225586 -0.018220996484160423 -5.559921191888861e-06 -8.887603759765625 -0.011824434623122215
2.6807783797266893e-05 -9.02170181274414 -0.0027365440037101507 5.840301309945062e-05 -9.126994132995605 0.00772163737565279 9.148597746388987e-05 -9.265265464782715
0.02162824384868145 0.000105199811514467 -9.379548072814941 0.03713266924023628 0.0001346111239399761 -9.524532318115234 0.05754794925451279 0.00014291763363871723
-9.64576244354248 0.08069188892841339 0.00017694472626317292 -9.793534278869629 0.10849027335643768 0.0002045726723736152 -9.933490753173828 0.14265784621238708
0.00024056434631347656 -10.09041690826416 0.18364070355892181 0.00027259826310910285 -10.22314453125 0.228458970785141 0.00031315803062170744 -10.371782302856445
0.2794879376888275 0.0003428554337006062 -10.501505851745605 0.33379286527633667 0.000374593713786453 -10.648860931396484 0.39801687002182007 0.0003974914434365928
-10.80325984954834 0.47731420397758484 0.00041744232294149697 -10.936017036437988 0.5522943139076233 0.00044349668314680457 -11.063429832458496 0.6307581067085266
0.00046783447032794356 -11.185220718383789 0.7153639197349548 0.00046281813411042094 -11.295825004577637 0.8022344708442688 0.0004666900495067239 -11.386712074279785
