planning_aware_eval/obstacle/data_collection/obstacle/10_s-6_1_f_sl/transform/player.npy (npy, 11496 bytes, 1 tensors)

array f8 [203, 7]
0	0xc044e4c600000000	-41.78729248046875
1	0x405af775e0000000	107.86656951904297
2	0x3f5c1f3320000000	0.0017164229648187757
3	0xbf201d4bc0000000	-0.00012294339830987155
4	0xc055af1f60000000	-86.73628997802734
5	0xbf0fffffa0000000	-6.103514533606358e-05
6	0x0000000000000000	0.0
7	0xc044e4c080000000	-41.78712463378906
8	0x405af74120000000	107.86334991455078
9	0x3f5bf547a0000000	0.0017064284766092896
10	0xbf282bf1a0000000	-0.00018441509746480733
11	0xc055af1080000000	-86.73538208007812
12	0xbf0fffffe0000000	-6.103515261202119e-05
13	0x0000000000000000	0.0
14	0xc044e4ba40000000	-41.78693389892578
15	0x405af70920000000	107.85993194580078
16	0x3f5b6fd700000000	0.0016746139153838158
17	0xbf301d4bc0000000	-0.0002458867966197431
18	0xc055af0460000000	-86.7346420288086
19	0xbf0fffffa0000000	-6.103514533606358e-05
20	0x0000000000000000	0.0
21	0xc044e4b4c0000000	-41.786766052246094
22	0x405af6d9c0000000	107.85704040527344
23	0x3f5bfe6660000000	0.0017086028819903731
24	0xbf31e7a980000000	-0.00027320755179971457
25	0xc055af1600000000	-86.7357177734375
26	0xbf0fffffa0000000	-6.103514533606358e-05
27	0x0000000000000000	0.0
28	0xc044e4afa0000000	-41.7866096496582
29	0x405af6ac80000000	107.85427856445312
30	0x3f5c6dc280000000	0.001735153142362833
31	0xbf31e7a980000000	-0.00027320755179971457
32	0xc055af1b60000000	-86.73604583740234
33	0xbf0fffffa0000000	-6.103514533606358e-05
34	0x0000000000000000	0.0
35	0xc044e4a9a0000000	-41.78642654418945
36	0x405af67f00000000	107.85150146484375
37	0x3f5c7b8520000000	0.0017384338425472379
38	0xbf44249ec0000000	-0.0006147170206531882
39	0xc055af3ce0000000	-86.73809051513672
40	0xbf1fffffa0000000	-0.00012207029067212716
41	0x0000000000000000	0.0
42	0xc044e4a420000000	-41.786258697509766
43	0x405af64f60000000	107.84859466552734
44	0x3f5bee3d60000000	0.001704750000499189
45	0xbf4f1c1ce0000000	-0.0009493962279520929
46	0xc055af3ce0000000	-86.73809051513672
47	0xbf17ffff80000000	-9.155270527116954e-05
48	0x0000000000000000	0.0
49	0xc044e49f60000000	-41.78611373901367
50	0x405af62520000000	107.84601593017578
51	0x3f5bbf3320000000	0.0016935347812250257
52	0xbf5509cd80000000	-0.0012840754352509975
53	0xc055af3b60000000	-86.73799896240234
54	0xbf180000e0000000	-9.15527853067033e-05
55	0x0000000000000000	0.0
56	0xc044e49c00000000	-41.7860107421875
57	0x405af60940000000	107.84431457519531
58	0x3f5c947ae0000000	0.0017443847609683871
59	0xbf5a12f540000000	-0.0015914340037852526
60	0xc055af3fe0000000	-86.73827362060547
61	0x3f10a44e80000000	6.348351598717272e-05
62	0x0000000000000000	0.0
63	0xc044e49880000000	-41.78590393066406
64	0x405af5eb80000000	107.84249877929688
65	0x3f5cb0f5c0000000	0.0017511749174445868
66	0xbf5a858ca0000000	-0.0016187547007575631
67	0xc055af3f60000000	-86.73824310302734
68	0x3f351938e0000000	0.0003219379286747426
69	0x0000000000000000	0.0
70	0xc044e49520000000	-41.78580093383789
71	0x405af5cf60000000	107.84078216552734
72	0x3f5ca428e0000000	0.0017481230897828937
73	0xbf5a858ca0000000	-0.0016187547007575631
74	0xc055af3f60000000	-86.73824310302734
75	0x3f351938e0000000	0.0003219379286747426
76	0x0000000000000000	0.0
77	0xc044e491e0000000	-41.785701751708984
78	0x405af5b280000000	107.83901977539062
79	0x3f5c335c20000000	0.0017212295206263661
80	0xbf5a858ca0000000	-0.0016187547007575631
81	0xc055af3f60000000	-86.73824310302734
82	0x3f351938e0000000	0.0003219379286747426
83	0x0000000000000000	0.0
84	0xc044e48f60000000	-41.78562545776367
85	0x405af59bc0000000	107.83763122558594
86	0x3f5c791ea0000000	0.0017378615448251367
87	0xbf5b14ca00000000	-0.0016529057174921036
88	0xc055af3d60000000	-86.73812103271484
89	0x3f318c0a00000000	0.0002677463926374912
90	0x0000000000000000	0.0
91	0xc044e48cc0000000	-41.785545349121094
92	0x405af58600000000	107.8363037109375
93	0x3f5c8a8f60000000	0.0017420196672901511
94	0xbf5b14ca00000000	-0.0016529057174921036
95	0xc055af3d60000000	-86.73812103271484
96	0x3f318c0a00000000	0.0002677463926374912
97	0x0000000000000000	0.0
98	0xc044e48a80000000	-41.78547668457031
99	0x405af57180000000	107.83505249023438
100	0x3f5c8c0000000000	0.0017423629760742188
101	0xbf5983b800000000	-0.001557283103466034
102	0xc055af3ce0000000	-86.73809051513672
103	0x3f23fa75a0000000	0.00015242277004290372
104	0x0000000000000000	0.0
105	0xc044e48840000000	-41.78540802001953
106	0x405af55de0000000	107.83385467529297
107	0x3f5c83d700000000	0.001740417443215847
108	0xbf5983b800000000	-0.001557283103466034
109	0xc055af3ce0000000	-86.73809051513672
110	0x3f23fa75a0000000	0.00015242277004290372
111	0x0000000000000000	0.0
112	0xc044e48660000000	-41.78535079956055
113	0x405af54ca0000000	107.83280181884766
114	0x3f5cb0a3c0000000	0.0017510985489934683
115	0xbf570d7700000000	-0.0014070188626646996
116	0xc055af3b60000000	-86.73799896240234
117	0x3f15cc9080000000	8.315689046867192e-05
118	0x0000000000000000	0.0
119	0xc044e48480000000	-41.78529357910156
120	0x405af53b00000000	107.83172607421875
121	0x3f5cb851e0000000	0.0017529296455904841
122	0xbf547a9040000000	-0.001249924534931779
123	0xc055af3ac0000000	-86.73796081542969
124	0x3f10a197e0000000	6.34430834907107e-05
125	0x0000000000000000	0.0
126	0xc044e48240000000	-41.78522491455078
127	0x405af526a0000000	107.83048248291016
128	0x3f5c500000000000	0.001728057861328125
129	0xbf5191b7e0000000	-0.001072339597158134
130	0xc055af3ac0000000	-86.73796081542969
131	0x3f03c7ace0000000	3.772732088691555e-05
132	0x0000000000000000	0.0
133	0xc044e48000000000	-41.78515625
134	0x405af51380000000	107.82931518554688
135	0x3f5c3851e0000000	0.0017224120674654841
136	0xbf4f1c1ce0000000	-0.0009493962279520929
137	0xc055af3a80000000	-86.73794555664062
138	0x3ee0cac000000000	8.007045835256577e-06
139	0x0000000000000000	0.0
140	0xc044e47de0000000	-41.785091400146484
141	0x405af50140000000	107.82820129394531
142	0x3f5c8451e0000000	0.001740531879477203
143	0xbf47f2a5e0000000	-0.0007308301865123212
144	0xc055af3c60000000	-86.7380599975586
145	0x3dbca5dc00000000	2.6055102519961792e-11
146	0x0000000000000000	0.0
147	0xc044e47940000000	-41.784950256347656
148	0x405af4e380000000	107.82638549804688
149	0x3f5c659980000000	0.0017332076095044613
150	0x3f308fe340000000	0.0002527169999666512
151	0xc055afb400000000	-86.745361328125
152	0x0000000000000000	0.0
153	0x0000000000000000	0.0
154	0xc044e473c0000000	-41.78478240966797
155	0x405af4aea0000000	107.82315826416016
156	0x3f5c2b5c20000000	0.0017193221719935536
157	0x3f61e7a980000000	0.0021856604143977165
158	0xc055af6e60000000	-86.7411117553711
159	0xbf00000120000000	-3.0517610866809264e-05
160	0x0000000000000000	0.0
161	0xc044e46e00000000	-41.78460693359375
162	0x405af46d40000000	107.81916809082031
163	0x3f5bec7ae0000000	0.0017043304396793246
164	0x3f6dd2a980000000	0.003640490584075451
165	0xc055aeed40000000	-86.73323059082031
166	0x3f01913e20000000	3.350706901983358e-05
167	0x0000000000000000	0.0
168	0xc044e464a0000000	-41.78432083129883
169	0x405af40de0000000	107.81334686279297
170	0x3f5bc19980000000	0.001694106962531805
171	0x3f775515a0000000	0.0056963772512972355
172	0xc055aed0e0000000	-86.73149871826172
173	0x3f1d680ee0000000	0.00011217680730624124
174	0x0000000000000000	0.0
175	0xc044e451e0000000	-41.783748626708984
176	0x405af39200000000	107.8057861328125
177	0x3f5b1ca3c0000000	0.001654777443036437
178	0x3f7dbd2d20000000	0.007260490674525499
179	0xc055b04300000000	-86.75408935546875
180	0xbf10000120000000	-6.103522173361853e-05
181	0x0000000000000000	0.0
182	0xc044e445c0000000	-41.78337860107422
183	0x405af31540000000	107.79817199707031
184	0x3f5b5051e0000000	0.0016670989571139216
185	0x3f8020e080000000	0.00787520781159401
186	0xc055af88e0000000	-86.74272918701172
187	0xbf0ffff400000000	-6.103480700403452e-05
188	0x0000000000000000	0.0
189	0xc044e43480000000	-41.78285217285156
190	0x405af28080000000	107.78909301757812
191	0x3f5b6eb840000000	0.0016743468586355448
192	0x3f82e97e40000000	0.009234415367245674
193	0xc055afa580000000	-86.74447631835938
194	0xbf17fffe20000000	-9.155262523563579e-05
195	0x0000000000000000	0.0
196	0xc044e41c20000000	-41.782108306884766
197	0x405af1c180000000	107.77743530273438
198	0x3f5aa51ea0000000	0.0016262816498056054
199	0x3f83b59c00000000	0.009623736143112183
200	0xc055b09ae0000000	-86.75945281982422
201	0x3ee4af9b60000000	9.863836567092221e-06
202	0x0000000000000000	0.0
203	0xc044e408a0000000	-41.78151321411133
204	0x405af10600000000	107.7659912109375
205	0x3f5b0970a0000000	0.0016501998761668801
206	0x3f8546ae00000000	0.01038871705532074
207	0xc055b06000000000	-86.755859375
208	0x3f120b5500000000	6.883341120555997e-05
209	0x0000000000000000	0.0
210	0xc044e3eda0000000	-41.78068923950195
211	0x405af01420000000	107.75122833251953
212	0x3f5aafd700000000	0.0016288375481963158
213	0x3f878acca0000000	0.01149520743638277
214	0xc055b053e0000000	-86.75511932373047
215	0x3dfca5dc00000000	4.168816403193887e-10
216	0x0000000000000000	0.0
217	0xc044e3cfa0000000	-41.7797737121582
218	0x405aef14c0000000	107.73564147949219
219	0x3f5aafd700000000	0.0016288375481963158
220	0x3f88b40580000000	0.012062113732099533
221	0xc055b08700000000	-86.75823974609375
222	0xbf20000120000000	-0.00012207044346723706
223	0x0000000000000000	0.0
224	0xc044e3b160000000	-41.77885055541992
225	0x405aee1ee0000000	107.72063446044922
226	0x3f5b2b8520000000	0.0016583251999691129
227	0x3f895c53e0000000	0.012383132241666317
228	0xc055b13900000000	-86.76910400390625
229	0xbf17fff700000000	-9.155221050605178e-05
230	0x0000000000000000	0.0
231	0xc044e38fc0000000	-41.77782440185547
232	0x405aecfce0000000	107.70293426513672
233	0x3f5b20a3c0000000	0.0016557311173528433
234	0x3f8b0a0bc0000000	0.013202754780650139
235	0xc055b19a20000000	-86.77503204345703
236	0x0000000000000000	0.0
237	0x0000000000000000	0.0
238	0xc044e36880000000	-41.77662658691406
239	0x405aeba940000000	107.68220520019531
240	0x3f5abeb840000000	0.0016323851887136698
241	0x3f8d14dec0000000	0.014199962839484215
242	0xc055b232e0000000	-86.78435516357422
243	0x3f0e5a67a0000000	5.7894027122529224e-05
244	0x0000000000000000	0.0
245	0xc044e34240000000	-41.77545928955078
246	0x405aea4440000000	107.66041564941406
247	0x3f5abca3c0000000	0.001631889259442687
248	0x3f8e8cdfa0000000	0.014917132444679737
249	0xc055b1b0c0000000	-86.77641296386719
250	0x3effd56e00000000	3.0358991352841258e-05
251	0x0000000000000000	0.0
252	0xc044e31960000000	-41.77421188354492
253	0x405ae8dd20000000	107.63849639892578
254	0x3f5afdeb80000000	0.0016474532894790173
255	0x3f8f2a6fe0000000	0.015217660926282406
